ppo/PPO_preTrained/Small-Door-Room-Locked-Finetune/PPO_Small-Door-Room-Locked-Finetune_47_0.pth (torch, 378802 bytes, 19 tensors)

actor_conv1.weight f4 [16, 3, 2, 2]
0	0x3d8ae1f4	0.067813784
1	0x3e8b9f72	0.27270085
2	0xbe6f16d2	-0.23348549
3	0xbe838cda	-0.256934
4	0xbe03e893	-0.12881689
5	0x3db36015	0.087585606
6	0xbca6b9c3	-0.02035225
7	0x3e3cbe52	0.18431976
8	0x3d87b663	0.066265844
9	0x3df855bf	0.1212573
10	0xbd7c91dc	-0.06166254
11	0xbeb44952	-0.3521219
12	0xbe932dcf	-0.28745887
13	0xbe28a1fe	-0.16468045
14	0x3b490d86	0.0030678227
15	0x3b3b20d7	0.002855351
16	0x3d68d121	0.056840066
17	0x3e55de43	0.20885567
18	0xbe490548	-0.19630921
19	0xbd91c103	-0.07116892
20	0x3d72deb7	0.05929443
21	0x3e6f1d73	0.23351078
22	0xbd382dd7	-0.04496559
23	0x3f29ff5f	0.6640529
24	0x3d835ad0	0.064138055
25	0x3d8f1274	0.069859415
26	0x3eb19cff	0.3469009
27	0xbe841d03	-0.25803384
28	0xbe3c5aae	-0.18393967
29	0xbd1f9abd	-0.03896593
30	0xbe138ae9	-0.14408459
31	0x3e8767d1	0.26446393
32	0xbe3f9aa4	-0.18711334
33	0xbebf2a9b	-0.37337193
34	0x3e97c62b	0.29643378
35	0xbebb298c	-0.36555135
36	0xbe71d4f6	-0.23616394
37	0x3ec20b04	0.3789903
38	0x3ce2e52d	0.02769717
39	0x3dc449cf	0.0958439
40	0x3c32a506	0.0109036025
41	0xbdde9e97	-0.10870092
42	0xbbb6bc9a	-0.0055766823
43	0xbea31747	-0.31853697
44	0xbe87e61d	-0.2654275
45	0xbe4c5e5a	-0.19957867
46	0x3eea441c	0.45755088
47	0x3efa0fed	0.48840275
48	0xbe60b81d	-0.21945234
49	0xbdcc4905	-0.09974865
50	0x3e8ea0ef	0.27857158
51	0x3e4b7d12	0.1987193
52	0x3c689bd5	0.0141973095
53	0xbd26b91f	-0.04070389
54	0x3dc7cece	0.09756242
55	0xbe50f968	-0.20407641
56	0x3d60b346	0.05485847
57	0xbc38644e	-0.011254383
58	0xbf005c63	-0.5014097
59	0xbedc1ab2	-0.42989117
60	0x3ba613a4	0.0050682593
61	0x3e2d73a4	0.16938645
62	0xbe842842	-0.25811964
63	0x3e240d7e	0.16020772
64	0x3c832808	0.0160103
65	0xbcd3b6fb	-0.025844088
66	0xbd19b3f8	-0.037525147
67	0x3d5a8665	0.053350825
68	0x3eb733cd	0.35781708
69	0x3f37ad43	0.7174875
70	0xbe52f7e9	-0.20602383
71	0xbd846f0d	-0.06466494
72	0x3c59079d	0.013246444
73	0x3e757c33	0.2397316
74	0x3e41ec4f	0.18937801
75	0x3e9b9d8c	0.30393636
76	0xb8bce78a	-9.007666e-05
77	0xbe9b6745	-0.30352226
78	0xbd5e2437	-0.054233756
79	0xbe040873	-0.12893848
80	0xbe9d6f19	-0.30748823
81	0x3d8a6dd2	0.06759228
82	0x3d9568af	0.072953574
83	0xbeb05881	-0.34442523
84	0xbcd36dcb	-0.02580919
85	0xbe257a1b	-0.16159861
86	0xbdacbcdb	-0.08434459
87	0xbe2e1bfa	-0.1700286
88	0x3d8ab4e2	0.06772782
89	0xbe819bd8	-0.25314212
90	0x3e0e5036	0.13897786
91	0x3e208b9a	0.15678254
92	0x3f1ccfe0	0.6125469
93	0x3e3403a6	0.17579517
94	0xbea49236	-0.321428
95	0xbebaf6f8	-0.36516547
96	0x3ca509ee	0.020146336
97	0x3dae6176	0.08514683
98	0xbe9ea5db	-0.30985913
99	0xbe8ee1ec	-0.2790674
100	0x3e776eb1	0.24163319
101	0x3e50a572	0.20375612
102	0xbe17aeb5	-0.14812739
103	0xbe343ac5	-0.17600544
104	0xbec58b17	-0.3858268
105	0xbd91b4c1	-0.07114554
106	0xbbc13732	-0.0058964724
107	0xbe76df7f	-0.24108694
108	0xbe155b52	-0.14585617
109	0xbdd2ebf4	-0.10298911
110	0xbe7a22bf	-0.24427317
111	0x3e51f52f	0.20503686
112	0xbe94d056	-0.29065198
113	0x3e254c20	0.1614232
114	0x3d74acad	0.05973499
115	0xbddfa0b7	-0.10919326
116	0xbe253f35	-0.16137393
117	0xbe652453	-0.22377138
118	0xbe323089	-0.17401327
119	0xbe7bc3de	-0.24586436
120	0x3e818596	0.2529723
121	0x3d8bee38	0.06832546
122	0xbe207d4e	-0.156728
123	0x3d268459	0.04065356
124	0xbe165e42	-0.14684394
125	0xbe416cfb	-0.18889229
126	0xbd0011cc	-0.031266972
127	0xbde81499	-0.11332054
128	0xbe024d22	-0.12724736
129	0xbef0da1d	-0.47041407
130	0xbeaa055a	-0.33207208
131	0x3d235d51	0.039883915
132	0xbe5d9033	-0.21637039
133	0xbce8fb5f	-0.028440176
134	0x3e2b415c	0.16724151
135	0xbd16d852	-0.036827393
136	0xbcf24dcc	-0.029578112
137	0xbd89c6b1	-0.067273505
138	0x3c91d694	0.017802514
139	0x3e22258f	0.1583464
140	0x3e9b3033	0.3031021
141	0x3e419910	0.18906045
142	0x3f19fdf8	0.6015315
143	0x3d038dde	0.032117717
144	0xbe31e138	-0.1737107
145	0xbd9f54f7	-0.07779878
146	0x3e9963b5	0.29958883
147	0x3e10fdd3	0.14159326
148	0xbe046aa1	-0.129313
149	0xbe233aa3	-0.15940337
150	0xbdf35089	-0.11880595
151	0xbe8fed1d	-0.2811059
152	0xbd6fd63e	-0.058553927
153	0xbc08e694	-0.008355755
154	0x3dcbf0bc	0.09958026
155	0xbe9af2d2	-0.30263382
156	0x3e9a5c6b	0.30148634
157	0xbdb4864c	-0.088146776
158	0x3e392915	0.18082078
159	0xbde8b483	-0.11362555
160	0x3b1b7bf2	0.0023725
161	0xbc20a99a	-0.009806061
162	0xbe0f90a4	-0.1402002
163	0xbed49768	-0.41521764
164	0xbee7eca8	-0.45297742
165	0x3e8ed828	0.2789929
166	0xbea2e24e	-0.31813282
167	0x3d5053b6	0.050861083
168	0xbe935b64	-0.28780663
169	0xbd6776b1	-0.056509677
170	0x3e8434b1	0.2582145
171	0x3cc98f7a	0.024604548
172	0x3e0112ac	0.12604779
173	0x3d155df4	0.036466554
174	0xbeba4598	-0.3638122
175	0x3e5d9a86	0.21640977
176	0x3ee9498a	0.45563918
177	0xbf0977e5	-0.5369857
178	0x3e874019	0.2641609
179	0xbecc3258	-0.3988216
180	0xbdb57450	-0.088600755
181	0xbe034e50	-0.12822843
182	0x3e70fa62	0.23533013
183	0xbcfa7e77	-0.030577881
184	0x3c2821f7	0.010262004
185	0x3d87fa7a	0.066395715
186	0xbcdc9dca	-0.026930708
187	0xbe185763	-0.14877085
188	0xbe89a0ea	-0.2688058
189	0x3e719b10	0.23594308
190	0x3e1c5822	0.15267995
191	0x3e8dd83e	0.27704042

actor_conv1.bias f4 [16]
0	0xbe4a5a93	-0.19761114
1	0x3d400621	0.046880845
2	0xbe24defd	-0.16100688
3	0xbe43d6e1	-0.19124939
4	0xbe87c1c0	-0.26515007
5	0x3ce72cf8	0.028219685
6	0xbe8892ca	-0.2667449
7	0xbb642faa	-0.003481845
8	0xbd02f1a0	-0.031968713
9	0x3dd56c8e	0.10421096
10	0xbe683f81	-0.22680475
11	0xbe85ac02	-0.26107794
12	0xbd96e68f	-0.07368194
13	0x3e717f9f	0.2358384
14	0xbe248af8	-0.16068637
15	0x3dce07d6	0.10060088

actor_conv2.weight f4 [32, 16, 2, 2]
0	0x3d4fae86	0.050703548
1	0x3e081b3b	0.13291638
2	0xbd9df1a3	-0.07712104
3	0xbc371eb1	-0.011176751
4	0x3d5b35af	0.053517994
5	0x3d33931d	0.04384147
6	0xbdfd227a	-0.123600915
7	0x3d0c649b	0.034275632
8	0xbe055bfe	-0.13023373
9	0xbe1b9054	-0.15191776
10	0x3e050ef3	0.12993984
11	0xbdf29533	-0.11844864
12	0x3c033c32	0.008009957
13	0x3e0c38b3	0.13693504
14	0x3cf1b025	0.029502938
15	0x3dd45337	0.103674345
16	0xbd945ec1	-0.072446354
17	0x3d899355	0.067175545
18	0xbd05cecd	-0.032667924
19	0xbd701080	-0.058609486
20	0xbccfe173	-0.025376057
21	0x3d9a42a5	0.07532243
22	0xbd842776	-0.06452839
23	0x3da0d5da	0.07853289
24	0x3d19b11b	0.037522417
25	0x3e2dabeb	0.16960113
26	0x3def711f	0.11691498
27	0xbe00c4c8	-0.12575066
28	0x3d8a2b2a	0.06746514
29	0xbd568714	-0.052374914
30	0x3c7d33d7	0.015454254
31	0x3e37509a	0.17901841
32	0x3d89c554	0.067270905
33	0x3d94aa4c	0.07259044
34	0xbbc928c5	-0.0061388933
35	0x3daf92fd	0.08572958
36	0x3da43306	0.080175444
37	0xbe060f62	-0.13091806
38	0x3d9b9c6c	0.075981945
39	0xbd42f36f	-0.047595438
40	0x3d8f6e99	0.07003517
41	0x3e01210f	0.12610267
42	0xbe10d97b	-0.14145462
43	0xbe098e03	-0.1343308
44	0x3e0ba9f2	0.13639048
45	0xbd316f4b	-0.043319028
46	0xbdae02ad	-0.08496604
47	0xbe16c563	-0.14723735
48	0xbe114b88	-0.14188969
49	0xbafeab68	-0.0019429745
50	0x3bd32c9d	0.0064445273
51	0xbe20cb80	-0.15702629
52	0xbd7094d6	-0.05873569
53	0x3ad48857	0.0016214949
54	0x3d0ac29b	0.033876996
55	0xbe02608b	-0.1273214
56	0x3bf5d4f1	0.0075021912
57	0xbb3cb938	-0.0028796922
58	0xbd07b48d	-0.03313117
59	0x3d258b13	0.040415835
60	0x3dbf4a4c	0.09340343
61	0x3d9fe752	0.07807793
62	0xbd976a62	-0.07393338
63	0xbe04e8cf	-0.12979434
64	0xbe8a0ab7	-0.269613
65	0x3de59ac3	0.11211159
66	0xbd94e5eb	-0.07270416
67	0xbcf577fd	-0.029964441
68	0x3db98488	0.090584815
69	0x3dacf17d	0.08444498
70	0xbcf0595e	-0.029339489
71	0x3de4a144	0.111635715
72	0xbd340fa6	-0.043960236
73	0xbdd6bb3e	-0.10484932
74	0xbd8766a1	-0.06611372
75	0x3e001123	0.12506537
76	0x3d17c571	0.03705353
77	0x3e5b4962	0.21414712
78	0x3caebaa5	0.021329233
79	0x3d9a7dc2	0.07543518
80	0x3c73211c	0.014839437
81	0xbd7a8a16	-0.061166845
82	0xbd29ef88	-0.0414882
83	0x3d1fea0d	0.039041568
84	0x3ab90b31	0.0014117715
85	0x3e1f2f7d	0.15545459
86	0xbb19c7a1	-0.0023464935
87	0xbdb60480	-0.08887577
88	0x3e1205c7	0.14260016
89	0xbdc03124	-0.09384373
90	0x3de1ed16	0.11031549
91	0xbd4a0b41	-0.04932714
92	0xbbc71581	-0.0060755615
93	0x3e439dde	0.1910319
94	0xbc2f8a00	-0.010714054
95	0x3de9df09	0.11419494
96	0x3df2bc8c	0.11852369
97	0xbddc42e1	-0.10754944
98	0x3d1d69ab	0.03843085
99	0x3e09327f	0.13398169
100	0x3d81dbaf	0.063407294
101	0xbe1f6a05	-0.15567787
102	0xbd9e9896	-0.07743947
103	0xbcb03982	-0.021511797
104	0xbd161717	-0.036643114
105	0x3cc7341e	0.024316844
106	0x3df7628e	0.12079345
107	0x3d411ec1	0.04714847
108	0xbdda0698	-0.10645789
109	0x3bb5fcf5	0.0055538365
110	0x3dee26d0	0.11628497
111	0xbc3add73	-0.011405337
112	0x3c24f370	0.010067806
113	0x3c0dc6af	0.008653327
114	0xbcfb5c61	-0.030683698
115	0xbde7ae26	-0.11312513
116	0x3d9bd0d6	0.07608192
117	0xbdb7e1c7	-0.089786105
118	0x3e08c1b1	0.13355137
119	0xbd9d93bd	-0.076941945
120	0x3ceaee59	0.028678106
121	0xbcd23f0b	-0.025664827
122	0xbd99a5cd	-0.07502327
123	0xbe04eda2	-0.12981275
124	0x3de11eed	0.10992227
125	0x3dbfda05	0.09367756
126	0xbce5b8f5	-0.028042296
127	0x3da02b0b	0.0782071
128	0xbc8b69a1	-0.017018141
129	0x3a915fad	0.0011091136
130	0x3c362957	0.011118255
131	0x3ddfdb8b	0.109305464
132	0xbd3e2fc6	-0.04643228
133	0xbd8c94bc	-0.06864306
134	0x3cf8d4d1	0.030374916
135	0x3ba58b9e	0.005052044
136	0xbe500c5c	-0.20317215
137	0x3ea6b08d	0.32556573
138	0x3def62cc	0.11688766
139	0x3e2510ae	0.16119644
140	0xbdfd459c	-0.123667926
141	0x3d89b63e	0.06724213
142	0xbd9084da	-0.070565894
143	0x3de72a2c	0.112873405
144	0xbdce06c5	-0.10059885
145	0x3d3d47f7	0.04621121
146	0xbd066569	-0.032811556
147	0x3d7b605e	0.0613712
148	0xbd3f53a2	-0.046710618
149	0xbbe60487	-0.0070195827
150	0xbdda4a7b	-0.10658737
151	0x3d26266b	0.040563982
152	0xbe3a1a42	-0.18174079
153	0xbe0198ee	-0.12655994
154	0xbe161fd1	-0.14660574
155	0x3dde5509	0.10856063
156	0xbd2ac0d0	-0.041687787
157	0xbd9a6882	-0.075394645
158	0x3cee0493	0.029054916
159	0xbe8d70d2	-0.27625138
160	0xbdfef09c	-0.12448236
161	0xbd6ec435	-0.058292586
162	0xbdd3380d	-0.10313425
163	0x3d5fd794	0.05464895
164	0xbe0927e6	-0.13394126
165	0xbce9b160	-0.028526962
166	0xbe0bb94b	-0.13644902
167	0x3db059c9	0.08610875
168	0x3da8f2a4	0.08249405
169	0x3da7dc33	0.081962965
170	0x3e17230d	0.14759465
171	0x3ec6a7d0	0.38799906
172	0x3d9fdc3d	0.07805679
173	0x3e07e4e5	0.1327091
174	0x3babac7a	0.0052390667
175	0x3e298bd2	0.16557243
176	0x3d86e93c	0.06587455
177	0x3e6307e6	0.22170982
178	0x3e3aef6d	0.18255396
179	0x3e858a89	0.26082256
180	0xbd7b9ec3	-0.061430704
181	0x3e47a01f	0.19494675
182	0x3d0380cb	0.03210525
183	0x3e3f4787	0.1867963
184	0xbe1abbd6	-0.15110716
185	0xbd473e59	-0.048643444
186	0xbde31dc3	-0.11089661
187	0x3dd40a53	0.10353532
188	0x3d123ce4	0.0357026
189	0x3ba6eb5d	0.0050939755
190	0xbd9d6c5e	-0.07686685
191	0x3d845e5b	0.064633094
192	0x3e2c9989	0.16855444
193	0x3dc7e8ea	0.09761222
194	0xbdc16a78	-0.094441354
195	0x3d2d4173	0.042298745
196	0xbc0ac271	-0.00846921
197	0xbe83425b	-0.25636563
198	0x3e337175	0.17523749
199	0x3db7f294	0.08981815
200	0xbd8463ee	-0.064643726
201	0x3e3c4429	0.18385376
202	0xbc9dc7fb	-0.019260397
203	0xbc8ae5aa	-0.016955215
204	0x3e33eacd	0.17570038
205	0x3ca1aa4a	0.01973452
206	0xbd5e81bc	-0.054322943
207	0x3ca23919	0.019802617
208	0xbb25a6cc	-0.002527642
209	0x3d69a75a	0.057044365
210	0x3bcf7612	0.0063312137
211	0x3d8043d6	0.06262939
212	0x3c57858d	0.0131544
213	0xbe6d6654	-0.23183566
214	0x3ca4751f	0.020075379
215	0xbcf54029	-0.02993782
216	0x3df90611	0.1215936
217	0xbe1e1943	-0.15439324
218	0x3cb9c103	0.022675043
219	0xbe07b49c	-0.13252491
220	0xbe3e1220	-0.18561602
221	0x3dc614c9	0.09671933
222	0xbe871a73	-0.26387367
223	0x3e529757	0.20565544
224	0xbcb6a294	-0.02229432
225	0x3df94fcb	0.121734224
226	0xbde14b26	-0.110006616
227	0xbe542e4c	-0.20720786
228	0xbb30df20	-0.0026988462
229	0x3dd498a8	0.10380679
230	0x3d837cc9	0.06420285
231	0x3cd08f03	0.025458818
232	0xbe5ff4d5	-0.2187074
233	0xbe0617f7	-0.1309508
234	0xbd38b071	-0.045090143
235	0x3e8ed985	0.2790033
236	0xbe1b8087	-0.15185748
237	0x3d69b4a2	0.05705703
238	0xbd3d15b0	-0.04616326
239	0x3d3cf37e	0.04613065
240	0xbdacac1c	-0.08431265
241	0xbde8b183	-0.11361983
242	0x3e34168d	0.17586727
243	0xbd8e1b50	-0.06938803
244	0xbc945d25	-0.018110821
245	0x3a66d779	0.00088059116
246	0xbd20bec2	-0.03924442
247	0x3e712d51	0.23552443
248	0xbd0a10fd	-0.033707608
249	0x3e69c477	0.22828852
250	0xbdac6dcb	-0.08419379
251	0xbd6c87b3	-0.0577466
252	0xbe76ea3b	-0.2411279
253	0xbda1e22c	-0.07904467
254	0x3db9ea36	0.09077875
255	0xbdcc299a	-0.09968872

actor_conv2.bias f4 [32]
0	0x3db357cd	0.08756981
1	0xbb0b5a3d	-0.0021263503
2	0xbdc6a288	-0.09698969
3	0x3dda707d	0.10665987
4	0x3d3366f9	0.043799374
5	0xbdf3c28e	-0.11902343
6	0x3c8d2abe	0.017232295
7	0xbd65dc07	-0.056118038
8	0x3d60b376	0.054858647
9	0xbd84f091	-0.06491197
10	0x3c6b423f	0.014359056
11	0x3d6fa479	0.058506463
12	0xbd5fb0c5	-0.05461194
13	0xbdb731cb	-0.08945044
14	0x3daef139	0.08542103
15	0x3d7a0171	0.06103653
16	0x3cb6ba02	0.022305492
17	0x3c218f41	0.009860815
18	0x3a64ebc3	0.0008732641
19	0x3e060258	0.13086832
20	0xbd8faeec	-0.070157856
21	0xbcb669a3	-0.022267168
22	0x3de53aa2	0.11192824
23	0x3cc6305b	0.02419298
24	0x3d44c07c	0.04803513
25	0xbd0cbd37	-0.034360137
26	0xbc7cd25a	-0.015431011
27	0xbd263fdb	-0.04058824
28	0x3cf332c4	0.029687293
29	0xbd29296f	-0.04129928
30	0xbe28cc41	-0.16484167
31	0x3d3ef311	0.046618525

actor_conv3.weight f4 [64, 32, 2, 2]
0	0xbc489198	-0.0122417435
1	0x3dba7c76	0.0910577
2	0x3dc715e0	0.09720969
3	0xbbb36920	-0.0054751784
4	0x3d0e11c0	0.034684896
5	0x3db7471c	0.0894911
6	0x3d1d298e	0.038369708
7	0x3d040b92	0.032237597
8	0x3d51c6f1	0.051215116
9	0xbd70d3d1	-0.058795754
10	0x3d7e578c	0.06209521
11	0xbe1668ff	-0.1468849
12	0x3b579d25	0.0032900062
13	0xbdbac2d9	-0.091191955
14	0x3e24868a	0.16066948
15	0x3e306bc1	0.17228605
16	0xbd17507f	-0.036942
17	0x3ca74062	0.020416442
18	0x3bd97161	0.0066358303
19	0xbdbac6dd	-0.091199614
20	0x3d4182d5	0.04724391
21	0xbc46e348	-0.012139149
22	0x3c6dca00	0.014513493
23	0x3d437866	0.047722243
24	0xbda3b470	-0.079934
25	0x3d094501	0.033513073
26	0x3db79a6b	0.08965
27	0xbdbe26df	-0.09284758
28	0x3da9fbea	0.08300002
29	0xbdf62afa	-0.12019916
30	0xbd4bfc79	-0.049801324
31	0x37cd5f34	2.4482237e-05
32	0xbd9799fb	-0.07402416
33	0x3e54980e	0.2076113
34	0x3db041ae	0.086062774
35	0x3cd14fac	0.025550686
36	0xbd054eae	-0.032545738
37	0x3d1b5d99	0.03793106
38	0xbd0bb560	-0.03410852
39	0x3e0f3bdc	0.13987678
40	0xbad5c345	-0.0016308805
41	0x3e13d786	0.14437684
42	0x3dad3662	0.08457638
43	0xbdfae334	-0.12250367
44	0xbc4785b7	-0.012177876
45	0xb9b42455	-0.00034359345
46	0x3d9f746b	0.07785877
47	0xbbe0f947	-0.0068656537
48	0xbe07c181	-0.1325741
49	0x3d645290	0.0557428
50	0xbd92ed6e	-0.07174192
51	0xbd82068b	-0.06348904
52	0x3c6d7f66	0.014495706
53	0x3daaf597	0.08347624
54	0x3d44f82b	0.048088234
55	0x3e817b60	0.2528944
56	0xbd5aa184	-0.05337669
57	0x3d29761f	0.041372415
58	0xbdd40e67	-0.103543095
59	0x3e05a9e4	0.1305309
60	0x3e03988f	0.12851165
61	0xbe3dac6b	-0.18522803
62	0x3d19d652	0.037557907
63	0xbdf9059b	-0.12159272
64	0x3dd866e2	0.10566498
65	0xbe99ea24	-0.30061448
66	0xbceacb95	-0.028661529
67	0xbe121220	-0.14264727
68	0x3d77b561	0.06047571
69	0xbd243690	-0.040091097
70	0x3d062b31	0.032756034
71	0x39f7dbcb	0.0004727527
72	0xbae28e5b	-0.0017284857
73	0x3df0ae2e	0.11751972
74	0x3d878e27	0.0661891
75	0x3d868335	0.065679945
76	0x3be78b4c	0.007066166
77	0x3da65e3c	0.081234425
78	0xbd3037b5	-0.043021876
79	0xbc929769	-0.017894464
80	0x3df6c546	0.12049346
81	0x3c7d388e	0.015455378
82	0xbdaf1717	-0.08549326
83	0xbc74bb42	-0.014937224
84	0x3d695dd4	0.056974247
85	0x3dea0610	0.114269376
86	0xbc93eb6a	-0.01805659
87	0x3dfe8cc7	0.12429195
88	0xbd3f4f56	-0.04670652
89	0x3ba0b12f	0.0049039344
90	0x3e377f35	0.1791962
91	0x3d6cd32c	0.057818577
92	0x3dde6c00	0.10860443
93	0x3dae56d2	0.085126534
94	0xbcc5528e	-0.024087217
95	0xbe656242	-0.22400764
96	0xbcd7acf2	-0.026327584
97	0x3e4148f6	0.18875489
98	0x3d49dbb8	0.049281806
99	0xbe2188c1	-0.15774824
100	0xbc946145	-0.018112788
101	0xbd8b4464	-0.06800154
102	0x3b5de57f	0.0033858714
103	0xbc62c910	-0.013841882
104	0xbe1507f1	-0.1455381
105	0x3c5d7ac6	0.013518041
106	0x3e0d9d7d	0.13829608
107	0x3dbb6177	0.09149449
108	0x3d2a8050	0.041626275
109	0x3e1e826a	0.15479437
110	0x3c0c8d47	0.008578605
111	0xbdac9238	-0.084263265
112	0x3d0550b0	0.032547653
113	0x3e0703bc	0.13185018
114	0xbca923c1	-0.020646932
115	0x3d5ab21a	0.053392507
116	0xbd1b563c	-0.037924036
117	0x3d6c0349	0.05762032
118	0x3cee061e	0.029055651
119	0xbe4771e1	-0.19477035
120	0xbd6da575	-0.05801912
121	0xbd4ed4d0	-0.050495923
122	0xbc602286	-0.013680106
123	0x3d430371	0.047610704
124	0xbe6ab184	-0.2291928
125	0x3c3f8377	0.0116890585
126	0xbb0c58df	-0.0021415276
127	0xbe2d9322	-0.16950658
128	0xbdd9546f	-0.106118076
129	0x3ce14da6	0.027502846
130	0xbdd472b2	-0.10373439
131	0x3cc52bfb	0.024068823
132	0xbd619d3f	-0.055081602
133	0xbdd76c07	-0.105186515
134	0xbdd3baa0	-0.1033833
135	0x3d699f39	0.057036612
136	0x3d325186	0.043534778
137	0xbd89921f	-0.067173235
138	0xbd7354c8	-0.059407026
139	0xbe0342f1	-0.12818505
140	0x3d5f3572	0.05449433
141	0xbe3681ec	-0.17822999
142	0x3d637709	0.055533443
143	0x3e002f88	0.12518132
144	0xbb861e6f	-0.0040929834
145	0x3d9cf30b	0.07663544
146	0x3d350bd4	0.044200733
147	0x3d8ea8a7	0.06965762
148	0x3db5e233	0.08881035
149	0xbcc10183	-0.023560291
150	0xbca9dbd5	-0.020734707
151	0xbbc5bc54	-0.0060344134
152	0x3d5a034c	0.0532258
153	0xbc06f59f	-0.008237272
154	0xbd2d9eb3	-0.042387675
155	0xbdccf06f	-0.100067966
156	0xbda48b8d	-0.0803443
157	0x3c3ab083	0.011394623
158	0x3d075f25	0.03304972
159	0x3d3d73ef	0.04625314
160	0xbd9605d1	-0.07325328
161	0x3d6fe31b	0.058566194
162	0x3ca9b59d	0.020716483
163	0x3cfb1e57	0.030654116
164	0xbd152a05	-0.036417026
165	0xbc972eb0	-0.01845488
166	0x3dc44fe5	0.09585551
167	0x3bc9b054	0.006155053
168	0xbdaeb8c1	-0.08531333
169	0x3d47cd1e	0.0487796
170	0x3c8ba563	0.017046636
171	0xbd721c93	-0.05910928
172	0x3bd7f5bc	0.006590573
173	0xbcf91ccc	-0.03040924
174	0x3d5607da	0.05225358
175	0xbd86811b	-0.06567594
176	0xbd6cb408	-0.05778888
177	0x3c6dc7ae	0.014512939
178	0xbddcf554	-0.1078898
179	0xbbc0605e	-0.005870863
180	0xbd5fcc44	-0.054638162
181	0x3e4bea77	0.1991366
182	0x3d54b7f5	0.051933248
183	0x3d8d4313	0.06897559
184	0xbd90cb75	-0.07070056
185	0xbdef87c3	-0.11695816
186	0x3d97b857	0.07408207
187	0x3dea87e1	0.11451698
188	0x3da26a5d	0.079304434
189	0xbde8ee8d	-0.11373625
190	0xbdb75ac4	-0.08952859
191	0xbd2ac25c	-0.04168926
192	0xbd9bf0d5	-0.076142944
193	0xbcb643f4	-0.0222492
194	0xbd0e9c3f	-0.034816977
195	0xbd7270dc	-0.059189662
196	0xbdaff52d	-0.085916854
197	0xbe169549	-0.14705385
198	0x3de88781	0.1135397
199	0xbdf14ea5	-0.117825784
200	0xbe1fce9a	-0.15606156
201	0x3c0f81d1	0.008758978
202	0xbe3984be	-0.18117043
203	0x3d73c3a7	0.05951276
204	0x3d46380f	0.048393305
205	0x3e0b8a72	0.13627031
206	0xbdd3e960	-0.10347247
207	0xbdda0d86	-0.10647111
208	0x3d5d8ef2	0.0540914
209	0x3d926179	0.07147498
210	0xbd67d00e	-0.0565949
211	0x3d0a157a	0.033711888
212	0x3c1996bb	0.009374316
213	0x3e01935f	0.12653874
214	0xbddc89d8	-0.10768479
215	0xbcbe62be	-0.023240443
216	0xbd1e5174	-0.0386519
217	0xbd69dc47	-0.05709484
218	0x3d02386a	0.031792082
219	0x3e23ee99	0.16008987
220	0xbc353158	-0.011059128
221	0x3d65c6ad	0.056097675
222	0x3dd49878	0.103806436
223	0x3d13dba0	0.036098123
224	0x3d96690d	0.073442556
225	0x3d01ad4d	0.031659413
226	0xbd455c0c	-0.048183486
227	0xbdc3b984	-0.09556869
228	0xbc8be5fa	-0.017077435
229	0xbe3cc43e	-0.18434235
230	0x3d36efbe	0.04466223
231	0xbdc20146	-0.09472899
232	0xbcca499f	-0.024693308
233	0x3e0a27ad	0.13491698
234	0xbd6d5a4d	-0.057947446
235	0x3d0e761c	0.034780607
236	0x3c471ee6	0.012153363
237	0xbdf800eb	-0.1210955
238	0x3d2ad090	0.041702807
239	0xbe0a3f43	-0.13500695
240	0xbd51659e	-0.0511223
241	0xbd53958f	-0.051656302
242	0x3c9661f7	0.01835726
243	0xbd8d6882	-0.06904699
244	0x3ca14088	0.019684091
245	0x3ba32405	0.004978659
246	0x3da23fea	0.07922347
247	0xbde1587b	-0.110032044
248	0xbd469706	-0.04848387
249	0x3dc1a3b7	0.09455054
250	0xbc5ac975	-0.013353695
251	0xbd94d694	-0.0726749
252	0xbd78336c	-0.060595915
253	0xbde49acb	-0.11162337
254	0xbd3c9838	-0.046043605
255	0xbc3e08f9	-0.011598819

actor_conv3.bias f4 [64]
0	0xbc8d03f0	-0.017213792
1	0xbd4d6241	-0.05014253
2	0xbd4cd964	-0.050012007
3	0x3cc2b2f6	0.023766976
4	0x3d877c7d	0.06615541
5	0x3d2029e1	0.03910244
6	0x3de63107	0.1123982
7	0xbda049c8	-0.07826573
8	0x3d9b366f	0.07578742
9	0xbd6d77b4	-0.057975486
10	0x3d4731ca	0.048631467
11	0xbd4e7805	-0.05040743
12	0x3b7de788	0.003874274
13	0xbd8e9885	-0.069626845
14	0x3e1a4e11	0.15068842
15	0xbd45adef	-0.04826158
16	0xbdd40ae1	-0.103536375
17	0x3d3ad806	0.045616172
18	0xbd96bdba	-0.07360406
19	0xbc824d3a	-0.015905965
20	0x3e1df88e	0.15426847
21	0x3c839951	0.016064318
22	0x3d3ce713	0.046118807
23	0x3d9473eb	0.07248672
24	0xbc8c25d5	-0.017107883
25	0x3b8b97b0	0.004260026
26	0xbd8e8551	-0.06959022
27	0xbd76946b	-0.060200136
28	0x3c2a4677	0.010392777
29	0x3cacaddb	0.021078994
30	0x3e1af066	0.15130767
31	0xbdc0f00a	-0.09420784
32	0xbb92924c	-0.0044730064
33	0xbdead545	-0.11466459
34	0xbc65a9e2	-0.014017554
35	0x3d38a46e	0.045078687
36	0xbdca7808	-0.098861754
37	0xbc2e150d	-0.010625136
38	0x3cce14ff	0.025156496
39	0xbda2ec80	-0.07955265
40	0x3e04e24d	0.12976952
41	0x3d43617a	0.047700383
42	0x3d2bcb84	0.041942134
43	0xbd1824be	-0.037144415
44	0x3d148a0b	0.03626446
45	0xbc9e8c10	-0.019353896
46	0x3a4db191	0.0007846589
47	0xbd08de73	-0.03341527
48	0xbd072c01	-0.03300095
49	0x3b0978f7	0.0020976642
50	0x3d9ab60d	0.07554255
51	0x3cf2677b	0.029590359
52	0x3d0595fc	0.03261374
53	0x3d62fe30	0.055418193
54	0xbdd4a4d1	-0.10382999
55	0xbd8349bf	-0.0641055
56	0xbd6629fa	-0.056192376
57	0x3c87da64	0.016583629
58	0xbce7fe1f	-0.028319417
59	0xbc236f6a	-0.009975294
60	0xbda258cc	-0.07927093
61	0x3c574e36	0.013141206
62	0xbd8d03be	-0.068854794
63	0xbc036de3	-0.0080218045

actor_fc1.weight f4 [512, 65]
0	0xbe25f3f2	-0.16206339
1	0x3cef6333	0.029222107
2	0x3db3b3a4	0.08774498
3	0xbe0df97d	-0.13864703
4	0x3d7d61fa	0.061861016
5	0xbd43b126	-0.047776364
6	0x3c549349	0.012974569
7	0x3cfe8a30	0.031071752
8	0x3e6611d1	0.22467734
9	0xbe0813da	-0.13288823
10	0xbe00ad38	-0.12566078
11	0x3ea33ab1	0.31880715
12	0x3e8e092e	0.2774138
13	0x3da0eb98	0.07857436
14	0x3e7b4c76	0.24540886
15	0x3adfa296	0.0017062004
16	0xbe3a5f26	-0.18200359
17	0xbe11de82	-0.14245036
18	0xbe6a0feb	-0.22857635
19	0xbd8fc880	-0.07020664
20	0x3e840294	0.25783217
21	0x3d1bbc3d	0.038021315
22	0xbdfa6bf2	-0.1222762
23	0xbd1539a3	-0.03643192
24	0x3e22cac9	0.15897669
25	0xbdebed99	-0.115199275
26	0x3df4fa77	0.11961835
27	0x3e0f1605	0.13973244
28	0xbd83a70c	-0.06428346
29	0x3dd9389d	0.10606501
30	0xbea19c2e	-0.31564468
31	0xbdabb4e3	-0.08384111
32	0x3e7e07f3	0.2480772
33	0x3bbb6a84	0.0057194848
34	0xbd3e0ac5	-0.04639699
35	0x3e9cc594	0.3061949
36	0x3de40171	0.111330874
37	0x3dbce7dc	0.09223911
38	0x3d9279cf	0.071521394
39	0xbe214232	-0.15747908
40	0xbea553d1	-0.3229051
41	0xbdbeba8e	-0.09312926
42	0xbcd91d36	-0.026503187
43	0xbd2706cb	-0.040777963
44	0xbd7e90f9	-0.062149975
45	0xbda093c3	-0.07840683
46	0x3e83cf69	0.2574418
47	0xbe137a9a	-0.14402238
48	0xbbf273c2	-0.0073990533
49	0x3ec7d12d	0.39026776
50	0xbea668ab	-0.3250173
51	0x3de67131	0.11252058
52	0x3ea616b6	0.32439202
53	0xbe36cdc4	-0.17851931
54	0x3e16e8f6	0.14737305
55	0xbe60db4e	-0.21958658
56	0xbe896b86	-0.26839846
57	0xbe180f68	-0.14849627
58	0x3cde1a5e	0.027112182
59	0xbdebe3ca	-0.11518057
60	0xbcfe3dbe	-0.0310353
61	0x3e19d256	0.15021643
62	0x3e9de81c	0.30841148
63	0x3d1d188f	0.0383535
64	0xbd13d45c	-0.036091194
65	0xbe2ba13b	-0.16760723
66	0xbe0952cd	-0.13410492
67	0x3e13e622	0.14443257
68	0x3e98fbd6	0.29879636
69	0x3e5b9c94	0.21446449
70	0x3d472d39	0.048627112
71	0xbe586a77	-0.21134363
72	0x3ea03324	0.31289017
73	0xbd2fbc01	-0.042903904
74	0xbdf5fa17	-0.120105915
75	0x3e23676e	0.15957424
76	0xbd6b197d	-0.057397354
77	0x3e186dac	0.14885587
78	0xbebb0933	-0.36530456
79	0xbea7668b	-0.32695422
80	0xbcd56217	-0.02604775
81	0xbd759853	-0.05995972
82	0xbda40c2c	-0.08010134
83	0xbdfdfafd	-0.12401388
84	0xbe76cc66	-0.2410141
85	0x3e48bbbc	0.19602865
86	0xbe7a9f95	-0.24474938
87	0xbe483bfe	-0.19554135
88	0x3dfbfd17	0.123041324
89	0x3c4ed9ba	0.012625152
90	0x3e0c1f09	0.13683714
91	0xbe305435	-0.17219622
92	0xbdf7acda	-0.12093516
93	0xbdac365e	-0.08408807
94	0x3e6ec2d0	0.23316503
95	0xbed68864	-0.41900933
96	0xbead62a9	-0.33864334
97	0xbb2943cb	-0.0025827761
98	0x3ccd4b9d	0.02506047
99	0xbe46afe0	-0.19403028
100	0xbe34100e	-0.1758425
101	0xbdd84e44	-0.10561803
102	0x3e504119	0.20337333
103	0x3e109cea	0.14122358
104	0x3aadce57	0.0013260347
105	0x3dccdf48	0.10003525
106	0x3d33f996	0.043939196
107	0xbd5b5658	-0.05354914
108	0x3e1d8bbd	0.15385337
109	0x3d0266a4	0.031836167
110	0xbe7fccf5	-0.24980529
111	0xbe48831d	-0.19581266
112	0xbd702751	-0.058631245
113	0x3d386850	0.045021355
114	0x3e3255f3	0.174156
115	0xbeca5fee	-0.39526314
116	0x3e4fce3d	0.20293517
117	0xbe66454a	-0.22487369
118	0x3e1f0d7b	0.15532486
119	0x3d93d278	0.07217878
120	0xbdac8f63	-0.08425786
121	0x3db37f06	0.08764462
122	0xbc449d10	-0.012000337
123	0x3da2489e	0.07924007
124	0xbc6630b7	-0.0140497
125	0x3e5ddadc	0.2166552
126	0x3e87a6c4	0.2649442
127	0x3d499ac0	0.049219847
128	0xbe417033	-0.18890457
129	0xbe13c25f	-0.14429615
130	0x3c712555	0.014718373
131	0xbe046bb9	-0.12931718
132	0xbd7ac679	-0.061224435
133	0xbe6e99e6	-0.23300895
134	0xbde3cfca	-0.11123617
135	0x3cdd4ba6	0.027013611
136	0x3e500a77	0.20316492
137	0x3e34a1de	0.17639872
138	0x3da627fe	0.08113097
139	0xbe4ad75c	-0.19808716
140	0xbe57ed24	-0.21086556
141	0xbde33068	-0.11093217
142	0xbdb873c3	-0.09006455
143	0x3d0a5d04	0.033780113
144	0x3e2a9cbf	0.16661356
145	0x3e678508	0.22609341
146	0x3e3a1855	0.18173344
147	0x3e030ab0	0.12797046
148	0xbd6e90b2	-0.05824346
149	0xbc767c30	-0.015044257
150	0xbe00d2e6	-0.12580451
151	0xbe6a1e61	-0.22863151
152	0x3e123756	0.14278921
153	0xbe3b7294	-0.18305427
154	0xbe443c0e	-0.19163534
155	0x3e45c007	0.19311534
156	0x3c78b353	0.015179473
157	0xbe2153ee	-0.15754673
158	0xbcded1ff	-0.027199743
159	0xbd5274e7	-0.051381018
160	0x3e41a67c	0.18911165
161	0x3e12c596	0.14333186
162	0xbe9106d7	-0.2832553
163	0xbdc6be4a	-0.097042635
164	0xbe098a78	-0.13431728
165	0xbe1e5c8c	-0.15464991
166	0xbe03fc60	-0.12889242
167	0x3db433bf	0.08798932
168	0xbe30f27f	-0.17280005
169	0x3e6f3e78	0.23363674
170	0x3d23abca	0.039958753
171	0xbdd3a11b	-0.10333463
172	0xbc10842a	-0.008820573
173	0xbd01d15c	-0.0316938
174	0x3e3a0a55	0.18168004
175	0xbe22c833	-0.15896682
176	0x3c21e47e	0.009881137
177	0xbcfc9d96	-0.030836862
178	0x3eb43c72	0.35202366
179	0x3e79a54c	0.24379462
180	0xbe80d90c	-0.25165594
181	0xbe10e07e	-0.14148137
182	0x3bdce9ff	0.0067417617
183	0xbd1d2dda	-0.038373806
184	0x3e098c8a	0.13432518
185	0xbc2b5dd9	-0.010459387
186	0x3e7863a2	0.24256757
187	0xbc0e2d8f	-0.008677854
188	0xbdbc0459	-0.09180517
189	0x3e177359	0.14790095
190	0x3e68f1a6	0.22748432
191	0xbe1762ea	-0.14783826
192	0x3c49c9ab	0.012316148
193	0x3d8379fc	0.06419751
194	0xbc6c9a90	-0.014441147
195	0x3d3f4ac9	0.04670218
196	0xbc6a14f2	-0.01428722
197	0x3e133404	0.14375311
198	0xbd8bea35	-0.06831781
199	0xbe15de50	-0.14635587
200	0xbe8e04ac	-0.2773794
201	0x3e8c5808	0.27410913
202	0x3cc9ee16	0.024649661
203	0x3e03b4a8	0.12861884
204	0x3e163a8d	0.14670773
205	0xbd8ef47b	-0.06980225
206	0xbe3f5b08	-0.1868707
207	0xbcd35f46	-0.025802266
208	0xbd247611	-0.04015166
209	0xbdc49608	-0.09598929
210	0x3e06139c	0.13093418
211	0x3e97aabd	0.2962245
212	0xbe906e5f	-0.28209206
213	0x3d549edb	0.05190931
214	0x3e00d7d0	0.12582326
215	0x3dbc3db5	0.09191457
216	0x3ec23187	0.3792841
217	0xbd79e274	-0.06100698
218	0xbddd3c75	-0.10802547
219	0xbddf608d	-0.109070875
220	0x3e256fb5	0.16155894
221	0x3eca1892	0.3947187
222	0xbe22f376	-0.15913185
223	0x3e06f95d	0.13181062
224	0x3d340bf0	0.043956697
225	0x3e069ef2	0.1314657
226	0xbe28e464	-0.16493374
227	0x3e0f6da0	0.14006662
228	0xbd9b2814	-0.07576004
229	0xbea13431	-0.3148513
230	0x3e14f140	0.14545155
231	0x3d9bb50d	0.07602892
232	0x3d8b2495	0.06794087
233	0xbe22ff98	-0.15917814
234	0x3dc57938	0.09642261
235	0x3e0841e0	0.1330638
236	0x3e99d142	0.30042464
237	0xbe8000f5	-0.2500073
238	0xbec36740	-0.3816471
239	0x3d9960d3	0.07489171
240	0x3e16103a	0.14654627
241	0xbe9d2fba	-0.30700475
242	0xbd93d998	-0.07219237
243	0x3dbaeb0b	0.09126862
244	0x3e881dcb	0.2658523
245	0xbea3f922	-0.3202601
246	0xbc373727	-0.011182583
247	0xbee2cf00	-0.44298553
248	0x3e68d10b	0.22735994
249	0xbdbfb7bd	-0.09361217
250	0x3e3abcb4	0.18236047
251	0xbc88b3f6	-0.016687375
252	0xbe41a61c	-0.18911022
253	0xbd3aa783	-0.045569908
254	0x3d805fe6	0.06268291
255	0x3e9da7b6	0.30792016

actor_fc1.bias f4 [512]
0	0xbcc7e8a1	-0.024402918
1	0x39fb1439	0.00047889518
2	0xbd7dfbb6	-0.06200763
3	0x3d18c1a3	0.03729404
4	0xbd637afc	-0.05553721
5	0xbd008b53	-0.03138287
6	0xbccb9005	-0.024848947
7	0xbd03d060	-0.032181144
8	0xbc913740	-0.01772654
9	0x3acc2a1f	0.0015576518
10	0xbd9e1120	-0.0771811
11	0xbd7f2e96	-0.062300287
12	0x3d2abaab	0.041681927
13	0xbcb97439	-0.022638427
14	0xbc032517	-0.008004448
15	0x3cc93432	0.024561021
16	0xbc87b68e	-0.016566541
17	0xbcfdafab	-0.030967554
18	0xbd3c5a3f	-0.045984503
19	0x3bc77641	0.006087095
20	0x3d256591	0.040380064
21	0xbc43026d	-0.011902434
22	0xbd6f6fe0	-0.0584563
23	0xbc7afc09	-0.015318879
24	0xbca7d3f7	-0.020486815
25	0x3d468e29	0.04847542
26	0xbbaa2b67	-0.0051931622
27	0x3cfd6d71	0.030935975
28	0x3dcd4914	0.10023704
29	0x3babe4d6	0.005245785
30	0xbcf6cb66	-0.030126285
31	0x3ab11f63	0.0013513382
32	0x3c11a562	0.008889528
33	0xbd3a3fbf	-0.04547095
34	0x3a05a062	0.0005097446
35	0x3ce7407d	0.028228993
36	0xbcf0f438	-0.029413328
37	0x3980c715	0.0002456239
38	0xbcf54033	-0.02993784
39	0x3d297714	0.041373327
40	0xbdc43363	-0.09580114
41	0xbd54d594	-0.051961496
42	0xbcb9560d	-0.02262404
43	0xbd3a48cd	-0.045479584
44	0x3afece2c	0.0019440106
45	0x3da35445	0.079750575
46	0x3d759cce	0.059963994
47	0xbca8487a	-0.020542372
48	0xbaa7fbb9	-0.0012816108
49	0xbc5257fc	-0.01283836
50	0x3c0a7eab	0.008453052
51	0x3c761a87	0.015020973
52	0xbd6b7af8	-0.05749032
53	0xbc8b3106	-0.01699115
54	0xbd06b760	-0.032889724
55	0x3c8e4e07	0.01737119
56	0xbc4ff637	-0.01269298
57	0xbc4482c9	-0.011994072
58	0xbd13bb84	-0.0360675
59	0xbd774072	-0.060364194
60	0xbc84bbeb	-0.016202888
61	0xbd74695c	-0.05967079
62	0xbd415605	-0.047201175
63	0xbd6ea0b7	-0.05825874
64	0x3d28ba58	0.041193336
65	0xbcefff4e	-0.029296543
66	0xbd0bce67	-0.034132387
67	0x3cb35f61	0.021896066
68	0xbd203d2b	-0.039120834
69	0x3c1b86c3	0.009492579
70	0xbcd80614	-0.026370086
71	0xbd152f0b	-0.036421817
72	0xbcedb6f0	-0.029017895
73	0xbbd7c6a6	-0.00658496
74	0xbcf2861a	-0.02960496
75	0x3d106c04	0.03525926
76	0x3d006dd9	0.03135476
77	0xbd0197fd	-0.031639088
78	0xbd241e25	-0.04006781
79	0x3d9d1795	0.076705135
80	0x3d2e50bf	0.042557474
81	0xbdd90ce2	-0.1059816
82	0x3d4431e1	0.04789913
83	0x3a28c4b4	0.00064380025
84	0xbab6aadf	-0.0013936422
85	0x3c4a57d7	0.012350044
86	0xbc1a9dac	-0.009437006
87	0x3dc9c173	0.09851351
88	0xbd3d6db2	-0.04624719
89	0x3d2595c2	0.040426023
90	0x3e0470a5	0.12933595
91	0xbc7bc134	-0.015365887
92	0xbcff9954	-0.031201042
93	0xbd48c8c4	-0.04901959
94	0x3b9efbe4	0.004851805
95	0x3d5cde70	0.05392307
96	0x3d8dad6a	0.06917842
97	0xbd0822a5	-0.033236165
98	0x3e0535cc	0.13008803
99	0x3c790e3f	0.01520115
100	0xbd92938e	-0.0715705
101	0xbd954900	-0.07289314
102	0xbd5328da	-0.05155263
103	0xbd1ffe81	-0.039061073
104	0x3d6e6aa9	0.058207188
105	0xbd4f473c	-0.050605044
106	0xbced5cc3	-0.028974896
107	0x3b40806c	0.002937342
108	0x3db896eb	0.0901316
109	0x3d000d4c	0.03126268
110	0xbc0752b8	-0.008259468
111	0xbb99e062	-0.004695938
112	0xbc8e6d92	-0.017386232
113	0xbd3cc85f	-0.046089526
114	0x3be1db78	0.006892618
115	0xbcff6194	-0.031174459
116	0xbcbc5088	-0.022987619
117	0x3d990872	0.07472314
118	0xbc7b54a9	-0.015340009
119	0x3c51c987	0.0128043955
120	0xbd7ce8f3	-0.061745595
121	0x3cb926fd	0.022601599
122	0xbce7a955	-0.028278986
123	0xbd2eed88	-0.042706996
124	0x3d9c7838	0.076401174
125	0xbd49a22f	-0.049226936
126	0xbd6f90e1	-0.058487777
127	0xbe0bb959	-0.13644923
128	0x3cc4a81a	0.024005938
129	0xbd400065	-0.046875376
130	0xbd2c9d70	-0.04214233
131	0x3c892fc6	0.016746413
132	0x3c1920ac	0.0093461685
133	0xbd8be726	-0.068311974
134	0x3daaad55	0.08333842
135	0xbc100072	-0.008789169
136	0xbd7cc125	-0.061707634
137	0xbbad0dff	-0.0052812095
138	0xbbc44404	-0.0059895534
139	0x3a402b58	0.00073306775
140	0xbd3f1a22	-0.04665578
141	0xbda21e6b	-0.07915958
142	0xbcee4e15	-0.029089967
143	0x3c2b89e2	0.010469886
144	0x3c717d49	0.014739343
145	0xbc7b8654	-0.015351851
146	0xbd9fe3fa	-0.07807155
147	0x3d7f1adb	0.06228147
148	0xbd4a12e9	-0.04933444
149	0xbcf83073	-0.03029654
150	0xbc17173f	-0.009221851
151	0xbcd20a38	-0.025639638
152	0x3d4e069a	0.050299264
153	0xbd3c1171	-0.04591507
154	0x3c9ad3fe	0.018899914
155	0x3ccfdf83	0.025375133
156	0x3dcdc189	0.100466795
157	0xbd55b29c	-0.05217229
158	0xbd93a8cb	-0.07209929
159	0x3d1764ef	0.036961492
160	0xbd42422b	-0.047426384
161	0xbd22bafd	-0.039729107
162	0x3b78b614	0.0037950324
163	0xbdd0098e	-0.101580724
164	0xbc35ee3c	-0.011104163
165	0x3d659539	0.056050513
166	0x3da60e4c	0.08108196
167	0xbc81f9ad	-0.015866125
168	0xbc9c93b7	-0.019113405
169	0x3d752203	0.05984689
170	0xbd56004e	-0.052246384
171	0xbcefe6c6	-0.029284846
172	0xbd66b6e0	-0.056326747
173	0x3c39c692	0.011338847
174	0xbc902006	-0.017593395
175	0xbd6aafe3	-0.057296645
176	0xbc9efefd	-0.019408697
177	0x3c954cc5	0.018225083
178	0xbb8fe55f	-0.004391357
179	0x3c985e03	0.018599516
180	0x3bf05089	0.0073338193
181	0x3cba34c2	0.022730235
182	0xbca1aadb	-0.01973479
183	0xbd2fbf96	-0.04290732
184	0x3d14bcb3	0.03631277
185	0x39053918	0.00012705137
186	0xbd4fbcd7	-0.0507172
187	0xbcdb53e0	-0.026773393
188	0x3d2b22b6	0.04178115
189	0x3c86d608	0.01645948
190	0x3ca39fc7	0.019973649
191	0x3d5bae54	0.05363305
192	0x3d35b9de	0.04436671
193	0xbd933dfb	-0.07189556
194	0x3d3c4d22	0.045971997
195	0xbbed2269	-0.007236768
196	0xbd48aae2	-0.04899109
197	0x3d2a424e	0.04156714
198	0x3c991c94	0.018690385
199	0xbcfc9294	-0.030831613
200	0xbd316e30	-0.043317974
201	0xbc83432d	-0.016023243
202	0xbba02f5b	-0.0048884577
203	0xbd62488d	-0.05524497
204	0x3d8ec5d0	0.069713235
205	0xbc788b1e	-0.015169887
206	0xbba28fbe	-0.004960983
207	0x3d10b3fc	0.035327896
208	0x3d5b375f	0.053519603
209	0x3dc76d11	0.097376
210	0x3d84eee8	0.0649088
211	0x3c3137f1	0.01081656
212	0xbd8f9d5a	-0.07012434
213	0xbd35ed6a	-0.04441587
214	0x3bbe664f	0.005810536
215	0xbd2c273c	-0.042029604
216	0x3bd9ecb0	0.00665053
217	0xbda605b3	-0.08106556
218	0x3dc98f28	0.09841758
219	0x3d9dd604	0.07706836
220	0xbb885cca	-0.004161452
221	0x3d22cfce	0.03974896
222	0xbdc17529	-0.09446175
223	0xbd15d5ca	-0.03658084
224	0xbd29c2f6	-0.041445695
225	0x3ce7da4f	0.02830234
226	0xbc71b849	-0.01475341
227	0xbc16bece	-0.009200765
228	0xbd9fcab8	-0.078023374
229	0xbce548a4	-0.02798874
230	0xbc091fe9	-0.008369424
231	0xbd1bade5	-0.038007636
232	0xbd0345be	-0.032048933
233	0x3d98f895	0.07469288
234	0xbc83b2c5	-0.016076455
235	0xbc808094	-0.01568631
236	0x3d4165b3	0.04721613
237	0xbd8c0e29	-0.06838638
238	0xbd01e50c	-0.031712577
239	0xbd19fb05	-0.037592907
240	0x3ce2d26a	0.027688224
241	0xbd01c610	-0.031683028
242	0xbd25a5af	-0.04044121
243	0xbd43693b	-0.047707777
244	0xbce1192c	-0.027477823
245	0xbd2921d2	-0.04129202
246	0xbd072b4b	-0.03300027
247	0x3d0f523f	0.034990545
248	0xbd7aaeef	-0.061201986
249	0xbc7a5eb1	-0.015281365
250	0xbd851db5	-0.06499807
251	0x3c05a39f	0.008156686
252	0x3cca5ce4	0.024702497
253	0xbcca5352	-0.024697933
254	0xbd2643f5	-0.040592153
255	0x3c1a2728	0.00940875

actor_fc2.weight f4 [7, 512]
0	0xbe3e7792	-0.186003
1	0xbd3337de	-0.04375445
2	0xbdd85894	-0.1056377
3	0x3d9b6e44	0.07589391
4	0xbd327720	-0.043570638
5	0xbe42e281	-0.19031717
6	0x3de51c08	0.11186987
7	0x3de62ae8	0.112386525
8	0x3e014c93	0.12626867
9	0x3d88c13c	0.066774815
10	0xbe140416	-0.14454684
11	0x3c3d8904	0.011568312
12	0xbe485d1d	-0.1956677
13	0x3dd8a419	0.10578174
14	0x3dbf3de6	0.09337978
15	0xbe4ab156	-0.19794211
16	0x3de51e31	0.11187399
17	0x3caaaed4	0.020835318
18	0xbc981a7b	-0.018567314
19	0x3cf72ca6	0.030172657
20	0xbd16f7ac	-0.036857292
21	0xbe255df2	-0.16149119
22	0xb940cfd7	-0.00018387973
23	0xba611c83	-0.00085873174
24	0x3e49fdb6	0.1972569
25	0xbe1ba858	-0.15200937
26	0xbe1af263	-0.15131526
27	0x3cf991da	0.030465055
28	0x3e29ea8e	0.16593382
29	0x3d30b217	0.04313859
30	0x3da2e4a8	0.07953769
31	0xbcb21532	-0.021738622
32	0xbd8b6468	-0.0680626
33	0x3da49d85	0.08037857
34	0xbd0c49fe	-0.034250252
35	0x3d521916	0.051293455
36	0x3d6d2336	0.057894908
37	0xbde4eaf6	-0.11177628
38	0x3dddb8ce	0.10826264
39	0x3e37112d	0.17877646
40	0xbd79bf4b	-0.060973447
41	0x3b8fa371	0.0043834974
42	0x3d38bfd0	0.0451048
43	0x3d01bf1b	0.031676393
44	0x3dc82d09	0.09774215
45	0xbd98c7ab	-0.07459959
46	0xbe46e642	-0.19423774
47	0xbdc58c4c	-0.096459
48	0xbe09bf3a	-0.13451853
49	0x3d46b5aa	0.048513092
50	0xbcb17bf7	-0.021665556
51	0xbdb3cc8c	-0.087792486
52	0xbd7d4c2b	-0.061840218
53	0x3e410fa6	0.18853626
54	0x3dada320	0.08478379
55	0x3e22d785	0.15902527
56	0xbd37d6d6	-0.044882618
57	0xbe0f8e4e	-0.14019129
58	0xbcf46997	-0.029835505
59	0xbdaa8276	-0.08325665
60	0x3d550dea	0.052015223
61	0xbd8b9804	-0.06816104
62	0xbd2af10d	-0.04173379
63	0xbd461ba7	-0.048366215
64	0x3d20c845	0.039253492
65	0xbdd4ffef	-0.10400378
66	0xbb8b4afe	-0.004250883
67	0x3e35e7eb	0.17764251
68	0x3cfccfda	0.03086083
69	0xbd3d8b5e	-0.04627549
70	0xbd578d73	-0.05262513
71	0xbe492ff1	-0.19647194
72	0x3d501854	0.05080445
73	0x3e2ed667	0.17073976
74	0x3da41393	0.08011546
75	0xbd950cdc	-0.07277843
76	0x3df12305	0.117742576
77	0xbd8958ff	-0.06706428
78	0xbda8e221	-0.08246256
79	0xbd876604	-0.06611255
80	0x3d5e74cb	0.0543106
81	0x3d0a8558	0.033818573
82	0x3dff1709	0.124555655
83	0xbdaa8470	-0.08326042
84	0x3e1961ff	0.14978789
85	0xbba3e002	-0.005001069
86	0x3d32b4a3	0.0436293
87	0x3e5d2633	0.21596603
88	0xbe13c2ea	-0.14429823
89	0x3db84051	0.089966424
90	0xbe9c6866	-0.305484
91	0x3cc800f8	0.024414524
92	0x3b8501a5	0.004059034
93	0x3c968994	0.01837615
94	0x3d2eb27c	0.042650685
95	0xbdde6527	-0.10859137
96	0x3e69b97c	0.22824663
97	0x3af60e90	0.001877265
98	0x3de45cc3	0.111505054
99	0xbe06ff50	-0.13183331
100	0x3d0fa05b	0.035065036
101	0xbd9bdfed	-0.0761107
102	0x3dd48ae3	0.10378053
103	0xbd2ee9bf	-0.042703386
104	0x3e2959db	0.16538183
105	0xbbe910d5	-0.0071126022
106	0x3dcb62f4	0.09930983
107	0x3d9684cc	0.07349548
108	0x3d179277	0.037004914
109	0xbe01ce10	-0.12676263
110	0x3d5b65e5	0.05356397
111	0x3cb95469	0.022623258
112	0xbde2f0cd	-0.11081085
113	0xbda115af	-0.07865464
114	0xbe1a2664	-0.15053707
115	0x3bd367a2	0.006451563
116	0x3e074026	0.13208064
117	0x3c2fd91c	0.010732915
118	0x3d0d611b	0.034516435
119	0x3e077226	0.13227138
120	0x3ce2383a	0.027614702
121	0xbcea0ac9	-0.028569596
122	0x3db1d98f	0.08684074
123	0x3d995664	0.07487181
124	0x3d0de17c	0.034638867
125	0x3d572e80	0.05253458
126	0x3c52ebca	0.012873599
127	0xbae59ab7	-0.0017517422
128	0x3e3454a1	0.17610408
129	0x3d12eed7	0.035872307
130	0x3c09a62d	0.008401436
131	0xbe124956	-0.14285788
132	0x3d2646cb	0.040594857
133	0x3d1a6964	0.037698165
134	0xbe443cef	-0.1916387
135	0xbd036c5f	-0.032085773
136	0x3b5c77cd	0.0033640743
137	0xba0f869e	-0.00054750766
138	0x3db62a18	0.088947475
139	0x3d30b34a	0.043139733
140	0x3d027a4a	0.031854905
141	0xbb7a1164	-0.0038157338
142	0x3d5980bc	0.053101286
143	0x3d7fe3f8	0.062473267
144	0x3d620893	0.05518396
145	0x3d808e39	0.06277127
146	0x3cbbb377	0.022912724
147	0x3dafb091	0.08578599
148	0xbdf945f8	-0.121715486
149	0xbce3335a	-0.027734447
150	0x3c958c72	0.018255446
151	0x3b8830e5	0.0041562193
152	0xbe326b10	-0.17423654
153	0x3cc100b4	0.023559906
154	0xbd0cba40	-0.03435731
155	0x3da8e587	0.08246904
156	0x3defa2d2	0.117009774
157	0x3d80ebe2	0.06294991
158	0xbd909e01	-0.07061387
159	0xbcbf3c7b	-0.023344269
160	0xbe0c9a4b	-0.13730733
161	0xbd593261	-0.05302656
162	0x3df7162a	0.12064774
163	0x3d2805fe	0.04102134
164	0x3cdef3c7	0.027215851
165	0x3e3eeae1	0.18644287
166	0x3de9b95d	0.11412308
167	0x3dce1836	0.100632116
168	0xbe05ccf6	-0.13066468
169	0x3d1f8632	0.038946338
170	0xbdd82f5f	-0.1055591
171	0x3d8eae14	0.069667965
172	0xbc4766cb	-0.012170504
173	0xbd49b639	-0.049246047
174	0x3d291683	0.041281234
175	0xbdeaa629	-0.11457474
176	0xbdf11e61	-0.117733724
177	0xbd8a1f2b	-0.06744226
178	0xbda2c367	-0.07947426
179	0x3d5daa18	0.054117292
180	0xbdc35a61	-0.09538723
181	0xbc910e55	-0.01770703
182	0xbc536003	-0.012901309
183	0x3d776fc6	0.06040933
184	0x3dc0e944	0.09419492
185	0xbbba2118	-0.0056802146
186	0x3cf0c0fa	0.029388893
187	0x3d265608	0.04060939
188	0x3e032f7d	0.12811084
189	0xbd8ad590	-0.06779015
190	0xbd047c44	-0.03234507
191	0xbe313b95	-0.17307885
192	0x3e3608cf	0.17776798
193	0x39c7417b	0.00038005025
194	0xbea6be9b	-0.32567295
195	0x3d52b382	0.051440723
196	0x3d460e0a	0.048353232
197	0x3d6f0cdd	0.058361877
198	0x3da131d0	0.07870829
199	0x3db2b06a	0.087250546
200	0x3db513e9	0.08841688
201	0xbcf8c4ae	-0.030367222
202	0x3d88c283	0.06677725
203	0xbd3b6480	-0.04575014
204	0xbd1a5c74	-0.037685826
205	0x3c7e6248	0.015526362
206	0xbd555648	-0.052084237
207	0x3c3a8894	0.011385102
208	0x3d890a01	0.06691361
209	0x3e15f42e	0.14643928
210	0x3e8c2333	0.27370605
211	0x3ddca50a	0.10773666
212	0xbe067427	-0.13130246
213	0xbd7ef70a	-0.062247314
214	0x3e12cb08	0.14335263
215	0xbd32d912	-0.043664046
216	0x3c1ea684	0.009683255
217	0x3d4bf187	0.049790885
218	0xbe67d4a3	-0.22639708
219	0x3da22bf5	0.079185404
220	0x3c950698	0.01819162
221	0x3d656291	0.056002203
222	0xbd619d6d	-0.055081774
223	0xbdc85e98	-0.09783667
224	0xbc728ab1	-0.014803574
225	0x3def3e2d	0.11681781
226	0x3d758568	0.05994168
227	0xbd55317b	-0.05204914
228	0x3d4716fc	0.048605904
229	0x3c750127	0.014953888
230	0xbd219049	-0.03944424
231	0xbdc194a0	-0.09452176
232	0xbbe24489	-0.0069051427
233	0x3dc73733	0.09727325
234	0x3cee6399	0.029100226
235	0xbbc88d50	-0.0061203614
236	0xbdbf2c77	-0.09334653
237	0x3d424eb7	0.04743835
238	0xbbff4ea1	-0.0077913557
239	0xbdc37bf7	-0.09545129
240	0x3db1a693	0.0867435
241	0x3d393192	0.04521329
242	0x3da5957e	0.08085154
243	0x3d7afa2a	0.06127373
244	0xbd3a282c	-0.045448467
245	0xbc932332	-0.017961118
246	0x3dd60bc2	0.104514614
247	0xbe0ad452	-0.13557556
248	0xbda38229	-0.079838105
249	0x3dd72eba	0.10506959
250	0xbdc20849	-0.094742365
251	0xbd78c345	-0.0607331
252	0x3d5b1c85	0.053493995
253	0x3e36da62	0.17856744
254	0xbd7a0d26	-0.061047696
255	0x3d5c795c	0.053826675

actor_fc2.bias f4 [7]
0	0x3d22530c	0.03962998
1	0x3bf7c0ab	0.0075608096
2	0x3bc87700	0.0061177015
3	0xbd11473f	-0.035468336
4	0xbcf2bcd8	-0.029631063
5	0x3cec0478	0.028810725
6	0xbbb90944	-0.0056468565

critic_conv1.weight f4 [16, 3, 2, 2]
0	0x3e1d9573	0.15389042
1	0xbeb481d4	-0.352553
2	0xbeabf23a	-0.33583242
3	0x3e5c410e	0.21509191
4	0x3df2380b	0.118270956
5	0x3b09e63e	0.0021041776
6	0xbc552f1f	-0.013011723
7	0x3cef37c9	0.029201405
8	0x3d9ec83c	0.077530354
9	0xbef3ed9f	-0.47642228
10	0xbe7d570c	-0.24740237
11	0xbef72ae4	-0.4827491
12	0x3e488e0f	0.19585441
13	0xbe8bab86	-0.272793
14	0xbeb1606b	-0.34643874
15	0xbdb45969	-0.08806116
16	0x3deec6df	0.116590254
17	0x3e14df62	0.14538339
18	0xbe827ba8	-0.25484967
19	0xbdbecc47	-0.093163066
20	0x3f242d6c	0.6413181
21	0x3bee3229	0.007269163
22	0xbd9761fd	-0.07391737
23	0x3e000152	0.12500504
24	0x3c687a26	0.014189279
25	0xbe8bad44	-0.2728063
26	0xbdabdda5	-0.08391885
27	0xbe68970d	-0.22713871
28	0x3e92a3c6	0.28640574
29	0xbd91fb13	-0.07127967
30	0x3d31503f	0.04328942
31	0xbe9c4ac3	-0.3052579
32	0xbdff40f3	-0.1246356
33	0x3c75ea3b	0.015009458
34	0x3e9d1931	0.30683282
35	0xbe84a9a9	-0.2591069
36	0x3ea006c0	0.3125515
37	0xbe2991a9	-0.16559471
38	0x3e408ac1	0.1880293
39	0xbeb244b7	-0.3481805
40	0xbe093ca7	-0.13402043
41	0xbdde6c0c	-0.10860452
42	0x3e1994b5	0.14998133
43	0xbe990b7f	-0.29891583
44	0x3e70cf3b	0.23516552
45	0x3f0962c7	0.5366635
46	0xbe8c6b17	-0.27425453
47	0xbeb1c8d6	-0.34723538
48	0xbe0dbecf	-0.13842319
49	0xbeb49752	-0.35271698
50	0x3d1ff3ed	0.039050985
51	0x3e9ce6af	0.30644748
52	0xbe3420dd	-0.17590661
53	0x3e96bebf	0.29442403
54	0xbc805f9b	-0.015670588
55	0xbddc10e8	-0.10745412
56	0xbe9adef8	-0.30248237
57	0xbc806aa2	-0.015675846
58	0xbcbb917d	-0.022896523
59	0xbde6eec4	-0.1127601
60	0xbe69842c	-0.22804326
61	0xbca1db63	-0.019757932
62	0x3db356b5	0.087567724
63	0xbcc1b82d	-0.023647392
64	0x3d9629f4	0.07332221
65	0x3e135121	0.14386417
66	0xbdc185f0	-0.09449375
67	0xbd942ed5	-0.07235495
68	0x3e306c2a	0.17228761
69	0x3f505d33	0.8139221
70	0xbd80d4dc	-0.062906
71	0x3e684641	0.2268305
72	0x3e984a6a	0.29744273
73	0xbe1c210b	-0.1524698
74	0xbda72957	-0.08162182
75	0xbe0541e9	-0.13013424
76	0xbddc10f3	-0.1074542
77	0xbbbd10e8	-0.0057698376
78	0x3d5b69e6	0.05356779
79	0x3d33b0de	0.043869846
80	0xbe80153c	-0.250162
81	0x3d624d8e	0.055249743
82	0x3e0b1761	0.13583137
83	0x3e717272	0.23578814
84	0xbe79209e	-0.24328849
85	0xbcbdce8a	-0.023169775
86	0xbe14ce00	-0.14531708
87	0x3d60672e	0.0547859
88	0xbe3089ce	-0.17240068
89	0x3cbc6ca5	0.023001024
90	0xbd3dd4a5	-0.04634537
91	0x3e62521e	0.22101638
92	0xbeb407c0	-0.35162163
93	0xbda77836	-0.08177225
94	0x3e8885a6	0.26664466
95	0xbd896832	-0.06709327
96	0x3c08bad1	0.008345322
97	0xbe4429ad	-0.19156523
98	0x3e33b33b	0.1754884
99	0x3e9a2b32	0.3011108
100	0x3d06246f	0.03274959
101	0xbda4411d	-0.08020232
102	0xbd1631b4	-0.036668494
103	0xbe113469	-0.14180149
104	0xbebf5192	-0.3736692
105	0xbce67a4c	-0.028134488
106	0xbe1929cd	-0.14957352
107	0xbe41c1f5	-0.18921645
108	0x3d808c4b	0.06276759
109	0xbe8a6981	-0.27033618
110	0x3d40ded2	0.047087498
111	0xbd3c18f7	-0.045922246
112	0x3e2e05c2	0.16994384
113	0xbe727efb	-0.23681252
114	0x3e1a235a	0.15052548
115	0x3ddb729f	0.107152216
116	0x3f154e9d	0.5832308
117	0x3d131287	0.03590634
118	0x3e7c5ded	0.24645205
119	0xbee1b31a	-0.44081956
120	0x3d9670b0	0.07345712
121	0x3eb3b3de	0.35098165
122	0xbeb78a7e	-0.3584785
123	0x3e953502	0.29142004
124	0xbe52e9b2	-0.2059696
125	0x3e172755	0.14761098
126	0x3da5db79	0.08098502
127	0xbe594e0f	-0.21221183
128	0x3e89bff0	0.2690425
129	0xbe2ed117	-0.17071949
130	0xbeb11f8e	-0.34594387
131	0x3db9743f	0.09055375
132	0xbe1989d4	-0.14993984
133	0xbe9d66e5	-0.30742565
134	0xbe86c67d	-0.2632331
135	0x3d38765f	0.045034762
136	0x3e8dbc29	0.27682617
137	0x3e1c6787	0.15273868
138	0x3e2cb35f	0.168653
139	0xbe0027b5	-0.12515147
140	0xbeae7e0c	-0.3408054
141	0xbe7990c9	-0.24371637
142	0x3c11df17	0.008903286
143	0xbe4f2198	-0.20227659
144	0xbdf42c58	-0.119225204
145	0x3ecc89e9	0.39948967
146	0x3de06e1d	0.109585024
147	0x3e66885a	0.22512951
148	0xbe264823	-0.16238455
149	0xbe1070af	-0.14105485
150	0x3cc55967	0.024090482
151	0xbc9c5fa7	-0.01908858
152	0xbd7e1b94	-0.06203802
153	0xbf06a1c7	-0.525906
154	0x3cfce4ba	0.030870784
155	0xbe3abcbe	-0.18236062
156	0xbca8a3d7	-0.020585937
157	0xbe3503f7	-0.17677294
158	0x3e09063a	0.13381281
159	0xbe2d9d02	-0.16954425
160	0xbebb0a64	-0.36531365
161	0xbd8793ca	-0.066199854
162	0x3cbb4580	0.022860289
163	0x3e564ce3	0.20927767
164	0x3e32332b	0.17402332
165	0xbe643545	-0.22285946
166	0xbd111a62	-0.03542555
167	0xbdda22bb	-0.106511556
168	0xbe5d445a	-0.21608105
169	0xbe5b396a	-0.2140862
170	0xbea1c3f1	-0.31594804
171	0x3e86e8c2	0.26349455
172	0x3e27aca5	0.16374452
173	0xbea34027	-0.31884882
174	0x3cfbfeb1	0.030761095
175	0x3d36de1e	0.04464542
176	0xbe9abffc	-0.30224597
177	0x3eb89fe7	0.36059496
178	0xbbe5dce4	-0.0070148576
179	0x3e36aa98	0.17838514
180	0x3e219f85	0.15783508
181	0xbe0976dd	-0.13424249
182	0xbd9a0857	-0.07521122
183	0xbea47b6b	-0.3212541
184	0x3c319962	0.010839792
185	0x3e7e0717	0.24807392
186	0xbeb2bf0f	-0.3491139
187	0x3cac7017	0.021049542
188	0x3da5c4bb	0.08094164
189	0x3eb6de62	0.3571654
190	0xbd590325	-0.052981514
191	0x3e015a86	0.12632188

critic_conv1.bias f4 [16]
0	0xbe0660e0	-0.13122892
1	0xbe929c72	-0.28634983
2	0xbe3804f4	-0.1797064
3	0x3dfef05e	0.1244819
4	0xbd94463b	-0.07239958
5	0xbdf6cf80	-0.12051296
6	0xbe05ec1d	-0.13078351
7	0xbe114261	-0.14185478
8	0xbe45dad7	-0.19321762
9	0xbe1c4491	-0.15260531
10	0xbec4c60f	-0.38432357
11	0xbe441546	-0.1914874
12	0xbdb68fbf	-0.08914136
13	0x3dc223f6	0.09479515
14	0x3d8920aa	0.06695683
15	0x3e23a422	0.1598058
