ppo/PPO_preTrained/SmallDoorRoomLocked/PPO_SmallDoorRoomLocked_0_0.pth (torch, 378426 bytes, 19 tensors)

actor_conv1.weight f4 [16, 3, 2, 2]
000000 6e 2f 46 3d 10 3a 15 3e 85 d7 73 be 62 46 7b be
       0.048385076 0.1457293 -0.23812683 -0.24538568
000010 d1 2c 7c be 08 48 af 3d 5a 62 41 bd 47 e1 4c 3e
       -0.24626471 0.08558661 -0.047212936 0.20007811
000020 07 5d a2 3c 5d f3 b0 3c 34 ac 84 3d 4e 4b 09 be
       0.01981975 0.02160042 0.06478158 -0.13407633
000030 9d 16 53 be c6 d7 1a be 03 19 e4 bd dc f3 a3 bc
       -0.20614095 -0.15121374 -0.11137583 -0.020013742
000040 db 90 11 3e 30 60 4c 3e 9b e6 9e be bd 3f 1a be
       0.14215414 0.19958568 -0.31035313 -0.15063377
000050 fc c4 81 3e 07 3c 71 3e 43 57 73 bd 06 2e e0 3e
       0.253456 0.23558055 -0.05940939 0.43785113
000060 ba 56 30 bd 31 c7 e7 3d 67 4c a1 3e 64 3c 84 be
       -0.04305146 0.113172896 0.31503603 -0.25827324
000070 cb 8a 09 be 78 57 10 3b 96 bc 4f be 3d d2 3a 3e
       -0.13431852 0.0022024792 -0.20286784 0.18244262
000080 a4 9a 3f be c7 de 04 bf 10 2a 92 3e 14 7f f2 be
       -0.18711334 -0.5190243 0.28547716 -0.47362578
000090 50 d7 5d be 83 99 bb 3e b7 5e b3 3d b8 43 e0 3d
       -0.21664166 0.36640558 0.087583 0.10950416
0000a0 fc 12 4c 3a f1 70 06 be f5 eb 07 3d e6 e9 8a be
       0.00077848113 -0.13129021 0.03318401 -0.27131575
0000b0 0a ac d2 be 95 3a 11 be 1d 4f fd 3d df c5 7a 3e
       -0.4114688 -0.14182504 0.12368605 0.24489544
0000c0 56 72 84 be e0 39 10 be eb 92 87 3e ab cf 8f 3e
       -0.2586848 -0.14084578 0.26479277 0.28088126
0000d0 e5 a5 97 3c f4 7c d9 bc 64 5e b7 3d fa 80 45 be
       0.018511722 -0.02654884 0.089535505 -0.19287482
0000e0 68 5d 34 be 84 3f 36 be 32 93 6a be bb 39 9d be
       -0.17613757 -0.17797667 -0.22907713 -0.30708107
0000f0 0d 1e 14 3d 47 c2 11 bc 5b d7 9d be 21 43 6c 3c
       0.03616147 -0.008896417 -0.30828366 0.014420302
000100 61 14 f1 3c 34 d9 51 be 63 0b c0 bd 18 a2 6e bd
       0.029428663 -0.20493013 -0.09377172 -0.058260053
000110 43 3b 92 3d 03 9a 1a 3e 97 89 51 be df 6e 2b be
       0.071402095 0.15097813 -0.20462643 -0.16741513
000120 4c cc 7e 3c 61 5f a3 3e 98 b4 df 3d 66 7f b3 3d
       0.015551638 0.31908706 0.109231174 0.08764534
000130 e4 30 63 3d ea ac 76 be 55 33 93 bd df c3 8b be
       0.055466548 -0.24089399 -0.07187525 -0.27297875
000140 bf 9d 8f be 75 16 9f 3e 16 1a 94 3e 0a bb 21 bf
       -0.28050038 0.3107182 0.28926152 -0.63176024
000150 d9 5c 2e 3b a1 c8 0d be 6d 4c b9 bd 9c 6f 06 be
       0.0026605634 -0.13846065 -0.0904778 -0.13128513
000160 c5 2d 97 3d a8 5e 79 be e3 d5 2a 3e 35 0f d8 3d
       0.07381777 -0.24352515 0.16683154 0.105497755
000170 76 24 c4 3e 2e cc f4 3d 64 9d b2 be ff 52 bb be
       0.38309067 0.11953007 -0.34885705 -0.36586758
000180 b9 91 01 3d 84 8f 1d 3d 34 b3 93 be 6b 94 8a be
       0.031633113 0.038466945 -0.2884766 -0.2706636
000190 fc 4f 61 3e 0f e4 4f 3e 54 f2 32 be 43 75 0f be
       0.22003168 0.20301841 -0.17475253 -0.14009576
0001a0 08 b5 8c bd ce fb 06 3d 05 a8 31 be 09 17 ab be
       -0.068704665 0.032954983 -0.1734925 -0.33416012
0001b0 01 a6 05 be 2b 08 a3 3d a5 74 40 be 7e 1d ef 3d
       -0.13051607 0.07960542 -0.18794496 0.11675547
0001c0 b1 16 53 be 0e 5c 8b 3e 8b 5a 36 3e 19 01 70 be
       -0.20614125 0.2721867 0.17807977 -0.23437919
0001d0 a3 9d 1f be 7a c2 f5 3c 00 09 00 bd ed 24 87 3e
       -0.15587477 0.02999996 -0.031258583 0.2639536
0001e0 cc 5d 97 3d 56 dd bb bc 2f 5f 52 be 78 dd 9d 3d
       0.07390937 -0.02293269 -0.20544122 0.077082574
0001f0 6d 26 9e be 3d 41 29 be d5 a8 ab bd 69 61 44 be
       -0.30888692 -0.16528793 -0.083818115 -0.19177784
000200 e6 d2 ce bd 6c 48 72 be 69 84 7b bd 9a 69 48 3d
       -0.100988194 -0.23660439 -0.061405573 0.048928834
000210 88 54 41 be 7e b1 5f bd fc 5a 45 3e cd 5f f9 bc
       -0.18879902 -0.05461263 0.19272989 -0.03044119
000220 06 a3 57 bd a8 9a c5 bd c6 94 ac 3b c2 62 df 3d
       -0.052645706 -0.09648639 0.0052667586 0.109075084
000230 1f 16 17 3e db eb 9b bc 8e c7 18 3f 90 cf c1 bd
       0.14754532 -0.019033363 0.59679496 -0.094634175
000240 2e 49 54 be 6c 46 a0 bd c6 4f 89 3e a6 d9 01 3d
       -0.20731041 -0.07825932 0.26818675 0.031701706
000250 6c 44 2e be a2 5f 56 be dc dc 7a be 53 30 84 be
       -0.17018288 -0.20934919 -0.24498314 -0.25818118
000260 3e d6 6f bd 53 1c 22 3e b8 d0 1f 3e 6d 8b 8e be
       -0.058553927 0.15831117 0.15606964 -0.27840748
000270 67 f9 92 3e 92 f7 83 be c0 b7 02 be 9a 79 fa bd
       0.28705904 -0.2577482 -0.12765408 -0.12230225
000280 48 07 d4 3c cf 8b 0b be c0 fb a0 be 3c e1 14 be
       0.025882378 -0.13627551 -0.3144207 -0.14539045
000290 27 03 39 be b0 a8 74 3b 01 49 06 be 03 b5 de 3d
       -0.18067609 0.003733199 -0.13113786 0.10874369
0002a0 1d 61 af be d5 1b 23 be 84 78 86 3e bf 3b 29 be
       -0.3425378 -0.15928586 0.2626382 -0.16526698
0002b0 d0 57 2e 3e fd 81 02 3c 16 fe 9b be e5 85 c9 3d
       0.17025685 0.007965562 -0.3046729 0.098399915
0002c0 12 e6 31 3d ff eb a4 be 02 52 1d 3e 7b 24 d7 be
       0.043432303 -0.322113 0.15363315 -0.4202002
0002d0 50 b9 d3 bc 46 80 30 be a5 bb 7b 3e c5 6f 4e 3d
       -0.0258452 -0.17236432 0.245833 0.05039956
0002e0 42 e1 89 3d dd 8f c7 b8 a0 8e be bd 70 35 d8 bd
       0.06732418 -9.515856e-05 -0.09304547 -0.105570674
0002f0 b2 b4 85 be f1 71 5c 3e 6c 3d 0d bc df 07 ad 3d
       -0.26114422 0.2152784 -0.008620601 0.08448767

actor_conv1.bias f4 [16]
000000 38 53 5f be de 2a 32 3d bd 2f 3b be 2e 44 37 be
       -0.21809089 0.043497913 -0.1827993 -0.17897102
000010 d0 25 8c be 65 42 c5 bc c6 1f 87 be fb 5c 0f 3d
       -0.273726 -0.024079511 -0.2639143 0.035000782
000020 06 1f 4f bd 63 54 fb 3d c5 15 91 be 38 d6 89 be
       -0.050566696 0.12271955 -0.2833692 -0.26921248
000030 01 eb df bd 71 fb 0f 3e 72 55 42 be 6d 47 25 3e
       -0.10933495 0.14060761 -0.18977907 0.16140528

actor_conv2.weight f4 [32, 16, 2, 2]
000000 f4 fe e0 bb 46 3f 9e 3d 40 ea 33 bd 94 1b 69 bd
       -0.0068663303 0.07726912 -0.04392457 -0.056911066
000010 a3 a4 25 bd 1f dd 82 bd 12 2b 2c 3c 4e ed ac 3d
       -0.040440213 -0.06389832 0.010508316 0.084437
000020 01 1f 04 be c0 6f 40 bb 91 4c 03 3d 02 8d 16 be
       -0.12902452 -0.0029363483 0.03205544 -0.14702228
000030 13 1f e3 bd e9 5f 1e 3e 74 b9 08 bd 49 4a 22 be
       -0.11089911 0.15466274 -0.033379987 -0.1584865
000040 13 ad 25 be 8d 09 07 3e 69 51 41 be d2 5f cb bd
       -0.16179304 0.13187237 -0.18878712 -0.09930386
000050 c3 15 51 bd d3 6b 83 3d f0 29 30 bd 6d 25 8e 3d
       -0.051046144 0.0641705 -0.043008745 0.06940732
000060 8e 49 4d bd 08 f1 36 3e ce 1b 83 3b f7 94 3d be
       -0.050118975 0.17865384 0.0040011173 -0.18513857
000070 b5 80 05 bc 8a 13 26 be 09 45 eb bd 60 20 64 3d
       -0.008148362 -0.16218391 -0.11487777 0.055694938
000080 ac 64 dd 3c ef c9 03 3d f9 85 2d bd 3f 51 2e 3d
       0.027025543 0.032175 -0.042364094 0.04255795
000090 15 fa 22 3d 38 2c e1 bd 26 3b 52 bc fc fe 81 bd
       0.039789278 -0.10994762 -0.012831485 -0.063474625
0000a0 82 bf 6b bb 73 2f 6e 3c 3b af a6 bd 2e 0b 86 bc
       -0.0035972302 0.01453768 -0.08138891 -0.016362753
0000b0 16 8d 23 3e 23 a7 30 bd b7 9d 04 be f7 53 8e bd
       0.15971789 -0.043128144 -0.12950788 -0.06949609
0000c0 6b a7 3d be be ed 26 bc ba 57 ea bd be e0 91 bd
       -0.18520896 -0.010188518 -0.11442514 -0.07122944
0000d0 92 5d 98 bc 26 84 60 3e 38 f2 19 bd d4 a9 f6 bc
       -0.018599305 0.2192541 -0.037584513 -0.030110277
0000e0 45 5f d5 3b ba 33 30 bc 01 1d af bd a2 e3 94 3d
       0.006511601 -0.01075452 -0.08550454 0.0726998
0000f0 a0 30 96 3c fa ab af 3d 40 6a 15 be 58 e6 10 be
       0.018333733 0.08577724 -0.14591312 -0.14150369
000100 52 10 77 bd 29 22 d7 3d c5 81 2a bd a6 56 eb bd
       -0.0603183 0.105045624 -0.041627664 -0.11491136
000110 42 0a 00 3e 89 7c 07 be 2d 61 ed 3c b7 8b 1a 3d
       0.12503913 -0.132311 0.028977001 0.0377309
000120 95 67 0b 3d 9a 95 d0 bc 39 54 ef bd a2 8d 43 3e
       0.03403433 -0.02546196 -0.11685986 0.19096997
000130 a3 0e 37 bd 26 e2 d2 3d 4f 70 db bd 78 0f 58 bc
       -0.044691693 0.10297041 -0.107147805 -0.013187282
000140 3c e0 1d bd cb 64 6f 3c 7d d0 f6 bc 21 89 6a 3d
       -0.038543925 0.014611433 -0.030128712 0.057259683
000150 a1 13 a1 3c 85 b7 b5 3d 7e ac be bb 83 ef c6 bd
       0.01966268 0.08872894 -0.0058189025 -0.09713652
000160 39 47 21 3c 80 72 1a be 6a 4e 10 bc 23 62 e3 bc
       0.009843641 -0.15082741 -0.008807758 -0.027756756
000170 a2 9c 7a bd 2b e3 e9 bd fa aa 0b be 9d 11 83 3c
       -0.061184533 -0.11420282 -0.13639441 0.01599961
000180 e2 0c 8d 3d 69 93 c3 bd 23 6c c5 3d 02 1a 05 3e
       0.06887223 -0.09549601 0.09639766 0.12998202
000190 17 ca de 3c 9c b7 4f bd 2e 8a 1a be 96 89 cf ba
       0.027195973 -0.050712213 -0.15091774 -0.001583385
0001a0 68 94 a4 3d b7 96 71 bb ff 92 37 3d df 8e 75 3d
       0.08036119 -0.0036863515 0.04481792 0.059950706
0001b0 be 81 fc ba 1e e4 0e 3e 18 0c 43 3d c7 f3 30 3d
       -0.001926474 0.13954207 0.047618955 0.043201234
0001c0 e1 4b a4 3c a2 81 dc bc b0 3b 83 be 27 2f ce bd
       0.020055713 -0.026917282 -0.25631475 -0.10067587
0001d0 a8 77 be 3d 27 8f a3 3e 7f b5 0e 3e 2b 0f 97 3c
       0.09300166 0.31945154 0.13936423 0.01843985
0001e0 dd 8f 87 3d f5 a8 e5 bd 7d 64 f7 bd f6 97 d6 bc
       0.066192366 -0.112138666 -0.120797135 -0.026195507
0001f0 f0 18 01 3e e9 27 a8 3d 1a 80 a4 bd 0d ef a3 3d
       0.12607169 0.08210737 -0.08032246 0.0800458
000200 ec a4 3f 3d eb 2a e2 3d 90 d7 6e 3d 56 cc 1b 3e
       0.04678814 0.11043342 0.058311045 0.15214667
000210 29 8b 4e bc 46 6a 65 bb be 39 34 3e 7a 23 13 bc
       -0.012606421 -0.003500597 0.17600152 -0.008980626
000220 8a bc 8f bc 4f 6d 95 3e 48 d7 70 3d 14 97 41 3e
       -0.017545957 0.29184958 0.05879906 0.18905288
000230 89 f5 b3 bd a6 47 24 3e 70 73 1d be 90 8e b8 3d
       -0.087870665 0.16042957 -0.15376067 0.09011567
000240 8e 35 38 bd 00 fe 53 3d a7 1f b7 bd 1c dc f4 3d
       -0.04497295 0.051755905 -0.08941584 0.11956045
000250 ac 84 1e bd 4f 0c fd 3d a0 a4 ae bd 3e 65 dd ba
       -0.038700745 0.12355863 -0.085274935 -0.0016891134
000260 17 5d 03 be 25 f5 f6 bd 6c 1d 30 be bb 70 ef 3d
       -0.1282848 -0.12058476 -0.17198724 0.116914235
000270 75 0e ba 3c 5a ce 12 bc 74 d9 81 3d 9e 9a 50 be
       0.022711972 -0.008960331 0.06340304 -0.20371482
000280 18 8b 9e bd 1a f5 88 3d 25 90 d8 bc 5e e3 64 3d
       -0.07741374 0.066873744 -0.026435921 0.055880897
000290 2d 24 cb bd 7a 36 9d bd b5 17 1e be 58 83 50 bd
       -0.09919009 -0.07676406 -0.15438731 -0.05090651
0002a0 a5 82 e2 3d 60 32 cf 3d 18 20 c3 3d 71 50 f8 3d
       0.11060075 0.1011703 0.09527606 0.12124718
0002b0 02 bd ae 3d 57 d6 2a 3e 8d 0d 03 3d 2d 55 07 3e
       0.08532144 0.16683327 0.031995345 0.13216086
0002c0 8f 1e 01 3d bf 15 a4 3d 24 47 cc 3c 29 70 9c 3d
       0.031523284 0.0801196 0.024936266 0.0763858
0002d0 fb aa 31 bd c6 36 83 3e d7 43 63 3d 4c c0 08 3d
       -0.04337595 0.25627726 0.05548462 0.033386514
0002e0 1d f3 42 bc 09 53 ec bc 30 8e e4 bd c2 fd 2f 3e
       -0.011898783 -0.028848188 -0.111599326 0.17186645
0002f0 f3 a2 e4 3c 91 34 05 3b df 61 2b be df 5b cb 3d
       0.027909731 0.0020325521 -0.16736554 0.099296324
000300 c9 9c 5d 3e 9f b7 2d be c8 94 a6 3d 04 38 61 bd
       0.2164184 -0.16964577 0.081338465 -0.05498506
000310 a4 05 cf 3d 23 ca 9a 3d 55 56 05 3e e8 a6 3e 3e
       0.10108498 0.07558086 0.13021214 0.18618357
000320 c1 1b 69 3d 64 6f a3 3d 27 dc 2f bd 64 a3 b9 bd
       0.056911234 0.079802305 -0.042934563 -0.090643674
000330 58 ac 1e 3e e6 90 21 bd fe 4d ea bd 7e 5c 68 bc
       0.15495431 -0.039444827 -0.11440657 -0.014182208
000340 02 25 8c 3c d4 cc 98 bc 25 24 b3 3c 52 ae 6b 3e
       0.01710749 -0.018652357 0.021867821 0.23015717
000350 b4 ed b7 3d 70 00 e8 bd 9b 56 de 3d 14 5f 86 3d
       0.08980885 -0.113282084 0.108563624 0.065611035
000360 67 f1 75 3d f3 ba 14 be d4 3a 0b bd 2c 6c 8d bd
       0.060044672 -0.1452444 -0.03399165 -0.06905398
000370 e3 00 7f bd f6 a6 04 3d 42 4c 9f bd 89 f5 04 3e
       -0.062256705 0.03238579 -0.07778217 0.12984289
000380 15 b4 fc 3d d1 4c 59 3e 99 59 d6 bd 48 6f ce 3d
       0.123390354 0.2122071 -0.10466308 0.10079819
000390 90 f7 ad 3d d3 97 50 be 85 42 a9 3d e6 2a 1b be
       0.084944844 -0.20370416 0.08264641 -0.15153083
0003a0 cb 28 07 be b2 8b 82 bd 4f 01 b7 3a 90 d8 43 3c
       -0.13199155 -0.06374301 0.0013962182 0.011953488
0003b0 af 87 3f bd 4e bd 9e 3e 3f b0 06 bb 94 0f a6 3d
       -0.046760257 0.31003803 -0.0020551828 0.0810844
0003c0 69 29 57 3d 37 e0 e0 bc 9a ce b7 bc 51 c1 f1 3d
       0.052529726 -0.027450664 -0.022437382 0.1180445
0003d0 00 0b 46 3e 9e 3b cc bc 1a ec 7b bd 5d 0f eb 3d
       0.19340134 -0.024930771 -0.06150446 0.1147754
0003e0 72 9e 70 3d 42 57 e7 3c af 17 1d be 26 98 e1 bc
       0.058744855 0.02823985 -0.15341066 -0.02753837
0003f0 1e 2b 61 bd a5 2d 69 bd 0c ff 07 3d cb b4 b9 bc
       -0.05497276 -0.056928296 0.033202216 -0.022669217

actor_conv2.bias f4 [32]
000000 89 f2 a3 3c 1d 91 2c bc bd 4e 6c bd cf f8 cb 3d
       0.02001311 -0.010532645 -0.05769228 0.09959566
000010 a8 fa 26 3c c3 94 b6 bd 43 e5 ff 3d 04 26 37 bc
       0.010191597 -0.08915093 0.124949 -0.011178497
000020 f0 33 b0 3d a2 a3 13 be 00 3a 01 bd e6 d8 e2 3d
       0.08603656 -0.1441789 -0.031549454 0.11076526
000030 b3 5a 88 bd 00 2f 0f be 8d 66 c5 3d 96 cb c3 3d
       -0.066579245 -0.13982773 0.09638701 0.09560315
000040 98 2d e2 3d af 88 e2 3d 5d c8 1c bc 12 0e 6a 3d
       0.110438526 0.110612266 -0.009569255 0.057142325
000050 90 fa 47 3c 4c 0c f9 bd 2a fb 4e bd 13 7d 88 bc
       0.012205735 -0.121605486 -0.050532497 -0.016661203
000060 9e 24 10 bc 64 f5 b2 bc 9d 88 74 bd 6c d4 81 bd
       -0.008797793 -0.021845527 -0.059700597 -0.063393444
000070 04 61 50 3c 56 1f af bd 23 9a f9 bd 73 ed 58 3c
       0.012718443 -0.08550899 -0.12187602 0.013240206

actor_conv3.weight f4 [64, 32, 2, 2]
000000 f6 26 a5 bc d4 f4 8a bc 40 51 a8 3d c8 26 2e 3e
       -0.02016018 -0.016962446 0.08218622 0.17006981
000010 a1 9f 70 3d d8 c4 9b 3d a2 b6 48 3d 54 ec a4 3d
       0.058745984 0.07605904 0.049002297 0.080528885
000020 2e 1c 86 3d 29 80 82 3e 81 7e 20 3d 0c 11 56 3b
       0.065483436 0.25488403 0.039183144 0.003266397
000030 80 ec 02 bc 23 73 01 bd 7d 57 d6 3c b9 0d 83 3d
       -0.007990956 -0.031603944 0.026164765 0.06399102
000040 f7 58 20 3c 8f ea b3 bd 1f 5a ac 3d 7b ef 5d bd
       0.009786836 -0.08784973 0.08415627 -0.054183464
000050 3c 3f 9a 3d ed 73 ef 3c e1 cf 2f 3e 6b 92 14 3e
       0.07531592 0.029230082 0.17169143 0.14508979
000060 1c df c8 bc 4c 01 e7 3d 96 2d b3 3d 1b 5e 0f be
       -0.02452045 0.11279544 0.08748929 -0.14000742
000070 90 a4 8e bc 8c 58 6e 3d 20 d1 23 bd f7 2f 27 bb
       -0.017412454 0.058189914 -0.03999436 -0.0025510767
000080 91 0b ed bc c7 cc 0c 3e 76 ca 94 3d ba 10 db bc
       -0.02893618 0.13749991 0.07265179 -0.026741374
000090 3f 06 af bd 8a f6 89 b7 2e 0e 0e bc e5 51 bd 3d
       -0.08546113 -1.6446476e-05 -0.008670373 0.09244136
0000a0 6f e4 9c bc 95 7e 67 3d e7 cd 96 3c a8 c1 1a be
       -0.019151894 0.056517202 0.018408729 -0.15112936
0000b0 b9 db 83 bc b1 05 c4 bd 4f 75 45 3d 58 70 2d 3e
       -0.016095983 -0.09571398 0.048207577 0.16937387
0000c0 81 31 35 3d f9 38 fc 3d f2 a4 00 bd 70 3d 6c bd
       0.044236664 0.12315554 -0.031407304 -0.05767578
0000d0 f0 13 64 3c f2 b0 10 bd f8 44 a3 bc 44 f0 61 3d
       0.013920769 -0.035325 -0.019930348 0.055160776
0000e0 67 b1 4a 3a 08 a1 12 3e 5a d4 2d 3e fc 91 46 be
       0.00077321235 0.14319241 0.16975537 -0.19391626
0000f0 c3 9d de 3d 42 a8 13 3e 13 74 32 3d 55 46 80 bd
       0.108699344 0.14419654 0.04356773 -0.06263415
000100 18 57 ae 3c 2e e4 2e be ee 1e b7 3d bd 72 28 be
       0.021281764 -0.17079231 0.08941446 -0.16450019
000110 b1 99 67 3d 0f 3e e3 3d 25 a9 32 3d da 5e 12 3d
       0.056543056 0.11095821 0.04361834 0.03573499
000120 f7 00 00 be 2e 8f 2e bc de 4f 9b 3d b6 c9 59 be
       -0.12500368 -0.010654254 0.07583593 -0.21268353
000130 93 5f 76 3c 5b aa aa bd 17 63 21 3d 9f c9 45 3e
       0.015037435 -0.08333274 0.03940114 0.19315194
000140 d0 56 df 3d 51 84 5d bc af e8 bb bd ef 5f 8b bc
       0.1090523 -0.013520316 -0.0917524 -0.017013518
000150 07 92 9e 3d 79 eb 6c 3d a8 3c 7e bd 98 b2 f7 3a
       0.07742696 0.05784175 -0.062069565 0.001889783
000160 74 66 39 3d 9d 23 4e bd 68 1b c2 3d 63 f4 e9 3c
       0.045263723 -0.050326932 0.094778836 0.028558915
000170 a3 83 0c 3e b1 e0 c7 bc 8d 6c 31 bd 0f 28 fa bd
       0.1372209 -0.024399133 -0.043316413 -0.12214672
000180 62 0d de 3c 8b 57 9f bd f9 7d 86 bb b5 50 61 3d
       0.02710599 -0.07780369 -0.0041043726 0.05500861
000190 4a 9b 63 bb a2 70 e1 3d 53 e9 91 3c e4 91 c9 bd
       -0.003473001 0.11007811 0.017811453 -0.098422796
0001a0 80 a8 83 bd a3 5f 41 3d 92 39 71 3b 2d 36 0f be
       -0.06428623 0.047210347 0.0036807996 -0.1398551
0001b0 bd 9e be 3d 32 0a 07 3d dd c2 2b bd 92 ad 8a bd
       0.09307621 0.032968707 -0.041933883 -0.06771387
0001c0 dd 7e be 3d d2 57 3c bd a1 2f 1d bc 75 30 3b 3e
       0.09301541 -0.04598219 -0.009593875 0.18280204
0001d0 8a 91 0b bc ec 6e 33 3d fa 64 b8 bc fc 71 7d 3d
       -0.008518586 0.043806955 -0.022509087 0.061876282
0001e0 73 e2 bc bd 98 9e 17 bd 84 d3 2f bd a8 1f 42 3e
       -0.09222879 -0.03701648 -0.042926326 0.18957388
0001f0 e6 16 dd 3c d8 e5 2d 3c 26 e0 cc 3d a1 0d d6 bd
       0.026988458 0.010613881 0.100036904 -0.10451818
000200 c4 37 45 bd 41 5d d4 3c 81 09 c0 bd a3 b4 c6 3c
       -0.048148885 0.025923373 -0.09376813 0.024256056
000210 dc 91 20 bc 6b ef 96 bd 7d c9 c9 bd d3 62 4b 3c
       -0.009800401 -0.07369884 -0.09852884 0.012413698
000220 de 55 89 3c 98 82 71 bc 81 6f b0 bd e1 a8 50 bd
       0.016764577 -0.014740609 -0.08615018 -0.050942305
000230 33 ea 19 3c c6 bd 52 3b da 58 b9 3c 0e 08 80 3c
       0.009394216 0.003215657 0.022625376 0.01562884
000240 09 8c ba bc 46 bc e4 3c 6e 4d a0 3d 83 6f 88 3d
       -0.022771852 0.027921807 0.078272685 0.06661894
000250 df 62 59 3d b6 56 63 bd 52 b6 58 bd 9a eb fe bc
       0.053072806 -0.055502616 -0.05290825 -0.031118203
000260 54 f9 7a 3c 57 5b 9e 3c 06 8f b0 bc 45 c2 99 bd
       0.0153182335 0.019330664 -0.021552574 -0.07507757
000270 42 b4 ad bd 40 bc a0 3d 5e 73 fe bc 40 7b 9b bc
       -0.08481647 0.07848406 -0.03106087 -0.018979669
000280 04 6a 5c bd c9 0c 38 bd 79 a4 58 3c db 3c fb 3c
       -0.053812042 -0.044934068 0.013222807 0.030668667
000290 1f 01 2b bd 69 cb 21 bd 26 68 81 3d 23 96 54 bd
       -0.041749116 -0.039500628 0.06318693 -0.051900994
0002a0 47 0e 87 bd f0 c8 97 bc 76 3f ac 3d 9b 16 42 3c
       -0.0659452 -0.018528432 0.08410542 0.01184621
0002b0 a0 18 48 3c 32 50 34 bc e1 3b 62 3d 9f a2 57 bd
       0.012212902 -0.011005448 0.055232886 -0.052645322
0002c0 57 77 75 3d 1a 0f ab 3c ab 02 21 3c b6 5c 47 3c
       0.059928264 0.020881224 0.009827296 0.0121681
0002d0 bf f8 79 bd 33 2e 6f 3d 98 e2 24 3d 42 26 99 bd
       -0.06102824 0.05839367 0.04025516 -0.07478
0002e0 35 8b a8 bd 0a 66 ba bc 6c 85 70 3d 3b 3e 32 bd
       -0.08229677 -0.022753734 0.05872099 -0.04351638
0002f0 68 9d 73 3d 73 26 82 bd f6 77 c7 bd 06 4e 69 3c
       0.059476286 -0.0635499 -0.097396776 0.014239794
000300 46 a9 76 bd 90 e5 ad bc 49 72 0e bd 5f 6b 5f bc
       -0.060220025 -0.021227628 -0.03477696 -0.013636439
000310 ad d2 b3 bd 45 63 cd bd f4 b4 98 3c 27 fa aa bc
       -0.087804176 -0.100287 0.018640973 -0.020871235
000320 8c 64 5a bd a6 90 13 bb 14 ae a3 bd 6c b7 8d 3c
       -0.053318545 -0.0022516637 -0.07992187 0.017299376
000330 e9 ee 2b 3d 38 8e af 3d b9 78 93 bd 63 99 2f bc
       0.04197589 0.08572048 -0.072007604 -0.010717723
000340 ff 79 44 3d a9 e5 a5 3d 4a ca 80 bd 50 da 19 3d
       0.047967907 0.08100445 -0.062885836 0.037561715
000350 07 79 15 3d 36 43 5a 3d 66 98 79 bd aa 2d 81 3d
       0.036492374 0.053286754 -0.060936354 0.06307538
000360 de b0 1d bd 3a da 5e bd 4e c5 8f 3c 48 59 99 3d
       -0.03849875 -0.054407336 0.017550137 0.07487732
000370 f3 bf 6f bd 50 88 2d 3d d4 d9 25 bc 0c 27 e7 3c
       -0.058532666 0.042366326 -0.010122735 0.028216861
000380 41 fa 75 3d 4d af e0 3c 6c 8a b6 bd fa 61 2f bd
       0.060053114 0.02742734 -0.089131206 -0.042818047
000390 81 02 6e 3c 62 77 a9 bd 2e f2 fe 3b 0e 41 6d bd
       0.014526964 -0.082747236 0.007780335 -0.05792337
0003a0 dd cc e7 bc 1d 84 01 3d 1c b0 91 bd 1d 6f 68 bd
       -0.028295929 0.031620134 -0.07113668 -0.05674659
0003b0 9c 20 25 3d 15 09 b3 bd 99 26 79 3d 8b 94 8b bd
       0.0403143 -0.08741967 0.060827825 -0.06815442
0003c0 07 54 fa bc 6f be 4b 3c a4 0a 2e 3c 3a 5e 81 bd
       -0.030557645 0.01243554 0.010622654 -0.063168004
0003d0 b5 44 3a 3a af d2 de 3c 35 ae 84 3d 18 b6 9d bd
       0.0007105575 0.027200071 0.0647854 -0.07700747
0003e0 d8 fe 33 bd 7d ef d2 3c 6f f5 39 bb 42 50 74 bd
       -0.04394421 0.025748963 -0.002837505 -0.059646852
0003f0 be 23 a2 bd 81 7b 94 bd fd 55 7d bd 03 11 45 bd
       -0.079169735 -0.07250119 -0.061849583 -0.048111927

actor_conv3.bias f4 [64]
000000 d7 e1 50 3c b8 98 2e bd 8e 32 5d bd a9 9f 8f 3c
       0.012749157 -0.042626113 -0.05400329 0.017532187
000010 fc f8 98 3d 8d 68 9b 3d a3 1f 2c 3d 29 fb 67 bd
       0.07469365 0.07588301 0.04202236 -0.05663601
000020 37 b6 c5 bb 47 31 b5 3d f2 5b 98 3d 77 22 1d 3d
       -0.0060336846 0.088472895 0.07439412 0.038362946
000030 2d 27 a2 3d 92 8b 3b 3c 84 99 45 3d 08 59 0c 3b
       0.079176284 0.01144685 0.048242107 0.0021415371
000040 c0 03 c1 bd 73 dd bd 3d df fa 30 bd e3 00 fb bc
       -0.094245434 0.09270754 -0.043208 -0.030640071
000050 29 8f ca bb c5 27 c8 bb b4 f0 90 bc 9a f9 34 3d
       -0.006181617 -0.0061082565 -0.017692901 0.04418335
000060 e6 73 e3 bd 5e 00 b4 bd 1e 6b 01 be 3d 35 96 3b
       -0.1110609 -0.087891325 -0.12638518 0.004583983
000070 15 ec 84 bd e8 59 34 bc 34 f9 55 3e 41 1c ac 3c
       -0.064903416 -0.011007763 0.20895845 0.021009566
000080 74 74 30 3d 21 4b b8 bc 98 6c 33 3b b8 2f 0c 3d
       0.04307981 -0.022496762 0.002737796 0.034225196
000090 c5 eb 85 3b 00 3e 0a 3c 72 87 8d bd d1 bd 77 3c
       0.004086944 0.0084376335 -0.069106 0.015120939
0000a0 fe 99 d1 3d 7f 14 7d bc 83 62 17 3e 6e cc 65 bd
       0.1023445 -0.015446781 0.14783673 -0.056103162
0000b0 11 e1 6f 3c 3a 41 c3 b5 bf bd 57 bc 12 3b ab bd
       0.014641062 -1.4547616e-06 -0.013167798 -0.08360876
0000c0 60 36 3a bd ce e5 2f 3d c5 e6 91 3d d5 43 11 3e
       -0.045462012 0.04294377 0.07124094 0.14186032
0000d0 60 4a 61 3d 3b 38 de 3d bb e8 78 3b 0a 2c ab bc
       0.05500257 0.10850569 0.0037980515 -0.020895023
0000e0 f9 40 6d bd f6 52 27 3d 7d 60 0e 3d f0 8d 07 3e
       -0.05792329 0.040850602 0.034759987 0.13237739
0000f0 25 d6 ad bd c1 24 62 bd be 2a a2 bd 1d 08 12 bc
       -0.084881105 -0.055210833 -0.07918309 -0.008913067

actor_fc1.weight f4 [512, 65]
000000 3a 20 00 be f7 e9 8b bd de 2b e0 bd 1f e9 af bd
       -0.12512293 -0.06831735 -0.10945867 -0.08589386
000010 0d 44 f4 ba c8 90 1e be 18 37 0f be d8 74 94 3d
       -0.0018636003 -0.15484917 -0.1398586 0.07248849
000020 22 e7 88 bd 7c b1 27 bd 6d fb 8a bd 5e 8d 44 3d
       -0.0668471 -0.040940747 -0.06786237 0.04798638
000030 87 4c b4 3d 6d df 15 be 8a 19 4a 3d a6 70 31 bc
       0.08803659 -0.14636011 0.049340762 -0.01083008
000040 97 6a 00 3e 1a 6e 03 be c2 5d 05 3a 9a 40 ee 3c
       0.12540661 -0.12834969 0.00050875184 0.029083539
000050 5b 8a 1a be b7 29 d7 3c 49 1d 5f 3c 7c e8 06 3d
       -0.15091841 0.026265008 0.013617822 0.032936558
000060 0b 1f 7c bd 63 fe 1a bd 70 08 f4 3c a3 69 8d bd
       -0.061553042 -0.03784026 0.02978918 -0.06904914
000070 5c 4c 98 3d 0d 31 ce 3d 6e 1c 58 3d 42 9d 38 bd
       0.074364394 0.100679494 0.052761488 -0.045071848
000080 ab d5 91 bd 5b 91 b9 3d bf 9a 35 37 92 ec 12 be
       -0.07120832 0.090609275 1.082447e-05 -0.14348057
000090 33 1d fc 3d 65 4a 29 be 6c fd 08 be 6d 4d 62 be
       0.12310257 -0.16532286 -0.13377923 -0.22099848
0000a0 fb 28 c7 bc 5e ac ba 3c e1 10 ee bd d1 63 10 3e
       -0.024311533 0.02278727 -0.11624313 0.14100577
0000b0 b6 20 c7 bc 15 b6 b9 3c bb ca e1 bd 04 9c 29 be
       -0.02430759 0.022669831 -0.11024996 -0.16563421
0000c0 db 44 73 be ce 31 0e be 07 3e 24 be 15 82 45 3d
       -0.23756735 -0.13886186 -0.16039287 0.04821976
0000d0 04 2f 54 bd 7a 1e c6 bd 76 d9 e3 3d 65 5d 66 3c
       -0.05180265 -0.09673782 0.11125462 0.014060353
0000e0 b5 fc bc bc 33 9f a2 bd b3 6d a6 bd 0c f0 f3 bd
       -0.023069719 -0.07940521 -0.08126392 -0.1191102
0000f0 f5 ad 9b bd 95 24 e3 3d 31 ad 21 3c 82 84 eb 3c
       -0.07601539 0.11090962 0.009867952 0.028749708
000100 78 4a 45 3d f6 a6 ea 3d 75 33 a9 3d 96 91 30 3e
       0.048166722 0.114576265 0.08261768 0.17243037
000110 56 b8 71 3d 4a 47 b9 3d eb 10 17 bc f0 c3 4b be
       0.059013687 0.090468004 -0.009220342 -0.19898963
000120 69 bd 09 3d 7f 21 f3 bc 74 52 35 3e 00 98 93 bc
       0.0336279 -0.029679058 0.17707235 -0.018016815
000130 5f ea 32 bc c1 79 b5 3d 35 4a 7b 3e 45 1e 0a 3e
       -0.010920136 0.08861113 0.24540026 0.1348811
000140 8c 45 fc 3c 71 a6 32 3d 25 96 01 3e 3f 44 17 bd
       0.030794881 0.043615762 0.12654932 -0.03693032
000150 78 ef 50 3e 2d a4 9c 3d fc ab 8b 3d d0 cc fd bb
       0.2040385 0.076485015 0.06819913 -0.007745363
000160 0d 6d fe 3d f2 f2 a7 3d 31 bc ea 3b 74 23 e6 bd
       0.124231435 0.08200635 0.0071635474 -0.11237231
000170 df c0 8e bc 8c 09 19 be a3 86 16 bd 7a 5d 54 be
       -0.017425952 -0.14945048 -0.036749493 -0.20738783
000180 83 0a 9b 3c 36 74 c2 3d a7 ef 7f 3d c4 a0 a3 3b
       0.01892591 0.09494822 0.06248441 0.00499353
000190 6f 27 f5 bc ed 13 05 3e 3a 5f 4a 3d 3f df 95 bc
       -0.02992603 0.12995882 0.04940722 -0.018294929
0001a0 61 9d 0a be b0 5f 7a bd a8 ea e1 3c a0 07 0d 3e
       -0.13536598 -0.06112641 0.027577713 0.1377244
0001b0 7b cd 03 3c 72 67 e6 3d 72 cf 6d 3d 7a 2e 82 3d
       0.008044596 0.112501994 0.058059163 0.06356521
0001c0 52 fe dd bd f9 fa 1a bd e9 87 44 3e bc d2 c5 3d
       -0.108395234 -0.037837002 0.1919247 0.09659335
0001d0 51 c9 23 be 22 ee aa 3d 7b af 11 be fd 22 e1 bd
       -0.15994765 0.083462015 -0.14227097 -0.109930016
0001e0 b8 c5 14 3e 03 d5 ab 3d 2e 40 12 3e d4 a4 06 3e
       0.14528549 0.08390238 0.14282295 0.13148814
0001f0 60 e5 1a bd 24 22 5f 3d 8a f0 42 bd 0a 40 09 be
       -0.037816405 0.05447592 -0.047592677 -0.13403335
000200 b3 2f 9f 3c f6 90 91 bc 3a b9 0e 3e 48 d8 cb bd
       0.019431924 -0.017769318 0.13937846 -0.09953362
000210 6d 87 bd 3d 4e ce ca 3b e0 da a7 3d a3 60 31 3e
       0.09254346 0.006189144 0.08196044 0.1732202
000220 13 ca 74 be 2d 05 1c bd 2e 7d ab 3c 5a f3 b5 3d
       -0.2390521 -0.038090874 0.020933714 0.08884306
000230 5b 1e f5 3d 09 64 11 3c cd 74 46 3d 61 1f 54 3e
       0.119686805 0.008873948 0.048451234 0.20715095
000240 c4 12 f7 bc da e9 13 3d 15 28 ef 3c 02 dc 01 be
       -0.030160315 0.03611169 0.029193917 -0.12681583
000250 c6 d9 34 3e 77 07 23 3e f8 c8 bd bd 9d 8e 4a 3e
       0.17661199 0.15920816 -0.09266847 0.19780965
000260 ba a5 53 bd f5 1b 0a 3e 8c c6 f4 bc 63 9f 9b bd
       -0.05167172 0.13487227 -0.02987983 -0.0759876
000270 6e ff e7 ba 05 cb 04 be e1 44 db bd a9 a3 5b bd
       -0.0017700025 -0.12968071 -0.10706497 -0.053622875
000280 c0 c5 0e 3e 76 d4 c4 ba 3a 28 a9 3d dd 55 4f 3e
       0.13942623 -0.0015016932 0.08259626 0.20247598
000290 a8 71 ad 3d 1f d9 31 3b fe c9 0b 3e 59 c9 1c 3d
       0.08468944 0.002713747 0.13651273 0.038277958
0002a0 50 c3 07 be 87 37 cc bd 6a a0 b0 bd a4 67 97 3d
       -0.132581 -0.099715285 -0.086243466 0.07392815
0002b0 dd db 6e 3e bd 6d 26 be d3 80 fe bd 13 5b dc bd
       0.23326059 -0.162528 -0.12426915 -0.107595585
0002c0 61 2d fa bd 4a eb a4 3d 04 11 50 3d b7 63 49 bd
       -0.122156866 0.0805269 0.050797477 -0.04916736
0002d0 c4 15 7c bc 76 04 d9 3d 99 c3 03 3e 25 96 c6 3c
       -0.015386049 0.10596554 0.12867583 0.024241516
0002e0 4e 42 07 bd 65 6a bf 3d ef 1e ca 3d da 91 f9 3d
       -0.033022217 0.09346465 0.09869181 0.12186022
0002f0 ef 0b 5b bb c6 f1 ae 3b 9d e9 17 bd f5 97 ba bd
       -0.003342386 0.0053388802 -0.037088025 -0.09111015
000300 31 1f b9 3d 4f f0 b0 3d d9 65 b0 3c bf 00 0c 3e
       0.090391524 0.08639585 0.02153294 0.1367216
000310 1b 88 a9 bd ec 7e c7 3d 3c 10 aa 3d 4c 01 2e 3e
       -0.08277913 0.09741005 0.08303878 0.16992682
000320 6b 0b 00 3d 33 05 4a 3d f4 b5 32 3e 6d bf 7c bd
       0.03126089 0.049321365 0.17452222 -0.061705995
000330 e0 1a 83 bd b7 15 09 3e 30 c3 65 bc 3b 34 09 3d
       -0.064016104 0.1338719 -0.014023587 0.033497076
000340 d0 76 c9 3d 87 ee 94 bd 4c 1b 03 bd 54 46 b3 3d
       0.09837115 -0.07272058 -0.032008454 0.087536484
000350 d4 89 69 bd 18 9b ce 3d be 6a 9d 3d 6b 1b 9f bd
       -0.05701621 0.100881755 0.07686375 -0.077689014
000360 80 db 15 3d 8e b0 3c 3d d6 b0 9f 3d 26 80 a7 bd
       0.036586285 0.046066813 0.07797401 -0.08178739
000370 eb 80 60 3d d0 98 42 3d d3 03 85 3d de 16 9b bd
       0.054810446 0.047509015 0.0649487 -0.07572721
000380 e6 b4 c8 3c b2 8c ad bd 31 33 9b 3d a6 c3 1e 3c
       0.024500322 -0.08474101 0.07578123 0.009690201
000390 47 8c 71 bd 7f 96 ab 3d a7 90 54 3a 0f 29 5c 3d
       -0.05897167 0.08378314 0.0008108713 0.053750094
0003a0 8c 36 38 3d 24 0a 74 3d 89 46 f3 3d 7e 6b 9e bd
       0.044973895 0.059579983 0.11878688 -0.07735346
0003b0 25 dd e0 3d c0 be f3 3d ad 78 b3 bd d6 64 de 3c
       0.1097968 0.11901617 -0.087632515 0.027147692
0003c0 56 ec ed 3d bd 94 9c bd 82 b0 c7 3d e0 dd 39 3d
       0.11617343 -0.07645557 0.09750463 0.045377612
0003d0 04 81 e5 bc e4 7b 4c 3d cb 78 e5 3b 80 a0 26 3e
       -0.028015621 0.04992284 0.007002925 0.16272163
0003e0 64 0d 22 bd 03 ec f2 3d 3f 3a f0 bd ff c7 27 be
       -0.03956355 0.11861422 -0.117298596 -0.16384886
0003f0 46 93 37 3e 5f 72 34 3e ae de 22 be 8b da 97 3d
       0.17927274 0.17621754 -0.15905258 0.07414731

actor_fc1.bias f4 [512]
000000 97 af 30 bd a4 f8 9b 3d 7e 2b 57 3d d8 63 0c 3d
       -0.043136206 0.07615784 0.05253171 0.034274906
000010 2d b8 01 bd c3 ac cc 3d 2c 58 f8 bc a6 10 a6 bd
       -0.031669784 0.09993889 -0.030315481 -0.08108644
000020 c1 51 94 bc 2c 42 4d bd 20 f0 a5 bd c9 f9 d7 bd
       -0.01810539 -0.050111935 -0.08102441 -0.105456896
000030 16 13 cf 3d f3 e7 07 be 0d 47 21 bc 88 8c a2 bd
       0.10111062 -0.13272075 -0.0098436 -0.079369605
000040 96 8e 23 3a cd 00 88 3c ca ed 95 3d 48 e4 02 bd
       0.00062392035 0.016601944 0.07320745 -0.031955987
000050 8b bb b9 ba 41 72 de 3c 88 1b 8c 3c ce e2 50 bd
       -0.0014170272 0.02715409 0.017102972 -0.050997548
000060 1d 8c a3 3c b9 97 cd bb 25 3e 6d 3e 6b ac 0a bd
       0.019964272 -0.0062741903 0.23168238 -0.033855837
000070 a9 9b 42 3e f1 a2 73 bc 4b 46 1b bd 9c 04 92 bd
       0.19004692 -0.014870391 -0.037908833 -0.071297854
000080 88 36 f0 bd c7 21 c0 bd ad c4 8d 3d fc 69 ce bc
       -0.11729151 -0.093814425 0.069222786 -0.025197022
000090 36 dd 60 bd 45 4a a0 3d c3 18 65 3d d8 a8 6d 3c
       -0.054898463 0.07826666 0.055931818 0.0145055875
0000a0 1d 92 0a 3b b8 bc 73 bd ad ea 0d 3d e5 89 f3 3d
       0.002114422 -0.059506148 0.034647632 0.11891536
0000b0 b3 f3 a2 3b 0a af fd 3d 36 7f 36 bc bb 10 1b bd
       0.004972899 0.12386902 -0.011138728 -0.037857752
0000c0 33 ee 03 3c 33 6b 0c 3d bd dd 1e 3e 47 65 96 bc
       0.008052397 0.03428192 0.15514274 -0.01835884
0000d0 8e cf 7f bd 79 92 67 bd 84 ac af bd 65 82 3b bd
       -0.0624538 -0.05653617 -0.085778266 -0.04577865
0000e0 a3 60 a1 3d db d5 8a 3b be 20 21 3c 9f d1 06 be
       0.0787976 0.0042369193 0.0098344665 -0.13165902
0000f0 f0 26 c0 3c 17 9a 31 3e 12 6a 04 3d e8 b1 72 bd
       0.023456067 0.17343937 0.03232772 -0.059251696
000100 97 37 b1 3d bb ab 69 3c 4b 7f 87 bd 13 40 a1 3d
       0.08653181 0.014262135 -0.06616076 0.07873549
000110 43 92 02 bb 4e 08 c1 3d 39 48 c3 3d 63 9a 72 3d
       -0.0019923605 0.09425412 0.0953526 0.059229266
000120 e3 69 09 3e c5 a0 0c 3e 66 7a 09 bd 71 a3 78 3d
       0.13419299 0.13733204 -0.033563994 0.060702745
000130 d5 d8 50 3c 39 c1 74 bd 27 bf 62 3c cc b0 b8 3d
       0.012747009 -0.059754584 0.01383952 0.09018096
000140 ab 82 a1 bd 3c b2 7a 3d bc 33 bf bd 8e 70 83 bd
       -0.07886251 0.061205134 -0.093360394 -0.064179525
000150 26 cf 34 3d 9d 40 aa bc 33 38 2c 3e 97 13 be bd
       0.044142865 -0.020782763 0.16818313 -0.0928108
000160 d7 19 70 bd ea e7 0a bd d2 4c 83 bd 89 00 c7 bd
       -0.058618393 -0.033912577 -0.06411137 -0.09716899
000170 fe b9 71 3d 29 75 31 3d 0f 15 97 3d ed bd 69 3b
       0.059015267 0.043324623 0.073770635 0.0035666183
000180 c3 1c 27 3c 5e f1 84 3c 5e 3a 73 bc 21 b4 ee 3d
       0.010199728 0.016228374 -0.014845459 0.116554506
000190 8a 14 0f bd 44 85 d5 3d f2 1f b0 bd 97 d6 bb bd
       -0.034931697 0.10425809 -0.08599843 -0.09171789
0001a0 66 00 ff bc e4 cf ab bd 93 3c 50 3d fb 09 b9 bd
       -0.03112812 -0.08389261 0.050839018 -0.09035107
0001b0 97 6a 8e bd 2f 45 cd bc 42 6e 27 bc 6e 1b 0c 3d
       -0.06953924 -0.025057403 -0.010219159 0.034205846
0001c0 38 35 86 bd 1d 9f e3 bd a4 af 3b bd d5 31 28 be
       -0.065531194 -0.11114333 -0.0458218 -0.1642526
0001d0 d9 9a 75 3d d8 97 c3 bd 5f 83 8c bc d4 12 d1 bd
       0.059962127 -0.09550446 -0.017152486 -0.10208669
0001e0 43 b4 98 3c 9b 51 58 3d 5e 08 b9 3d ab 06 30 3e
       0.018640643 0.0528122 0.09034799 0.17190044
0001f0 a4 a7 30 3e 54 98 aa bc 9a f5 26 bd 58 6e 91 3d
       0.1725145 -0.020824589 -0.040761568 0.071011245
000200 00 19 10 3d 61 f6 32 bb 12 7e d2 bd d8 67 ce bd
       0.03518009 -0.0027307498 -0.10277952 -0.100784004
000210 ef f5 fc bc 06 c8 b9 3d 09 4c db 3c af 28 6f 3d
       -0.030878989 0.090713546 0.026769655 0.05838841
000220 24 d7 c7 3c ab 87 81 3d 32 28 68 bd 8e 96 9b bd
       0.02439458 0.06324705 -0.05667896 -0.075970754
000230 f1 b2 20 bd 42 92 8c 3d d1 5e d0 3c 3b 6b e1 bd
       -0.03923315 0.06863834 0.025435837 -0.11006781
000240 ae 6e 1c 3e 7b c3 58 3d b7 61 ea bd 58 30 f6 3d
       0.15276596 0.0529208 -0.11444419 0.120209396
000250 ff e9 c5 3d 8b c3 6d 3d f4 4a ce bb 2e fc be bb
       0.09663772 0.058047812 -0.006295556 -0.005828402
000260 e1 a2 37 3c 6a 00 06 3e 52 b7 63 bd 3a 81 a0 bb
       0.011208267 0.13086095 -0.05559475 -0.0048982175
000270 82 c2 bf bd 70 2e b1 bd f3 21 52 3d 91 7c a0 3b
       -0.09363271 -0.086514354 0.051301908 0.004897662
000280 2c 07 7e bd 90 26 d5 bc 74 7d 0b be e2 ce 35 be
       -0.06201856 -0.026019365 -0.13622075 -0.17754701
000290 1d c0 0a be f2 13 01 bb c4 38 0a be ce 6d 71 3b
       -0.13549848 -0.0019695726 -0.13498217 0.003683913
0002a0 d2 91 1f bc c0 2a 6b 3d 98 19 4b 3d 7a c2 af 3d
       -0.009739356 0.057413816 0.049584955 0.08582015
0002b0 4b b9 00 bc c7 78 1f be 06 ca 5c 3d 00 65 01 3d
       -0.007856677 -0.15573417 0.053903602 0.03159046
0002c0 7d 2f b0 bd 2c 4e 1e 3e 5a 65 81 bc ce 60 dd 3c
       -0.08602808 0.15459508 -0.015795399 0.0270237
0002d0 9e 3f 82 3c 7c c4 b3 3c c3 c6 f7 3d 7a 45 0b bd
       0.015899476 0.021944277 0.12098458 -0.034001805
0002e0 22 eb de 3d f7 1c 49 bd 13 a7 34 bd 1f 27 e2 bc
       0.10884692 -0.04909989 -0.044104647 -0.027606545
0002f0 dc 4a d1 3d 4d db b3 bd c0 19 09 bd 0d 15 8f bd
       0.102193564 -0.08782063 -0.033471823 -0.06986437
000300 db 53 8e 3a 47 a0 83 bd 14 8a 10 be 32 ab 71 3c
       0.0010858731 -0.06427055 -0.14115173 0.014750289
000310 e7 fa 57 bd 3f df 9d 3c 17 33 b9 3d 3d 92 53 3d
       -0.052729513 0.019271491 0.09042948 0.051653136
000320 bf 13 05 3e 56 b3 45 3e 73 11 fd bd 25 86 ec 3d
       0.12995814 0.19306692 -0.12356844 0.115490235
000330 1e ac 0d be 5b 33 e5 bd fc 47 03 3e c4 f6 e6 bd
       -0.13835189 -0.11191436 0.12820429 -0.112775356
000340 6d 52 0f 3d dd 53 2c bd 8f d0 f5 3c 9c f4 ab bd
       0.034990717 -0.042072166 0.030006675 -0.08396265
000350 2b af 62 bd 8a eb 91 3d 2e 8b b0 bd ec dc d8 bd
       -0.055342834 0.07125004 -0.086202964 -0.105890125
000360 b9 21 69 3d 08 0f 06 3e ed 26 1f be 11 7a 6f ba
       0.056916926 0.13091671 -0.15542193 -0.0009135316
000370 e5 b2 91 bd a4 e6 e2 3d 1b 98 d6 bb 42 73 ae bd
       -0.071141995 0.110791475 -0.006548894 -0.085180774
000380 65 88 6d bc 86 a4 5b 3d d5 2b 0e be 14 6f 14 3d
       -0.014497851 0.0536237 -0.13883908 0.036238745
000390 59 86 96 3d d1 b7 61 3d d7 f6 ab 3a fe f4 6e bc
       0.073498435 0.05510694 0.0013119829 -0.014584778
0003a0 88 b9 b1 3d b2 a1 4d 3e 3f 68 0b 3d 6b e4 c0 bd
       0.086779654 0.20081213 0.034034964 -0.09418567
0003b0 61 ac 15 bd 7d ac 44 3e 01 f2 a9 bd ea c6 f0 3d
       -0.036541346 0.19206424 -0.08298112 0.1175669
0003c0 f1 fe 1b 3e 47 70 68 3b 5a 16 99 bd 58 50 9f bd
       0.15233971 0.0035467313 -0.07474966 -0.07778996
0003d0 6a 1c 32 bd bf a3 a7 ba 67 2c ab bd 8d ac e5 3b
       -0.04348413 -0.0012789889 -0.083580784 0.007009095
0003e0 ff 4f 2b 3e 6b 8b b7 bd 63 60 7e 3d 75 79 11 be
       0.16729735 -0.08962139 0.06210364 -0.14206488
0003f0 7e 94 9f bd cb e4 8d 3d 8b 8d ed bd 36 77 aa bc
       -0.077919945 0.069284044 -0.11599263 -0.020808797

actor_fc2.weight f4 [7, 512]
000000 87 2e 1a bd ed bb 50 be a9 02 2f bd 45 7b 6b bd
       -0.03764203 -0.20384188 -0.042727146 -0.057490606
000010 44 66 8d 3d f4 76 89 bd be 3b fe bc 79 e2 ac bc
       0.06904271 -0.06712142 -0.031034347 -0.021104084
000020 30 da 84 bd 18 40 22 3d 7d b8 ac bd 4a f2 23 3e
       -0.064869285 0.039611906 -0.08433626 0.16010395
000030 70 28 4b be de 4c 67 3c 52 a3 2d bd 62 86 05 bd
       -0.19839644 0.014117448 -0.042392083 -0.03259886
000040 3b 19 30 bd b7 ff d4 bd 1b a4 65 bd 4c e7 a9 3c
       -0.04299281 -0.10400336 -0.056064706 0.020740174
000050 f4 bd 80 3c eb 00 15 be 71 e9 ab bc fe 51 51 3c
       0.015715577 -0.14551131 -0.020985337 0.012775896
000060 62 91 fb 3c 32 43 b9 bd c4 a9 9a bd b9 90 4a bd
       0.030708972 -0.090460196 -0.075519115 -0.049454425
000070 fb 7b bd bd 61 5e 43 bd 6d 5c 2d 3c d7 b5 07 bd
       -0.09252163 -0.04769743 0.010581118 -0.0331324
000080 21 af 2f 3c 48 be 1c bd 3f 4b 58 bd 76 65 92 3c
       0.010722906 -0.038267404 -0.052806135 0.017870646
000090 7e 8e 8d bc 5d 2a 29 3b 09 23 4c bd 8c 87 31 be
       -0.01727986 0.0025812604 -0.0498381 -0.17336863
0000a0 f4 68 ad bd 83 f3 2e 3d ad 54 a6 bd f3 d8 5b be
       -0.08467284 0.0427127 -0.081216194 -0.21469478
0000b0 98 eb a2 bc 57 34 14 3d ed f3 1b bb ba 59 30 3d
       -0.01988773 0.036182728 -0.0023796514 0.04305432
0000c0 2e 24 b7 bd 91 20 b1 bd 91 a6 25 be df 61 81 bd
       -0.089424476 -0.0864879 -0.16176821 -0.063174956
0000d0 69 88 93 bd 5f 16 80 bd 83 05 b7 bd cc 33 81 bd
       -0.072037525 -0.06254267 -0.08936598 -0.063087076
0000e0 4a 8b 29 be a7 3d f2 bc 55 d8 56 3d 9a 9b 7f 3d
       -0.16557041 -0.029570414 0.052452404 0.062404253
0000f0 cf de 82 bb e1 5a 82 bd fc a8 13 bd 42 b4 74 bb
       -0.003993846 -0.0636499 -0.036049828 -0.0037338887
000100 29 0d 8c 3d 0c 8a 2d bd b5 1c 71 b9 f1 61 a8 bd
       0.068384476 -0.04236798 -0.00022994245 -0.08221806
000110 c5 f3 1a 3d 39 e5 05 be 61 6f 39 be 43 e5 b3 bd
       0.037830133 -0.13075723 -0.18108894 -0.087839626
000120 27 f6 a7 bd 5a 6b e8 bd 93 12 7a bd 1a ce cf bd
       -0.08201247 -0.11348601 -0.06105287 -0.10146733
000130 e3 e9 97 bc d7 50 ed 3b 96 c6 3b 3c 10 f6 a9 bd
       -0.018544143 0.007242303 0.011460921 -0.08298886
000140 ce ea ce bd 0d 06 29 bd 7e d1 26 3c 77 80 cd bc
       -0.10103379 -0.041265536 0.010181783 -0.02508567
000150 9f 89 1f 3d db 0e 75 bb be 58 26 be b7 ee 89 3d
       0.038949605 -0.0037392888 -0.1624479 0.06734984
000160 72 af f0 bc 7b e0 f6 b8 74 94 a7 bc 51 24 8a bd
       -0.029380534 -0.00011772007 -0.02045653 -0.06745208
000170 a4 9d a5 bd f2 25 70 bc 8d d9 4a 3a b3 cf 8c bd
       -0.08086708 -0.014657484 0.0007738106 -0.06875553
000180 f9 fe 90 3c bf 75 40 3d 77 da aa 3c bb 8f c6 bd
       0.017699705 0.04698729 0.020856125 -0.09695383
000190 b1 b3 92 3a 82 99 58 3d 90 14 b2 3c 2a 02 ec 3b
       0.0011192468 0.05288077 0.02173832 0.0072024064
0001a0 0f 44 fd 3c c2 b4 9d bd 3d 9c 90 bd 92 1b 85 3d
       0.030916242 -0.077004924 -0.0706105 0.06499399
0001b0 de f2 08 bd 92 09 72 bb 7d ef ad bd 32 c9 15 be
       -0.03343474 -0.0036931974 -0.084929444 -0.14627531
0001c0 c6 a2 eb bd 2a ce 04 3d a9 e9 22 bd 76 52 35 3d
       -0.11505656 0.032423176 -0.039773617 0.044268094
0001d0 df 14 19 bd 2f 1f c9 3c 1f ef e8 bc fe 41 94 3b
       -0.03737342 0.024551002 -0.028434334 0.0045244684
0001e0 0f c3 37 bd 75 90 fb 3b 08 4f 40 be 41 15 be bd
       -0.044863757 0.0076771327 -0.18780148 -0.092813976
0001f0 5e 13 d0 bd d0 44 23 bd 08 65 1e bd 39 34 3d 3c
       -0.10159944 -0.039860547 -0.03867057 0.011548095
000200 d4 4b 42 bc e7 f6 f5 bd 73 c8 71 bb 47 95 b2 3c
       -0.011858899 -0.120099835 -0.0036893159 0.021799697
000210 ec 9f 21 ba 25 b8 ee bd 44 7a f3 bd 0b 7a 15 3d
       -0.0006165493 -0.116562165 -0.11888555 0.036493342
000220 ae dc c3 bc e5 6e bf bd d7 ec 10 bd 60 fc ec bb
       -0.02390894 -0.09347323 -0.035382118 -0.007232234
000230 93 ad 80 3b 58 63 09 be ec 55 a3 bc 3d 50 30 3c
       0.0039269417 -0.13416803 -0.019938432 0.010761318
000240 9b 12 1a be 0a 44 0d be b2 b8 61 3d af d4 cc bd
       -0.1504616 -0.13795486 0.05510778 -0.10001504
000250 2d c0 a9 bd c4 47 81 bd e7 6d e9 3b 58 e8 0c bd
       -0.08288608 -0.06312516 0.007123697 -0.034401268
000260 82 80 f8 bd 34 84 b4 bd 20 30 a4 3d d7 64 23 3d
       -0.12133886 -0.08814278 0.080169916 0.03989109
000270 a8 f8 c2 3c e1 41 90 bc 24 8c 19 bd 44 f6 6a ba
       0.02380021 -0.017609539 -0.037487164 -0.0008963088
000280 79 24 5d 3c 66 c6 f6 3c 14 eb f0 3b b4 11 a1 3c
       0.013497465 0.0301239 0.0073522422 0.019661762
000290 60 06 1c 3d 51 34 9f bc e9 c4 96 3a bf 4c cb 3b
       0.038092017 -0.019434126 0.0011502776 0.006204217
0002a0 c9 f2 82 bd bf 96 6e bc 69 75 ca bb 2a f6 23 bd
       -0.06393964 -0.014562308 -0.006178547 -0.040029682
0002b0 ab 11 a3 bd e9 dc c1 3c 05 24 de bd 52 52 96 3c
       -0.07962354 0.023664908 -0.10846714 0.0183498
0002c0 da e4 b0 3c e8 c5 08 3d bb 17 34 3d 38 29 b9 bd
       0.0215935 0.033391863 0.043967944 -0.09041065
0002d0 73 ff 73 bd d8 d1 04 bd 90 f4 15 3d d2 a3 ec bb
       -0.059569787 -0.032426685 0.036610186 -0.0072216773
0002e0 ea 3f a9 bd b3 05 b5 bc 15 a8 52 bd 6b 37 77 bd
       -0.08264144 -0.022097444 -0.051429827 -0.060355585
0002f0 b3 10 57 be b0 3c 9e 3d 14 b0 dd 3c f1 a2 86 bc
       -0.21002464 0.07726419 0.0270615 -0.016435118
000300 75 69 7e b9 5a b5 7d bc c9 6e 79 bc 42 4a dc bb
       -0.00024262613 -0.015485132 -0.015224167 -0.0067227194
000310 b4 96 19 bd 5c 96 9b bd f6 6b 3c 3d f7 f1 19 bc
       -0.037497237 -0.07597038 0.046001397 -0.009396068
000320 66 62 a9 bd 26 d6 eb bd 83 08 ac bb 5e bf 0f 3d
       -0.08270721 -0.11515455 -0.005250038 0.03509461
000330 2b 5a a3 bb 31 c5 cf bc d1 d2 82 bd c1 89 3f bd
       -0.004985114 -0.025362583 -0.06387866 -0.04676223
000340 35 82 a7 bd 33 b5 9c 3b a8 f7 e3 bd 81 f9 17 3a
       -0.08179132 0.004782343 -0.11131221 0.0005797372
000350 f0 15 50 3d fd 5c 60 bd 66 78 8c 3d 47 71 2c 3d
       0.05080217 -0.05477618 0.06858902 0.042100217
000360 54 49 50 bd 73 03 8f 3c 04 35 5a 3d bc 27 14 bb
       -0.05085118 0.0174577 0.053273216 -0.0022606691
000370 bd df 30 bc 11 ab fa bc b6 e7 af bc d2 a6 48 3c
       -0.010795531 -0.030599149 -0.021472793 0.012246804
000380 3c 7b 6b 3d d5 93 4c 3d aa 87 a2 bc 3c 8c 7c bd
       0.057490572 0.04994567 -0.01984008 -0.061657175
000390 63 4d 88 bd ab dd 32 bd 97 70 c4 bd e0 0c f5 bc
       -0.06655385 -0.04366843 -0.09591787 -0.029913366
0003a0 1b 0d 86 bd ce 9b 12 bc 72 d8 59 bd 59 aa d7 3c
       -0.065454684 -0.00894828 -0.053184934 0.026326345
0003b0 df 32 89 ba c8 c3 4a 3d 9e 06 20 3d 31 aa bf 3b
       -0.0010467431 0.049503118 0.03906881 0.005849146
0003c0 32 6a 9d 3d a0 1d 17 3e a4 f9 27 3d fe 9d 82 3c
       0.07686271 0.14757395 0.04100956 0.015944477
0003d0 5e e9 40 bd a0 b3 8e 3c 84 cd ea bc 31 da c2 bc
       -0.047097556 0.017419636 -0.02866245 -0.023785682
0003e0 03 2f 09 bd a9 5c 10 bd 81 fc 8c bd ac 46 1b 3d
       -0.0334921 -0.035244618 -0.06884099 0.037909195
0003f0 70 d5 01 3d 91 bb 28 3d 0a 6b 04 3c 5d aa a0 3b
       0.03169769 0.041194502 0.008082161 0.0049031214

actor_fc2.bias f4 [7]
000000 11 f0 e3 bd 76 fa b8 3d 76 e1 b7 3c 8d 94 b2 3c
       -0.111297734 0.09032147 0.022446375 0.02179935
000010 3e d7 a5 bd ee 81 45 3d 66 ee 3a bd
       -0.08097695 0.048219614 -0.04563751

critic_conv1.weight f4 [16, 3, 2, 2]
000000 17 f2 2a 3e 21 77 dc be 0e 08 c9 be df bf 5d 3d
       0.16693912 -0.43059638 -0.39263958 0.05413806
000010 d2 5b 35 3e 22 b5 91 3d 83 b1 0c 3d 7c 69 f2 bb
       0.17710808 0.071146265 0.034348976 -0.0073978286
000020 ba ee 17 3e be 8c a2 be 28 ae 76 be 5d 5b 28 be
       0.1483716 -0.31748003 -0.24089873 -0.16441102
000030 3f a7 a1 3e 23 0d a4 be 9a c1 74 be e6 9f 4e 3d
       0.3157291 -0.32041273 -0.23901978 0.05044546
000040 dc 17 73 3e d4 54 7e 3d 8f a0 2d be 18 f3 15 be
       0.2373957 0.062092617 -0.1695578 -0.14643514
000050 15 4b 02 3f 48 23 4b be fd 61 97 bd 6a 9c dd 3d
       0.50895816 -0.19837677 -0.07391737 0.10820849
000060 08 44 3a 3d a6 34 78 be 24 ff 48 bd c6 c4 68 be
       0.045475036 -0.24238834 -0.049071446 -0.22731313
000070 2c 6e 69 3e 5d af d4 bd ac 44 03 3d 48 7d 92 be
       0.22795933 -0.103850104 0.032047912 -0.28611207
000080 ee d3 00 be 08 10 d3 3d 3a 99 bb 3e a9 a9 84 be
       -0.12580845 0.10305792 0.3664034 -0.2591069
000090 d4 3d 40 3e 84 72 8c be ee fa 5e 3e 8e 3b b3 be
       0.18773586 -0.27431118 0.2177541 -0.35006374
0000a0 0f fe e3 bd cc d1 4e be 4a 4d 2d 3e 02 61 a5 be
       -0.11132442 -0.20197219 0.16924015 -0.32300574
0000b0 4f 59 b5 3e 01 01 12 3e 57 f6 3b 3d f7 16 b1 bd
       0.354197 0.14258195 0.045889225 -0.08646958
0000c0 ea ce 3e be 8b e2 7c be c9 5f 83 bb 82 15 96 3e
       -0.18633619 -0.24695794 -0.004009221 0.29313284
0000d0 70 1f a3 be 3c 40 86 3e 3f 5b 65 bc 3b 08 4a be
       -0.31859922 0.26220882 -0.013998806 -0.19729702
0000e0 f4 a3 d1 bd 18 c8 28 3e e4 c8 bb bd b1 28 a1 bc
       -0.1023635 0.1648258 -0.09169176 -0.019672723
0000f0 6d 58 19 be ef ea 01 3c c8 a7 ff 3d 91 c2 33 be
       -0.14975138 0.007929548 0.124831736 -0.1755469
000100 17 2d fd 3d 5a d1 2c 3e 44 44 b1 bd ad d2 23 be
       0.12362116 0.16876736 -0.08655599 -0.15998335
000110 6e 3d 3c be 7c 86 f8 3e 2d 78 52 bd 0b e5 16 3d
       -0.18382809 0.48540103 -0.05138414 0.036839526
000120 f3 ca 15 3e 3f ba 93 be 58 73 8a 3d 6a 94 00 be
       0.146282 -0.28853032 0.06760281 -0.12556615
000130 3f 8a 62 bd b6 7c b4 bd 03 9c 77 3d 33 81 a7 3c
       -0.055307623 -0.08812849 0.06045152 0.02044735
000140 5e 91 08 3e 62 8b 46 3c 51 0b 9e 3e 03 56 bb 3e
       0.13336703 0.012118192 0.3086801 0.3658906
000150 ee 7d 88 be fc eb 2f be 5f c8 ef 3d 53 3f eb bd
       -0.26658577 -0.17179865 0.1170814 -0.114866875
000160 15 78 30 be bd 15 d8 3d 84 76 0b bc eb 0a 7b 3e
       -0.17233308 0.10551021 -0.008512143 0.24515884
000170 50 53 91 be ed d8 5d be cb 3f c0 3e d4 95 97 bd
       -0.28383875 -0.21664782 0.3754867 -0.07401624
000180 8a 2e 70 3c a7 5f b1 3d f3 d1 d5 3d b7 d0 c0 3e
       0.014659533 0.08660822 0.10440435 0.37659237
000190 eb 89 ce 3c e3 d5 a1 bc 47 be 86 bd c2 4e 55 bd
       0.025212249 -0.01975531 -0.06579261 -0.052077062
0001a0 e0 90 46 be 2a ae 84 3e 5a 9b cb 3d 34 d7 a8 be
       -0.19391203 0.25914127 0.0994174 -0.32976687
0001b0 26 5e a2 bc 0c ae 9b be 6d 7f 2d 3d c7 2f 7b 3c
       -0.019820284 -0.30406225 0.04235785 0.015331215
0001c0 07 81 51 3e ce 60 b5 be f7 d3 64 3e 39 91 e5 3d
       0.20459376 -0.3542542 0.22346483 0.1120934
0001d0 57 8e 5b 3e a6 01 da 3a 00 2c 0c 3e 94 cb ee be
       0.21441017 0.0016632571 0.1368866 -0.46639693
0001e0 4a 6c a8 3d 94 80 b3 3e cf 04 9c be 00 1e 8a 3e
       0.082237795 0.35059035 -0.3047242 0.26976013
0001f0 a8 8f 38 be 66 a2 8c 3d ad 56 c3 3d eb 6d 7d be
       -0.1802355 0.068669125 0.095380165 -0.24748962
000200 42 46 28 3e f5 45 14 be e1 06 be be 8f c8 0a 3e
       0.16433051 -0.14479811 -0.37114623 0.1355307
000210 c6 60 2a be 89 7f 06 be 2b 3d 84 be 89 9b 40 be
       -0.16638479 -0.13134588 -0.25827917 -0.18809332
000220 87 41 56 3e 41 23 0a 3e 58 d2 ff 3d bf 7b 1a be
       0.20923434 0.13490011 0.12491292 -0.15086268
000230 6e 26 bd be 5a e7 d7 bc ac d4 14 3e 26 25 14 be
       -0.36943382 -0.026355434 0.14534253 -0.14467296
000240 ab ee ab bd 27 e0 b6 3e ec d5 91 3d 91 9e 43 3e
       -0.08395132 0.3571789 0.071208805 0.19103457
000250 1a c4 57 be a6 c9 3c be 19 97 82 3d b7 b1 33 3d
       -0.210709 -0.18436298 0.06376476 0.043870654
000260 92 42 b6 bd 60 71 a8 be bb 19 af bd d6 ae 42 be
       -0.08899416 -0.32898998 -0.085498296 -0.19012007
000270 e8 63 ec 3d 39 51 99 3d af 61 81 3d 11 4d 4d be
       0.11542493 0.07486195 0.0631746 -0.2004893
000280 88 96 51 be 4f 67 00 be f7 cb 27 be f9 02 e8 3d
       -0.2046758 -0.12539409 -0.163864 0.11328692
000290 af 37 61 3e df c8 55 be 72 24 f0 bd f6 a9 fc bd
       0.21993898 -0.20877407 -0.117257014 -0.12337105
0002a0 49 31 69 be 1f 1b 4b be d9 0a 7d be 21 1e 83 3e
       -0.22772707 -0.19834565 -0.2471117 0.25608924
0002b0 48 e8 36 3e a9 fd 2e be 90 22 e3 bb e0 00 9b bd
       0.17862046 -0.17088951 -0.0069316104 -0.07568526
0002c0 c3 a9 79 bd 0e 8d 85 3d 10 30 1f 3e c3 c9 74 bd
       -0.060952913 0.06521045 0.15545678 -0.059762727
0002d0 86 bf 29 3e 2c 64 d4 bd 07 79 1b bd 0a 1a a5 be
       0.16576967 -0.10370669 -0.037957218 -0.3224643
0002e0 85 5a 2e bd 1c cd 4a 3e 7e a4 9d be b1 57 72 3b
       -0.042566795 0.19804806 -0.3078956 0.0036978538
0002f0 ae 2b 5c 3e 76 ce 3d 3e cc 67 d2 bd 99 81 9a 3d
       0.21501037 0.1853579 -0.10273704 0.0754425

critic_conv1.bias f4 [16]
000000 98 98 26 be d9 c3 38 be e7 c7 60 be a4 f6 06 3e
       -0.16269147 -0.1804346 -0.21951257 0.13180023
000010 fd e8 bd bd 8c bc fb bc 59 53 78 bd 73 d7 27 be
       -0.092729546 -0.030729555 -0.06062636 -0.16390781
000020 79 f6 83 be a5 aa 02 be db 25 c6 be 86 1f 72 be
       -0.2577398 -0.12760408 -0.38700756 -0.23644838
000030 99 31 2d bd 60 65 e6 bc c2 2f 3f 3d ec 62 52 3d
       -0.042283628 -0.028124511 0.046676405 0.05136387
