ppo/PPO_preTrained/Small-Door-Room-Locked-Baseline/PPO_Small-Door-Room-Locked-Baseline_47_0.pth (torch, 378802 bytes, 19 tensors)

actor_conv1.weight f4 [16, 3, 2, 2]
00000000: cad2 b4be 09e2 74be a430 85bd 22ac 4c3e
00000010: bb98 c8bd 6c5e 3d3e 895b 043e 0467 f3bd
00000020: 9601 99bd 0a81 153e 3a64 3e3d 921b 0a3f
00000030: 66c6 2bbe e9ae 04be 38fc 40be a4fb 993a
00000040: b955 263e 9c7e 8dbe 6dab 53be 07b5 6abd
00000050: f21a a13c 0928 3a3d 7ed2 53be b318 10be
00000060: a90e 82be dc75 463e 6690 773e 22d5 6bbe
00000070: ca29 b0be 9991 53be 2fdc 4dbd b268 e73d
00000080: 1cad d6ba e6ec b5be 4604 113f d773 b03d
00000090: 5e97 aabd a78c 5fbd b472 8bbe 9acd 5bbd
000000a0: ad6d c9bd 89bc dabd c078 c33c 5865 b1bd
000000b0: bbb7 ecbd 48b1 c6bc 341a bcbd e476 72bd
000000c0: 0476 cbbd 5a20 9bbd 465e 4cbe 58cb 97be
000000d0: 585e 303d 0939 03be 4f53 3cbd c518 0f3e
000000e0: 65aa 1ebe 2499 08be ca18 94bc ac94 5b3e
000000f0: a65a 16be f027 243e 913b 9ebe 677e cfbd
00000100: 10f5 8bbd 6925 dd3d 89ac 7dbe b485 593e
00000110: b079 8dbe a9da 2cbe be91 2dbe b12d 383e
00000120: 2fad a63e dfde 0d3e 0dd1 05be a089 1a3d
00000130: 43fd 4b3d e0bc b1be 4d4a 533d 91e4 4bbd
00000140: d8d2 bdbe 36bd dfbe 35a0 41be 94c9 8f3e
00000150: b818 f5bc 8c71 5cbe 9bf0 12be 2c68 67be
00000160: 9c92 4b3e c814 443e 427a 0f3d 9406 813b
00000170: 57dd a1bb c980 84be 33be a9be 0e97 66be
00000180: 1345 b8bc 4d9d 133e 7843 373e 50d2 2dbe
00000190: e368 02be 373a e53d cfd6 a8be a6b0 b6be
000001a0: 7cbb b83e 409b 8abe f942 b03c 2fdb be3b
000001b0: 6d11 bdbd 479e 37be ca6c 1fbe 7759 3cbe
000001c0: eb7e 163e edf8 973d 6761 a13c cc64 563e
000001d0: 57f7 8d3e c90a e5bc f9b6 933d 3b01 3d3d
000001e0: efb5 82bd 3c33 a1be 8444 eebd 3407 cbbd
000001f0: 951c 13be e806 ac3d 87c1 91be a6e0 bb3d
00000200: 1d9b 85bd 0937 92be 2902 a83d 2002 46be
00000210: e953 f53c c55a 33be 10a2 2bbe 0b76 123e
00000220: 881e 533e 132b c3be 02a0 903d d061 6bbe
00000230: aed8 b63e f2ac 833d 9f9b 8dbe 8d58 bbbd
00000240: 40a6 3f3c 312e bb3e a7eb 5dbe b8ff 3abd
00000250: 0f17 9fbd b4fa 1abd a3d0 a13d e33b 2abd
00000260: 3bb3 303e c477 8ebe 1fba e6bd 6726 26bf
00000270: 6a75 2f3e 9edd 2ebe b098 8dbd ee53 173e
00000280: 1528 e1bb 22e8 693d 32fb a2be 4638 24be
00000290: 9cc3 123f 5089 90be e398 523e 497c 87be
000002a0: 05bf a8be 4e02 cabd d715 55bd 073a 1fbe
000002b0: 675b e73d 9698 b0bd 610a d1bc 645d ba3d
000002c0: de4d 923c 1e7b 87bd 915d af3c 2166 81be
000002d0: 30a6 05be afd5 80be 8a85 3bbe 0ae1 753e
000002e0: c16e 18be 94ae 943e cdd5 f83d 258d d5bd
000002f0: ccb2 0cbe d134 ebbd 68ed b0be b9bd 05bf
-0.3531707 -0.2391435 -0.06503418 0.19987538 -0.09794756 0.1849305 0.12925543 -0.11884883
-0.074710056 0.14600006 0.046482302 0.5394832 -0.16774902 -0.12957348 -0.18846214 0.0011747968
0.16243638 -0.27635658 -0.20670862 -0.057301547 0.019666169 0.045448337 -0.20685765 -0.14071922
-0.2540181 0.19380897 0.24176177 -0.23030522 -0.34406883 -0.2066101 -0.05025881 0.11299266
-0.0016378495 -0.35532302 0.56647146 0.08615845 -0.08329652 -0.054577496 -0.2723595 -0.053662874
-0.09835372 -0.106804915 0.023861289 -0.08661908 -0.11558481 -0.024254456 -0.09184685 -0.059195414
-0.09934619 -0.0757453 -0.19957837 -0.29647326 0.043058723 -0.12814726 -0.045977887 0.13974293
-0.15494688 -0.13339669 -0.018078227 0.21443433 -0.14683017 0.1603086 -0.3090482 -0.10131531
-0.06833851 0.10798151 -0.24772848 0.2124241 -0.27631903 -0.16880287 -0.16950127 0.1798618
0.32554004 0.1385455 -0.13068028 0.037728906 0.049802076 -0.34714413 0.05158453 -0.049778525
-0.37074924 -0.43699044 -0.1890877 0.2808348 -0.029919013 -0.2152769 -0.14349596 -0.22598332
0.19880146 0.19148552 0.035028704 0.0039375518 -0.004939716 -0.25879505 -0.33152923 -0.2251856
-0.022493875 0.14415474 0.17896831 -0.16974759 -0.12735324 0.11192744 -0.32976386 -0.35681647
0.3608054 -0.2707157 0.02151631 0.0058244686 -0.09231839 -0.17931472 -0.15568843 -0.18393503
0.14696853 0.07420526 0.019699765 0.20936888 0.27727768 -0.027959244 0.07212634 0.04614375
-0.06382357 -0.314844 -0.11634162 -0.09913483 -0.14366372 0.08399755 -0.28467962 0.09173708
-0.06523726 -0.28557613 0.08203537 -0.19336748 0.029947238 -0.17515095 -0.1676104 0.14302842
0.20617115 -0.381188 0.07061769 -0.22986531 0.35712188 0.06429471 -0.27657792 -0.09147749
0.011697352 0.3655868 -0.21671925 -0.04565403 -0.0776807 -0.037836745 0.079011224 -0.04156102
0.17255871 -0.2782575 -0.112659685 -0.6490235 0.17134634 -0.17076728 -0.069138885 0.1477811
-0.006871233 0.057106145 -0.31832272 -0.16037092 0.57329726 -0.2822976 0.20566134 -0.2646201
-0.32958236 -0.09863721 -0.05202278 -0.1554948 0.112967305 -0.086228535 -0.025517644 0.09099844
0.017859396 -0.066152796 0.02140692 -0.2527323 -0.13051677 -0.25163028 -0.1831266 0.24011627
-0.14886 0.29039443 0.12150154 -0.10427312 -0.1374008 -0.11484683 -0.34556127 -0.5224262

actor_conv1.bias f4 [16]
00000000: 79b5 cdbd 5751 5c3e 363f 533e 375f 14be
00000010: 62cd 853e 0708 053e 734b 92be 6f46 af3d
00000020: fb05 833e d82f c2bd 416e c33d 5a5b ae3d
00000030: 3e8a d83c f8dc 04be c5f4 493e 9547 5fbe
-0.10044379 0.21515404 0.20629582 -0.14489447 0.26133257 0.12991343 -0.28573188 0.08558356
0.255905 -0.09481782 0.09542514 0.08513518 0.026433107 -0.12974918 0.19722278 -0.2180465

actor_conv2.weight f4 [32, 16, 2, 2]
00000000: c16d ed3d aca7 53be 92bf 6f3d 341d 7e3d
00000010: 68be c53d ee8d 013e 13d3 a73c a5b0 11bc
00000020: 404c 2d3e 00e2 cf3d a4a7 efbb 84b8 1b3e
00000030: 40cd 973b d4e7 6d3d 3ad3 92bd 5cea c1bd
00000040: 6cfe b63d 32c8 cf3d a838 a03c 2cb9 fa3d
00000050: 2e3c 863d 731d acbd 83b9 003e 9b09 2ebd
00000060: 508a 0f3d 0b41 773e f36f 8b3d e5c6 0f3c
00000070: 5483 d8bd c490 e4bc d918 07be 6403 573d
00000080: 5a02 5bbe 1062 b7bd 5e21 69bd e7d8 773c
00000090: 4f13 73bd a420 943b 8054 a53d 2a71 3abe
000000a0: 9107 cebd 7154 d8bd 4801 a23d 127e fbbd
000000b0: d48f bf3d 529d 1b3b d42a 943c 2911 e13d
000000c0: 9a18 9ebd 77e4 213e 2861 e3b9 2c45 7abd
000000d0: ce58 863e db3d c73d fb52 a53d bf12 25bd
000000e0: cce3 ab3d e3f6 aebc c36e 783d b7f5 f6bc
000000f0: c051 af3d 8527 e43d 7f2d 42be 4aa4 ce3d
00000100: 072c 13be 156c a9bd aa08 04bc db0c 633d
00000110: 5b4d e93d d012 44bd 9fdb 863d 78ff 15be
00000120: 4e44 64be 8908 9e3d a9f5 b73d 1190 763e
00000130: ec75 f73d 2230 b5bd 4040 4f3b 70be 2d3d
00000140: 44ff eabd 52af b33d da10 d43d 6882 ec3c
00000150: 4a8b 313d 4ba8 063e ed70 103e fcac 803d
00000160: d32a 5cbd 696d a7bd 21bd fdbd a59d 7dbd
00000170: 7e01 973d e2ca acbb e743 173c 6bc5 fabc
00000180: 9916 dcba d221 793e ade1 26bd f49a 863e
00000190: 1d7f 04bd 3f1c 593c 56a4 09bd 0692 d23d
000001a0: 18b0 9cbc bf89 983d fe0b d4bd 8988 673d
000001b0: 09ad 7fbd ddb6 68bd 32e3 3cbd c5f0 ca3d
000001c0: c1dd 213e d5a7 c0bd d62a c83d 0dd5 02be
000001d0: b925 8fba 055c fb3d 1264 44be 893b 843e
000001e0: dbef 21bc 5d91 d5bc 6c64 943d bc66 36be
000001f0: 8fa5 1abe 7383 dc3c f402 4f3d ddf3 503e
00000200: fb3c a3bd 7b9e 9b3c 7a64 e23d a8cb ee3c
00000210: d739 bd3d 72e2 883d 5c1b 75bd f2db 903d
00000220: 2730 993c 7a8b 823d 2644 e43d eb85 67be
00000230: c82f a33d 38e9 023d a8a5 d23d 80eb 4b3c
00000240: 00a0 f1bc 2c33 4fbd 2037 593c 249a f6bd
00000250: 741c 8a3c 2888 4b3d 3cc8 11be 6626 e63b
00000260: faf0 e03b 6430 7cbc 4bc9 86bd f929 c53d
00000270: 130d 70ba 8c8d cfbd e097 bebc 0d5a 4d3d
00000280: d237 3c3e 02eb 3abd 2f91 853d 7cce 29be
00000290: 9330 d7bd 8d7d 113e cb67 75bd fa0e bdbd
000002a0: f6f3 e6bd 5b35 bb3d 5f8d 17be c303 cf3d
000002b0: 7608 84bd a3b8 d33c 03a9 ac3d ca49 6b3d
000002c0: 2db0 7bbc 5d77 47be 0e39 93bc 8c27 21be
000002d0: 6bba ca3d b540 e73d 27ef 4b3d db2b f9bc
000002e0: c21b 8b3d 34ae c63c 8772 6dbc 41f4 07bd
000002f0: c290 133e 181b a7bd 28c8 8fbc ee91 b9bc
00000300: bcdf fdbc 676e 7dbd 4eb6 71bd 7d2a 97bd
00000310: 6e87 f9bd 6cc9 83bd a033 073d ce06 c4bd
00000320: 7147 f9bd 7d47 a3bd 4c9e bd3d 24e3 c0bd
00000330: 4862 debc aebd 8dbd a01e 213d 14a9 aa3d
00000340: 7434 cfbd c037 1b3b 4634 b03d 349a c83d
00000350: 63ea 1bbd d55b 05be b036 01be 2d58 1c3d
00000360: 4681 343d a6b3 9c3c 8d68 bcbd 8a9a 44bd
00000370: 7a49 013b 5985 60bc 8299 8a3d 83a9 d8bd
00000380: ada2 8c3d 6d66 983c 911a 95bd d8b6 09bd
00000390: 13b7 52bd b5f1 613a 7b73 d1bd 810d 00be
000003a0: 03b6 0d3d 4771 c83d d0ab 8ebc 8ea0 a03d
000003b0: 245a a23d 5556 863c 2c49 04be 8672 6e3b
000003c0: e841 44bd bed2 39bd 48fa cbbc d802 dabd
000003d0: 7e75 d6bd 4c80 443d 28e5 f13d 88c9 603d
000003e0: 2365 02be 902a a43d 505e 07be 4cb0 ae3c
000003f0: e0eb b23d 3cc2 b53d 1d1a c1bc ae0c 94bd
0.115931995 -0.2066943 0.058532305 0.06203957 0.09655458 0.12651798 0.02048639 -0.008892213
0.16923618 0.10150528 -0.0073136855 0.15207106 0.004632622 0.058082417 -0.071691945 -0.09468529
0.08935246 0.10145606 0.019558266 0.1224235 0.06554447 -0.084040545 0.12570767 -0.04248963
0.035044014 0.24145906 0.06808462 0.0087754475 -0.10571924 -0.02790106 -0.13193072 0.052493468
-0.21387616 -0.08954251 -0.056916587 0.015127397 -0.059344586 0.0045204926 0.08072758 -0.18207231
-0.10060037 -0.10562981 0.07910401 -0.122799054 0.09353605 0.0023744893 0.018086828 0.10989601
-0.07719536 0.15809809 -0.000433692 -0.061101124 0.26239628 0.09728595 0.08072468 -0.04030108
0.08393058 -0.02135796 0.060652506 -0.030146463 0.085605145 0.1114035 -0.18962668 0.100899294
-0.14372264 -0.08272568 -0.008058706 0.05543218 0.113917075 -0.047869503 0.06584858 -0.14648235
-0.22291681 0.07716472 0.08982403 0.24078394 0.12083039 -0.08847071 0.003162399 0.042417943
-0.11474469 0.08773674 0.10354777 0.028870776 0.043345727 0.13150136 0.14105578 0.06282994
-0.053751778 -0.08175165 -0.12389589 -0.06191792 0.073733315 -0.005273209 0.009232498 -0.030611714
-0.0016791403 0.24329308 -0.040742565 0.26290095 -0.032347787 0.013251363 -0.03360399 0.10281758
-0.019126937 0.07448148 -0.1035385 0.056526694 -0.06242088 -0.056815017 -0.046115108 0.099092044
0.15807249 -0.094070114 0.09773795 -0.12776585 -0.0010921276 0.12273411 -0.19178799 0.25826672
-0.009883846 -0.026070291 0.072457165 -0.17812628 -0.15102218 0.026918149 0.050539926 0.20405526
-0.079706155 0.018996468 0.11054321 0.029149845 0.09239548 0.06683816 -0.059840545 0.07073201
0.018699719 0.06374259 0.11145811 -0.2260968 0.07968098 0.031960696 0.10285503 0.012446284
-0.02949524 -0.05058591 0.013257772 -0.12041119 0.01685927 0.049690396 -0.1423654 0.0070236204
0.006864664 -0.015392397 -0.06581362 0.09627146 -0.00091572216 -0.1013442 -0.023265779 0.050134707
0.18380669 -0.045634277 0.06521832 -0.16582674 -0.10507312 0.1420805 -0.059913438 -0.09231372
-0.112770006 0.09141036 -0.14800023 0.10108139 -0.06446926 0.025844878 0.08430674 0.057443418
-0.015361828 -0.19479127 -0.017971542 -0.15737742 0.09898838 0.11291639 0.04978862 -0.03041642
0.06792404 0.024252988 -0.0144926375 -0.033191923 0.1441069 -0.081594646 -0.017551497 -0.022652593
-0.030990474 -0.061872866 -0.05901175 -0.07381151 -0.12184034 -0.064349025 0.033008218 -0.095716104
-0.121718295 -0.0797262 0.09258708 -0.09418324 -0.027146474 -0.06920944 0.039335847 0.0833303
-0.101174265 0.0023684353 0.0860372 0.09795037 -0.038065325 -0.13023312 -0.12618518 0.03817003
0.044068597 0.019128632 -0.09199629 -0.047998942 0.0019727633 -0.013703668 0.067675605 -0.10579207
0.068669654 0.018603528 -0.07280458 -0.03362164 -0.051444124 0.0008619086 -0.10227104 -0.12505151
0.034597408 0.09787231 -0.017415911 0.078431234 0.07927349 0.016398588 -0.12918538 0.003638418
-0.047914416 -0.045366995 -0.024899617 -0.10645074 -0.104716286 0.047973916 0.11811286 0.054879695
-0.12733893 0.08015931 -0.13219571 0.0213243 0.08736396 0.08874938 -0.023572022 -0.07228981

actor_conv2.bias f4 [32]
00000000: d6cf 16be 66e2 9ebd df07 03bd 8bfc 273c
00000010: 0c13 9ebd f394 1bbe ac73 1bbe 5841 253d
00000020: 16d5 b6bd 7268 1a3d 329a cc3d 6bb7 643c
00000030: 6bac 1bbe f9de acbc c5db 64bd c9f1 8ebb
00000040: d855 9bbd 060d 793d dce9 bcbd 0f25 02be
00000050: 7e36 6a3d b178 6fbc 3ecb 93bc a589 4d3d
00000060: 9f9a 8abc 7772 0d3d fcbc 75bd 4156 163d
00000070: 7df9 44bc c980 f63d 72d2 97bd ad5a 833d
-0.1472772 -0.07758026 -0.03198993 0.010253082 -0.07718477 -0.15193538 -0.15180844 0.04034552
-0.08927362 0.037697263 0.09990348 0.013959746 -0.15202491 -0.021102415 -0.05587365 -0.004362319
-0.07584733 0.060803436 -0.09224293 -0.12709449 0.057180874 -0.014616177 -0.01804125 0.050180096
-0.016919432 0.03453299 -0.059994683 0.036703352 -0.012022373 0.120362826 -0.07413186 0.064137794

actor_conv3.weight f4 [64, 32, 2, 2]
00000000: f615 ccbd 3486 943d eb2f e4bd 61f0 ebbd
00000010: 67af 1c3b e507 153e 4a82 abbd 09fd 2d3d
00000020: f71f 5dbd 1f20 e2ba e9e8 8fbd e35d 5e3d
00000030: 2c9c 02bd 19c2 70bd fee0 b03d 3dde 523c
00000040: 0775 76bc dc20 4e3e 9f24 83bc a294 4c3e
00000050: f426 813d 1669 21be e9ac 743d ee5c f53b
00000060: 6a86 d03d b199 a7bd 0909 42bd 6791 013e
00000070: 6676 2dbd 64ba 103e d3b6 53bd 3bf4 153e
00000080: 0f80 acbd 7ce0 01bd a5f9 78bd d6fa 76be
00000090: 47e1 963d 8400 423c 20aa babd 3c9c 393d
000000a0: d82a c9bd 9150 aa3c 61e7 543d 4cb1 073c
000000b0: f0cd 9bbd f478 a23d fd53 9abd 1f8a 663c
000000c0: 2539 4fbd 9cb8 103d ef51 673c efa5 743d
000000d0: 7420 0b3d c782 95bb 0dde 0dbd 639a ccbc
000000e0: a252 743d b026 013d b117 813d 6867 963d
000000f0: b0d7 9bbd 6c6b f33d ac7b 72bd 0315 08be
00000100: 6f62 5c3d 2561 bc3d 9675 933d 831a 4a3c
00000110: f5c2 fc3d 1364 613d 8ab5 1cbe 568a 313d
00000120: 5747 8fbd 71d4 473d 208b bfbd 299a 9cbd
00000130: dbdc 0bbe 1e1d 84bc f99d 9dbe f819 b1bb
00000140: a672 943c a66c 05be 52a5 34bd 484f 98bc
00000150: eec4 54bd 5b00 933d a774 b2bd 84c6 0e3e
00000160: b066 f43c ee10 553d fded 98bc 974c f43c
00000170: 73e2 61bd 53f4 c7bd 2228 36bd 9aea 20bc
00000180: f3ac 15bb 7205 ae3d ce70 143d da53 973e
00000190: cc86 243d 5cff 823d 7d99 303d a167 813d
000001a0: 2997 07be 7096 c93d ca1d febc bce5 cf3c
000001b0: 7ebc 57bc c02c 423d f6e3 c4bc 8e29 1e3d
000001c0: e77b a53c 448b a33c 786b ef3c 2da8 1bbd
000001d0: 0214 063e dcef 1c3e 81c3 823c 729f dcbd
000001e0: 28f2 243c 62b6 30bd e853 6ebc 49e0 2abb
000001f0: 623c 853c 0fd3 073e 9bf8 893d 2346 aabc
00000200: d274 173c a85a b2bd 37b5 9c3c 9db5 4ebe
00000210: 67f6 a13b e228 8e3d 5ad5 4ebd 042f 85bd
00000220: e8c9 db3b 19db da3d e5e4 5bbd 48b2 7dbd
00000230: 7b32 0f3d 6bcc 9d3d 1793 933d 3f8d dfbc
00000240: e749 85bd e521 a03d 3695 c8bb 485c 5b3c
00000250: dc24 e63c ad7a a1bd bb43 463c 41c4 0abc
00000260: 3558 51bd 0598 b13d 3175 f43d fa58 8abc
00000270: 8356 bd3d 2f08 7a3d 2457 b8bb adab 6abd
00000280: 2eb0 2cbd 16e6 f5bb dd3b a6bd 1831 27bd
00000290: e431 3b3d 23cc bdbd 70f2 2d3d 896b 973d
000002a0: a5d5 3c3d 5230 1ebb 12ef f73d d8d6 a93d
000002b0: 5473 063d 4efa 6fbd 629b b7bd 2c79 dcbd
000002c0: b017 263d fb10 e3bb 91bc 273d 094b 47bc
000002d0: 339a dc3c a078 3cbd 7312 82bd 97c0 93bd
000002e0: 9547 a43d 2d13 34bd 589c 5ebc eb05 103d
000002f0: f229 b1bd 1aa2 d03c cd1a 293e 82cc 043e
00000300: 892c 89bb 53e9 c03c a20f 7b3d bc89 c5bc
00000310: a5be 99bd 74b3 0cbd 4e96 e5bd 78ac 1f3e
00000320: f980 32bd 894b a13d 5eb1 4bbd 1f05 303d
00000330: c81b 1739 caa2 50bd d22d dabc fb35 373d
00000340: 9605 82bd 9815 f3bc 9d65 bbbc 84ba 69bc
00000350: 063c 58bd aba4 50bd 4898 e1ba 0bf6 a53b
00000360: 5ec0 a7bb b8d2 1fbc 33bc 4ebc 0738 c2bc
00000370: d23b 12b8 4cfd 8bbc 8767 653d cca0 2fbd
00000380: 9a2b d33d 5b10 c13d 4366 8c3d cb50 4a3c
00000390: d8d3 e5bc 0290 12bd 754d f6b9 71f0 43bd
000003a0: 2af9 89be c18e 5bbd 343e 69bb 516f 0ebd
000003b0: 6271 7c3d 4086 9d3d bc83 06bd 0a33 8c3d
000003c0: 8447 acbd e26c adbd 0c9b 143c 47b9 5a3b
000003d0: 1281 273d 51de b9bd 354a 8ebc ec0c 0ebe
000003e0: 5c63 b63d 1cd6 523b f107 e5bc a451 3d3d
000003f0: ce37 6f3d 7aa1 7e3d 3153 703c 2ce7 28bd
-0.09965126 0.0725216 -0.11141952 -0.11520458 0.002390826 0.14553793 -0.0837446 0.04247764
-0.053985562 -0.0017252004 -0.07026846 0.054288756 -0.03188722 -0.058778856 0.08636664 0.012870369
-0.01504255 0.20129722 -0.016008673 0.19978574 0.06306258 -0.15762743 0.059735212 0.0074878847
0.101818874 -0.08183611 -0.047371898 0.12653123 -0.04234924 0.14133602 -0.051688027 0.14643948
-0.08422863 -0.031708226 -0.060784955 -0.24119124 0.07367187 0.011840943 -0.0911448 0.045315012
-0.09822625 0.02079037 0.051978473 0.008282017 -0.07607639 0.07933226 -0.07535551 0.014071017
-0.050591607 0.035332307 0.014118656 0.05972856 0.033966497 -0.004562709 -0.034635592 -0.024975961
0.059649117 0.031531036 0.06303347 0.07343942 -0.076094985 0.118857235 -0.059199974 -0.13289265
0.05380481 0.09198216 0.07200162 0.012335422 0.123418726 0.05502708 -0.15303627 0.043344818
-0.06996029 0.048786584 -0.09352708 -0.07646591 -0.13658468 -0.016127165 -0.30784586 -0.005404707
0.018121075 -0.13029727 -0.044102974 -0.018592492 -0.05194562 0.07177802 -0.08713656 0.13942915
0.029834121 0.0520181 -0.01866817 0.029821677 -0.0551476 -0.09763398 -0.044471867 -0.009821558
-0.0022838681 0.08497132 0.03624039 0.2955616 0.040167615 0.06396362 0.043115128 0.06318594
-0.13241257 0.09843147 -0.031020064 0.0253781 -0.013167499 0.04740596 -0.024034481 0.03861385
0.020200683 0.019963868 0.02922605 -0.03800218 0.1309357 0.15325874 0.015962364 -0.10772599
0.0100675 -0.043142684 -0.014546372 -0.0026073626 0.016264144 0.13264106 0.06736871 -0.020785397
0.009244161 -0.087086976 0.019129379 -0.20186467 0.0049427035 0.069413915 -0.050496437 -0.06503108
0.0067074187 0.10686321 -0.053685088 -0.0619376 0.03496025 0.07705005 0.072057895 -0.027289031
-0.065082364 0.07818965 -0.006121303 0.013388701 0.028093748 -0.07884727 0.012101109 -0.008469642
-0.05110951 0.086715735 0.11936415 -0.01688813 0.092450164 0.06104296 -0.0056256223 -0.05729263
-0.042160206 -0.007504235 -0.08116887 -0.040818304 0.045701876 -0.092674516 0.042467535 0.073935576
0.046102185 -0.0024137688 0.12106146 0.08292931 0.03282483 -0.05858832 -0.08965184 -0.10765299
0.040549934 -0.0069295145 0.040951315 -0.012163886 0.026928997 -0.046013474 -0.06351175 -0.07214468
0.08021466 -0.0439636 -0.01358708 0.035161894 -0.086505786 0.025467921 0.1651413 0.12968639
-0.004186217 0.023548758 0.061294205 -0.024113528 -0.07507066 -0.034350827 -0.11210309 0.15593135
-0.04358003 0.07875735 -0.049729697 0.042973634 0.00014410831 -0.050936498 -0.026633177 0.044729214
-0.06348722 -0.029673383 -0.022875601 -0.01426566 -0.052791618 -0.05093829 -0.0017211521 0.005064731
-0.0051193675 -0.009754829 -0.012618112 -0.023708357 -3.4864825e-05 -0.017088555 0.056006934 -0.042877957
0.10311051 0.09426948 0.068554424 0.012348364 -0.028055117 -0.035781868 -0.00046978486 -0.047836725
-0.2694791 -0.053602938 -0.0035590054 -0.03477413 0.061631568 0.07691622 -0.032840475 0.068456724
-0.08412078 -0.084680334 0.009070169 0.0033374594 0.040894575 -0.090756066 -0.017369369 -0.13872117
0.0890567 0.0032171076 -0.027957888 0.046220437 0.05840283 0.062165715 0.014668272 -0.041236088

actor_conv3.bias f4 [64]
00000000: 59f0 003d 02a2 9abd fa4e 2abd 3642 bbbc
00000010: 171c 8cbd d1c9 4b3c 9f93 273c 19d7 bc3d
00000020: c668 56bd 4810 d43c aa2e c83c f046 4d3d
00000030: bfbe d0bc 0669 ee3c b941 21bd a99d 9cbd
00000040: 66b0 a53b 2c22 cf3d 23c9 333d c6c6 143e
00000050: fe34 dcbd 8e9d b03b 22fb b43d a191 a3bd
00000060: 984c a4bd 616a 303d 3825 c2bd 4fe3 88bd
00000070: 9311 803c cb0d e6bd f896 3dbd e2ae d2bd
00000080: f7c3 9bbd 849a 933c 23fa c0bd 93dc ffbd
00000090: 76dd 1fbd 510c 0fbe 51f0 93bd b253 803d
000000a0: 084c 283e 235a 76bd 7acf 863d f9bc d8bb
000000b0: 77c8 c53d 86a4 88bd 1ee3 1d3e c02d 973c
000000c0: 5ca0 a2bc c9e6 00be 640a 953b fc36 ac3c
000000d0: ce09 583d 0654 943c 1a96 e33d 14a4 313d
000000e0: 3fd5 073e f498 903d cee8 07be c9de e1bd
000000f0: 5094 5f3d 9644 943b 8781 95bd 6573 94bc
0.031479213 -0.07550432 -0.041579224 -0.02285872 -0.06841295 0.0124382535 0.010228067 0.09220714
-0.052346013 0.02588667 0.024436314 0.05011648 -0.02548158 0.029102813 -0.03936932 -0.07647259
0.0050564287 0.1011394 0.04389299 0.14528951 -0.10752295 0.0053898757 0.08836962 -0.07986761
-0.080224216 0.0430702 -0.09479755 -0.06683981 0.01563338 -0.112330996 -0.046286553 -0.102872625
-0.07605737 0.018018015 -0.0942271 -0.12493243 -0.03902956 -0.13969542 -0.07223571 0.062659636
0.16435254 -0.060144555 0.06582542 -0.006614324 0.09657376 -0.06672005 0.1541867 0.018454432
-0.019851856 -0.12588038 0.004548358 0.021022312 0.052743725 0.018106472 0.11112614 0.043369368
0.1326494 0.070604235 -0.13272402 -0.11028821 0.0545848 0.0045247776 -0.07300096 -0.01812143

actor_fc1.weight f4 [512, 65]
00000000: 90dd 663d c64d 213d 488e 77bc ab64 603b
00000010: 8376 30be 6a45 6e3d 5a0c ffbd 3cf0 913c
00000020: 0fa4 46be 01a5 e5bd c530 96bd 423f b03d
00000030: 1ab5 25bd eb49 313d 2a56 4dbe 55e5 d3bd
00000040: 2f52 17bb 38f8 24bd cf61 f33d 6aa4 153d
00000050: fd27 99bd 0ac3 2fbe 2ef0 e33d a326 2ebd
00000060: d5a4 ccbd a44a 05be a160 b7bb 21ba c6bd
00000070: 69bb d8bd 5ca1 953d 4acb 85bc cbf0 e3bd
00000080: fe2a b7bd 4fd4 4bbd c778 98bc ca2e 41be
00000090: a861 f3bc 24dc 803d d3e6 8bbd 9c2a 4abd
000000a0: a01d e8bd e4ea 27bd d726 653d 395e bbbc
000000b0: 93be 673b 3763 9cbc d75e 91bc 7919 dfbd
000000c0: 902b eabc 652e 1dbe 4540 09bd 6fa3 d33b
000000d0: fa03 fabd 6730 d7bd a0fd 31be f1dc 4cbb
000000e0: fa99 e8bd 8575 d53d b512 413d 21e4 80bd
000000f0: ae5d 0dbd 0bb3 a8bd 593a b5bd 8e4e 16be
00000100: 06d5 a7bd 5a0c b73d ec4f c43d 72a1 543e
00000110: 66eb 24bc 31b0 35be 2a96 983d fce8 3c3d
00000120: d754 233d 9e65 cabc c3d5 273e e675 483e
00000130: 281c b13c c049 893b 1d44 f7bd 257a 8f3c
00000140: 6c6f 9abd 8712 863e c092 70be bc69 96bd
00000150: 86af ba3d b8b2 5bbd bb3a e13d 8603 573e
00000160: c22c 953d 09e9 6f3d 9b0f ce3d 80dc 643d
00000170: e527 83bd cfa5 7ebd 8645 45bc 64f2 cd3d
00000180: 3c0d 463d 8635 42be bac7 aabd faa1 263d
00000190: baa1 3bbe 34de 38bd 742b 823b 00b8 8dbd
000001a0: 2e4c 723d 79fe 753d 8176 1d3d e1ef f5bc
000001b0: e287 f5bc a8d7 c73e f23e c7bd 4390 743d
000001c0: 36b8 debd fe60 99bd 961e bbbd 7ae4 b93d
000001d0: 2412 9e3d ef41 683d a88e 0f3e 895d 043e
000001e0: 27ad 25be 8590 723d 9890 6b3d f68a f9bb
000001f0: e453 cfbd 89b2 0c3e 0f4d cdbd 0e24 acbc
00000200: 9440 18be 381f 27be 98d6 88bd cff5 313d
00000210: a9ac bcbd cfac 3f3d 0cb9 8d3d e9c6 8fbc
00000220: 001a 8f3c 5a99 9fbd d6a3 37be d963 d7bd
00000230: edbb 03bd 8381 40bc c08e bcbc 13aa fa3c
00000240: d96b d3bd b493 99bd b7d2 f3bb 107e a2bd
00000250: ead7 1fbe 1881 09be 5636 e9bd fe55 5dbd
00000260: 0e96 b5bd a232 113e a4cf c1bd 5011 5bbd
00000270: 9baf 0cbe ef32 87bd 2bc2 a2bd 470d c0bd
00000280: 0faf 963d 08a8 b2bc 60c6 99bd ff5a 8b3c
00000290: 60fb a63b 2fc9 21be 48ff 683b f746 cebd
000002a0: ab99 ba3d b067 e0bc 6f18 823d 4092 abbd
000002b0: 4360 ddbc f486 dd3d b826 c43d e424 a3bd
000002c0: 3abb 94bd ca2f d6bd 7e94 72bd 0576 263d
000002d0: d7c6 46bd 60a5 e2bd 3ce2 20be a693 f7bd
000002e0: 19f5 2dbe a95b f6ba 9b9f d8bd 13e5 bdbd
000002f0: e9ef 9ebc 6011 8cbd b5c7 3c3d ad41 153d
00000300: fecc 83bd 6339 5fbd a571 6a3d 1aae a73d
00000310: d2aa 5b3d 8a9d d13d 7726 e2bd 4ac3 0fbd
00000320: e056 fe3d 535a c5bd 796f 383b 9155 073d
00000330: dddd b93d 3961 b03d df00 febc 2860 5dbd
00000340: 3e58 f13c 4ff9 3d3d cc9d b53c 1b03 873d
00000350: 957f 893c eb00 bbbd 9ebe a0bd 7634 d1bd
00000360: d025 a13d aec6 2b3d 065d 893c d2e3 a7bd
00000370: 847f 8b3c 1369 a5bd 9bb4 cdbd a7b3 d73d
00000380: b978 693d 4224 acbb b1c0 d9bd ec6e a2bc
00000390: 691e acbd 90db a83d 868d e4bd b204 07be
000003a0: 6161 8cbd 82c1 adbd 7886 cf3c 980e 55bc
000003b0: aa1f 0abe 7c5f f4bc 6a3c eb3c a034 32bd
000003c0: 29e0 c4bd 877b 3cbd 6461 00be 214c bfbd
000003d0: 9566 f43d aa3e 823d 423e b7bd 279a 20bc
000003e0: f044 f6bd 8e8c 3ebc 69ab 673d d21b 57bd
000003f0: 68c5 7dbd 90b3 953d 4590 133e 5dba 85bd
0.056363642 0.03938081 -0.015109606 0.003423969 -0.17232709 0.058171667 -0.12453528 0.017814748
-0.19398521 -0.112131126 -0.07333521 0.086058155 -0.040455915 0.043283384 -0.200524 -0.10346476
-0.0023089757 -0.040275782 0.1188389 0.03653375 -0.0747833 -0.17164245 0.11129795 -0.042517316
-0.09992377 -0.13016754 -0.005596236 -0.0970347 -0.10582621 0.073061675 -0.016332287 -0.11129912
-0.08943747 -0.04976302 -0.018612279 -0.18865505 -0.029709652 0.062919885 -0.068311356 -0.04935704
-0.113337755 -0.040995494 0.055945244 -0.022872077 0.0035361394 -0.019090278 -0.017745418 -0.108935304
-0.028585225 -0.1534973 -0.033508558 0.006458692 -0.1220779 -0.10507279 -0.17381907 -0.003125962
-0.11357494 0.10422806 0.04713698 -0.06293512 -0.034513168 -0.08237275 -0.088490196 -0.14678404
-0.08194928 0.08937903 0.095855564 0.20764711 -0.010065889 -0.17742993 0.074505165 0.04612063
0.03987583 -0.024706658 0.16390137 0.19576225 0.021619871 0.0041897 -0.120735385 0.017514298
-0.07540783 0.2618601 -0.2349348 -0.07344386 0.0911551 -0.053637236 0.1099753 0.20997438
0.072839275 0.05857185 0.1006157 0.055874348 -0.06404094 -0.062169846 -0.012040501 0.10055998
0.048352465 -0.1896573 -0.08338876 0.040681817 -0.18323413 -0.045133784 0.003972465 -0.06919861
0.05915468 0.060057137 0.038443092 -0.03002161 -0.02997202 0.3903172 -0.09728803 0.05970789
-0.10874979 -0.07489203 -0.09136693 0.090767816 0.07718304 0.056703504 0.14019263 0.12926306
-0.16179334 0.059219856 0.057510942 -0.0076154424 -0.10123423 0.13739981 -0.100244634 -0.021013286
-0.14868385 -0.16320503 -0.066815555 0.043447312 -0.0921262 0.046795662 0.069200605 -0.017550902
0.017468452 -0.07792921 -0.17933592 -0.10517091 -0.032161642 -0.011749628 -0.023017287 0.030598676
-0.10323305 -0.07498875 -0.0074408907 -0.07934201 -0.15609708 -0.13428152 -0.11387317 -0.054037087
-0.08866511 0.14179471 -0.094634324 -0.053483307 -0.13738863 -0.06601512 -0.07947191 -0.093775325
0.073576085 -0.02180864 -0.0750854 0.017011164 0.005095884 -0.15799402 0.003555255 -0.10072129
0.09111341 -0.027393192 0.063523166 -0.08377504 -0.02702344 0.10816756 0.095776975 -0.07966021
-0.07262273 -0.10458334 -0.059223644 0.040639896 -0.048529472 -0.11066699 -0.15711302 -0.120887086
-0.16988029 -0.0018795627 -0.10577317 -0.09272208 -0.019401507 -0.068392515 0.046088893 0.036439586
-0.064355835 -0.054498088 0.057237286 0.08187504 0.053629704 0.10235126 -0.11042493 -0.03509835
0.12418914 -0.096363686 0.0028142615 0.033040587 0.0907552 0.08612294 -0.031006275 -0.05404678
0.029461022 0.046380337 0.02216997 0.06592389 0.016784469 -0.091310345 -0.07848857 -0.10215084
0.0786854 0.041937523 0.01676799 -0.0819775 0.017028578 -0.08076682 -0.100442134 0.10532313
0.056999896 -0.0052533457 -0.10632456 -0.019828282 -0.08404238 0.08245003 -0.11159806 -0.13185385
-0.06854511 -0.08484174 0.025332674 -0.013003968 -0.13488641 -0.029830687 0.028715331 -0.04350722
-0.09613068 -0.046016242 -0.12537152 -0.09340692 0.119336285 0.063596085 -0.089474216 -0.009802378
-0.120248675 -0.011630191 0.056559954 -0.052516766 -0.06195584 0.073096395 0.14410503 -0.065296866

actor_fc1.bias f4 [512]
00000000: cd7e 43bc 0f6e 193e 3678 14be f633 c3bd
00000010: ff28 e3bd e089 f13c d9a0 fabd d21a 75bd
00000020: 89bc e5bd 24dc 4f3e 8ab0 90bd ec4c e13d
00000030: da75 cbbd 32af 6ebd 83b3 6ebc 2512 bdbd
00000040: 61fd ccbd efa6 3bbd 0030 d1bc b226 22be
00000050: 1f1a 5f3c 8c0d 02be 5201 7cbd cd71 423e
00000060: 86d4 2abb f44b 803c 6e0d 01be a14d f63c
00000070: e0a1 f73d 04af 0ebe 8dd3 d43d 9680 333e
00000080: 1afb c03c 3010 be3d 9ce9 1e3e 6cba bb3d
00000090: e39b ac3d 4f41 9b3c e983 8bbd 9383 193e
000000a0: 4452 0c3e 6e06 00be 423b ce3d da30 93bd
000000b0: a685 79bd 4571 85bd 89a4 5d3e 8bd9 22bd
000000c0: 9f2c 8ebd d16e ffbc 9eb5 bc3d 17ae 4cbd
000000d0: b6e5 763e be56 013e 4f49 cfbd 2f41 943d
000000e0: e910 df3d 96ec 10be dfee 4bbd ace3 d9bc
000000f0: 61c6 4d3e 44a6 1e3c 6241 18bd f7cf 95bc
00000100: 3759 9e3c 8991 0bbe 3f8a 023b 519d 3c3d
00000110: 829e 233e 36aa a83d 8dbd 10be b891 2ebd
00000120: 7fa5 94bc 183a 05be 1363 a63d b6ac 4dbd
00000130: b662 6dbd 3be4 c0bd 65c2 8bbc a000 b2bd
00000140: c90d a43e 3ab6 723a 53f2 de3b af52 c9bd
00000150: b7e5 ec3c 3d87 653c e2e2 0bbe 5361 0ebd
00000160: 72fc efbc e7d4 4a3c 4da3 8cbd 82ac 09bd
00000170: ef6b c9bd 248e d8bd d77c 933e 47fc e63d
00000180: 3b17 0d3e 3068 f2bd fb5c 363d 2e1d 07be
00000190: 9fcc abbd 63a2 ac3d fd0f 1a3e c9e7 87bd
000001a0: 7743 113d 2dcb 0d3d 73eb 0fbe bbe7 5abd
000001b0: 477f 7d3d 64cd 57bc a2d0 133e 4c41 0b3d
000001c0: 46cf 8a3d bfe2 b63d 3b5e 87bc 7c34 e1bc
000001d0: 793a 62bd d275 fc3d 56b1 42bd 1bf4 22bd
000001e0: d4b8 25bd 614a 8b3d 0bd9 ee3c be8c 183d
000001f0: a564 e0bd 6b38 1d3e 1b36 9c3d 46ee e3bd
00000200: 9121 583d 8006 2a3d 8c96 edbd e37b a4bc
00000210: 1c38 253d 1a83 04be ff26 0abd feaf 8dbd
00000220: 9e53 8abd 6705 2e3e 855c c83d 7aa4 08be
00000230: ee28 1a3e e056 d33c a6ed 443d 6588 0bbe
00000240: 87f5 00bc 0d14 b53d 7d39 12bd 5ee5 eebc
00000250: b165 13bd d48a a83d c918 d3bd 4677 393e
00000260: cd60 833c c45c 373d 078c c83c 1168 5f3d
00000270: 8e1c f63c 46fe 093c 9026 293c aae9 e5bd
00000280: dfd5 b9bd 7155 12bb 3b52 5dbd 5264 2c3e
00000290: 2405 923d 6447 d13d 559c 4fbd f1ca 26bd
000002a0: 73cd 3e3d 3314 df3d 5313 d93d 6645 33be
000002b0: 794a 4d3d 4196 55bd c68c be3d 19c5 01be
000002c0: 7efd 55bd 2bfa 7fbd b3ab 8bbd 7a3b 1c3d
000002d0: 6e6d 0fbe c88a 02be c5f4 423e eafe 5abc
000002e0: 81a2 2abe 215a ac3d 93dd b3bd 12e9 a53d
000002f0: 733b a93d 2aaa 83bc c0f2 0e3e 200f 6ebd
00000300: cfdc 093e 5742 093e e2fe 3a3d 051f 20bd
00000310: a3a8 043e c410 9cbd 45e2 abbd 16f6 97bd
00000320: a689 e43d 7645 99bd adcc 33be 720e 01be
00000330: 3be7 9ebd 5779 23bd 9f83 bbbc ffdf a8bd
00000340: b032 b1bc 9a5d dfbd 7705 223d 7953 103e
00000350: f9cd 993d f300 aabd d0a9 82bd 6d7b 87bd
00000360: 97dd 54bd b577 95bd c193 2a3d 34ca 55bc
00000370: 9ab4 b7bd 5ab4 cb3d 5840 d6bd e8ce 47bd
00000380: d157 ac3d 6a75 ea3c 7f2e 2c3e db60 aabc
00000390: 40ab cebd 1707 02be ab94 863c 3e88 0bbe
000003a0: 4f70 1d3e 1f67 f2bd ea9b 783c 79c4 53bb
000003b0: 5327 eb3b a546 8d3d 9adc 29be 0fc2 9f3d
000003c0: da2d 4f3d 5d54 cb3c 700e 453e 24b2 22bc
000003d0: cd50 86bd 942f 863d 2d65 0fbd bed8 da3d
000003e0: 0e5c f03d b6c2 7bbd b563 04be d44d ee3d
000003f0: 2fa6 c9bd 26aa 8ebd addc 4c3e a35a cdbd
-0.011932087 0.1498339 -0.14498982 -0.09531395 -0.11091804 0.02948469 -0.122377105 -0.05984003
-0.11217601 0.2029882 -0.07064922 0.11001 -0.09934588 -0.058272548 -0.014569166 -0.092319764
-0.10009266 -0.045813497 -0.025535583 -0.15835074 0.013617068 -0.1270048 -0.061524697 0.18988724
-0.0026066615 0.015661217 -0.1260278 0.030066313 0.12091422 -0.1393395 0.103919126 0.1752952
0.023557235 0.09280431 0.15518802 0.091664165 0.084281705 0.01895204 -0.06812269 0.14991598
0.13703257 -0.12502453 0.10069896 -0.07187052 -0.060918473 -0.06515745 0.21644796 -0.039758246
-0.069421045 -0.031180771 0.09214328 -0.049970713 0.24111065 0.12630746 -0.101214044 0.07238995
0.10891897 -0.1415275 -0.049788352 -0.02659782 0.20095207 0.0096831955 -0.03717173 -0.018287642
0.01932965 -0.13629736 0.0019918827 0.046048466 0.15978435 0.0823559 -0.14134808 -0.042619437
-0.018145321 -0.13010442 0.08124366 -0.050213538 -0.057955466 -0.094185315 -0.017060468 -0.086915255
0.32041767 0.0009258721 0.0068037896 -0.09830224 0.02891813 0.014009294 -0.13660768 -0.034760784
-0.02929518 0.012379861 -0.06867085 -0.033611782 -0.0983504 -0.10573986 0.28806183 0.11278587
0.13778393 -0.118362784 0.044522267 -0.13194725 -0.08388638 0.0842941 0.15045162 -0.066360064
0.03546473 0.03461759 -0.1405466 -0.05344365 0.06188896 -0.013171528 0.14435056 0.03399782
0.067778155 0.08929967 -0.016524425 -0.027490847 -0.055231545 0.1232716 -0.047532402 -0.03978358
-0.04045947 0.06801296 0.029156229 0.037243597 -0.109566964 0.15353553 0.07627507 -0.111294314
0.052766386 0.041510105 -0.1160098 -0.020078605 0.040336713 -0.12940636 -0.033728596 -0.069183335
-0.0675423 0.16994248 0.09783272 -0.13343993 0.15054676 0.025798261 0.0480782 -0.13626249
-0.007871038 0.08841715 -0.035699356 -0.029162105 -0.035985652 0.08229604 -0.10307462 0.18111905
0.01603737 0.044766203 0.024480833 0.054542605 0.030042913 0.00842244 0.010324135 -0.112262085
-0.09073996 -0.002232876 -0.0540335 0.16835144 0.07129887 0.10218695 -0.0506862 -0.040720884
0.04658265 0.108925246 0.10599389 -0.17506942 0.05011985 -0.052145246 0.09304194 -0.12672843
-0.052243702 -0.06249444 -0.068198584 0.03814266 -0.14006588 -0.12748253 0.19038685 -0.01336644
-0.16663553 0.08415628 -0.08782496 0.08101095 0.08263292 -0.016072351 0.1395979 -0.058119893
0.13463138 0.13404213 0.04565323 -0.039092083 0.12954955 -0.07620385 -0.08392767 -0.07419984
0.11159067 -0.07483952 -0.17558546 -0.12603167 -0.077589475 -0.03991064 -0.02288991 -0.08245849
-0.021630615 -0.10906525 0.039555993 0.14094342 0.07509989 -0.08300962 -0.063800454 -0.066153385
-0.051969137 -0.07298223 0.041644815 -0.013048697 -0.08969994 0.09946509 -0.10461491 -0.048781306
0.08415187 0.02862044 0.16814612 -0.020798137 -0.10091257 -0.12698017 0.016428312 -0.13626191
0.15374874 -0.11836075 0.015173892 -0.0032313152 0.0071763187 0.0689824 -0.16588059 0.078006856
0.050580837 0.024820501 0.19243789 -0.009930167 -0.0655838 0.065520436 -0.035008598 0.106858715
0.11736308 -0.061464988 -0.1292866 0.11635938 -0.0984615 -0.06966047 0.20006056 -0.10027053

actor_fc2.weight f4 [7, 512]
00000000: 40da 03bd a6a9 c9bd a67b 453d 5a8b 013e
00000010: 55e1 113c a135 ecba 4dac 49bb 583f bb3a
00000020: 1bed 2a3d 08cd eebd f746 1abd 09cb 83bd
00000030: 30ac 8c3c 9a5e 1ebd da74 5dbd 9db8 80bd
00000040: 4b15 13bd 6890 943d 6676 9fbc 570a eeba
00000050: ab06 45bd f995 0e3b 098f 49bd c38a acbd
00000060: 38b0 c3bd 9702 23bd ba03 603d 89df ba3d
00000070: 48a7 eebd 02a3 5abc 4e64 0abe 3fab 36be
00000080: 372f 21bd 432c febc f57d 35be a305 e7bc
00000090: 7e43 263d 5011 593d 3af3 7a3e 9e64 ebbd
000000a0: 9655 e6bd c51c 303d 0ddf e23b ff40 f9bc
000000b0: 75ee 133c 2f2c a3b9 7a09 ecbd a488 88bc
000000c0: d3cd 8dbc 04c4 90bd b22d 4e3c d0cf 143d
000000d0: bd28 74be 5a66 49bd 35e8 533b 9b05 65bd
000000e0: e21a 30be d5fa 893a 38f0 82bc 4172 c43d
000000f0: b0b9 13be a34f 683d 2c03 af3c 66aa d1bd
00000100: 266a fdbc 6205 8bbb 6dbe a5bd 9f4b 3fbc
00000110: 055b 11be d701 3ebd f20d 59bc e0eb 17ba
00000120: 2839 693d 2b16 f53b 3745 dabd d389 e33c
00000130: 5336 debc 42ec f63c f3d5 dbbc 46cf 1ebd
00000140: c745 0dbe 4ff4 b73d 1468 433c 8f21 3cbc
00000150: fd91 56bb febd 02bd 833a eebc 2689 583d
00000160: 1f83 b8bd 25a5 87bc f915 a8bd 8a44 72bd
00000170: 0ae1 f43c 8287 83bc 3e62 24be c0a5 7abe
00000180: 3562 92bd 00f9 463c 4f5a c6bd e25b 3b3c
00000190: 1307 1d3d 9ee6 64bd 8db4 01be 6de8 753c
000001a0: 5121 463d cb4a c0bd 8f11 ac3c 705a d3bc
000001b0: 32f1 1dbe ada5 27bb 1f68 bfbd 0425 9dbc
000001c0: 7cdc b0bc 3b32 4cbd 7486 363c 2b17 113d
000001d0: 2eb8 bebc 9527 a8bd 981a e6bb 3f25 043d
000001e0: 85b2 06bd 772e 26bd 351b f7bc 29af 9bbd
000001f0: b6b0 1abd 28ea 06be e36c b0bd b9b4 febc
00000200: 4c32 50bd 986b 893b f39e e0ba 53fc a2bc
00000210: aeb1 bebc 1a5f d23d 5d18 033d a693 9dbd
00000220: b52e 2fbc 014b f0bc c0a5 58bc 9f63 a23d
00000230: 9a9c 76bb fa6e e7bd 87b0 fdbd 19fa f4bd
00000240: 9924 02bd 5bdf b5bc e798 933b 7167 443d
00000250: 4184 acbd 6d8a 0abd 748b ddbc ec7d 2abe
00000260: 5d5b 233c 8032 16bd a4d6 63bd da9a fcbb
00000270: 3f3a 313e 2c73 583d ce77 4a3d 167c 213d
00000280: 9136 68bd 80c8 e9bd cd32 903d b4ca 85be
00000290: f9e0 0bbe a00d 0abe c6a6 dcbc 5c4a 01bd
000002a0: 89cd d7bd 0150 b63b 6b39 003d 52ef f3b9
000002b0: 7568 8cbc 061f 95bc ef07 193e fb72 793d
000002c0: 1a86 08bd 7a0a ed3b 8455 48bd 6e1c 23bd
000002d0: 2005 183d 9b3e 38bd dc40 46be 892e 493d
000002e0: 03b3 eebc 1eda f0bd d4f0 ee3c 7586 bcbd
000002f0: 5956 843c 0023 92bd f718 c8bd 1541 eebc
00000300: 8235 95bd 0c51 dbbd a55e ed3b 77a7 3f3d
00000310: ec8f df3b fd82 cebc 5041 863d f742 623d
00000320: 821e 18bc 28be 8fbc bba0 173c bbb3 66bb
00000330: 9283 c23d fcb1 2abd a852 32bb 4c70 ea3c
00000340: 903c 133d 9d82 7fbb 616d 07be 2cfd 00bb
00000350: f341 97bb 5cd9 023d c725 42bc 2230 85bb
00000360: 021f 1e3d 1873 28bc 2694 853d a7eb 893c
00000370: 9ef2 253b fe9b 463e 210d 0abd 1120 743d
00000380: 7829 0ebd 6174 813d 73c3 b9bd c4bb 433d
00000390: 2332 2e3c 6ea7 aebc 1129 683b 6b38 ab3c
000003a0: 7aaf 37be 4a6f 5a3d ed99 363c 6388 b7bb
000003b0: 9fe5 4b3b 1d27 8bbd 0687 063d 4234 8dbd
000003c0: c724 5fbd 7fee d33d 614f 2ebe 7b76 8bbd
000003d0: 6977 cc3d 3723 11bd f414 983d 19df 90bd
000003e0: 02bf 2dbd 35d4 6e3d 9c54 63bc 1214 9cbe
000003f0: 1eb6 1c3b a1a7 623d 2786 61be 7bc7 64bd
-0.03219056 -0.09846811 0.048213623 0.12650815 0.008903821 -0.0018021354 -0.0030772865 0.0014285846
0.041730028 -0.116602 -0.037665334 -0.0643521 0.01717195 -0.038664438 -0.054066516 -0.06285212
-0.03590898 0.07254106 -0.019465636 -0.001816104 -0.048102062 0.002175687 -0.049208675 -0.08424904
-0.095550954 -0.03979739 0.054691054 0.09124667 -0.11653 -0.013344528 -0.13514826 -0.17838763
-0.03935167 -0.031026965 -0.1772383 -0.02820093 0.04059171 0.052995026 0.24506846 -0.114938006
-0.11246793 0.042996187 0.0069235624 -0.0304265 0.009029021 -0.00031122702 -0.11525245 -0.016666718
-0.017310059 -0.07068637 0.012584137 0.036330998 -0.23843665 -0.049169876 0.003233445 -0.05591355
-0.17197755 0.0010527024 -0.015983686 0.09592105 -0.14426303 0.056716572 0.021363817 -0.10237579
-0.030934405 -0.004242585 -0.080929615 -0.011675744 -0.14194877 -0.046388473 -0.013247954 -0.0005795341
0.056939274 0.0074794493 -0.10657733 0.02777568 -0.027125513 0.030141953 -0.026835417 -0.03877189
-0.13796149 0.08982145 0.01192667 -0.01148261 -0.0032740824 -0.031919472 -0.029080635 0.05286517
-0.09009384 -0.01655824 -0.08207316 -0.059147395 0.029892463 -0.016055826 -0.16053101 -0.24477291
-0.07147638 0.012144327 -0.09685194 0.011435481 0.038336825 -0.055883996 -0.12666531 0.015009028
0.048371617 -0.093892656 0.021004466 -0.02579996 -0.1542404 -0.0025580928 -0.093460314 -0.01918269
-0.02158951 -0.04985259 0.011140455 0.035422485 -0.023281183 -0.08210675 -0.007022213 0.032262083
-0.032885093 -0.040571656 -0.03016434 -0.076017685 -0.03776618 -0.13175261 -0.086145185 -0.031092035
-0.050829217 0.0041937344 -0.0017137214 -0.019895708 -0.023278084 0.102720454 0.032005657 -0.07694177
-0.010692288 -0.02933264 -0.013223112 0.079291575 -0.0037629963 -0.11300464 -0.123871855 -0.11961765
-0.031773183 -0.02220123 0.0045043114 0.047950212 -0.08423663 -0.03382342 -0.027044035 -0.16649598
0.009970513 -0.036669254 -0.05562462 -0.0077088894 0.17307375 0.05284421 0.04943066 0.03942498
-0.056692664 -0.114151955 0.070409395 -0.26131213 -0.13660039 -0.1348176 -0.026934993 -0.031565055
-0.105372496 0.0055637364 0.031304758 -0.0004652688 -0.017139653 -0.01820327 0.14944433 0.06090067
-0.033331014 0.007233915 -0.04890968 -0.039822035 0.037114263 -0.04498158 -0.1936068 0.049116645
-0.029138094 -0.117603526 0.02916757 -0.09205333 0.016154455 -0.07135582 -0.09770387 -0.029083768
-0.072855964 -0.10708818 0.0072439485 0.046790566 0.0068225767 -0.025208944 0.06555426 0.055239644
-0.009284617 -0.017546728 0.00925463 -0.0035202343 0.09497751 -0.041673645 -0.0027209911 0.028618
0.03594643 -0.0038987764 -0.13225318 -0.0019682152 -0.004616016 0.03194557 -0.011849827 -0.004064576
0.03860379 -0.010281347 0.06522398 0.016836 0.0025321613 0.19395444 -0.033703927 0.059600893
-0.034707516 0.06321026 -0.09070482 0.04778649 0.010632071 -0.021320071 0.0035424868 0.020900926
-0.17938033 0.05332879 0.011145097 -0.0056009754 0.0031112207 -0.0679457 0.032843612 -0.06894733
-0.054478433 0.10348224 -0.17022468 -0.06809708 0.09983713 -0.035433974 0.074258715 -0.070738025
-0.042418487 0.058307845 -0.013875153 -0.30484062 0.0023912261 0.055335645 -0.22023831 -0.055854302

actor_fc2.bias f4 [7]
00000000: 8d9e c9bd 67f4 e43d d9d7 9d3d 3f0b 2bbd
00000010: f79b 01be 8b6d 813d 6c60 6dbc
-0.09844694 0.111794285 0.07707185 -0.041758772 -0.12657152 0.06319722 -0.014488321

critic_conv1.weight f4 [16, 3, 2, 2]
00000000: 775e 35be c7ed 183e 9325 033e 6e33 723d
00000010: eff2 1c3e 8e37 58be f1e2 4cbe dd45 ab3c
00000020: 7122 40be d230 d3bd 19a4 b53d 8f0f a3be
00000030: b12a 75be 478e 5cbe 4a99 ff3d ee33 c4be
00000040: 4eea 703e 1a4d 7cbe 07de 2d3d b79e 193d
00000050: 65d2 56be b9c5 3abe 05d0 e03e f946 f13e
00000060: 9b9e 8dbe 110f 8b3e 1a4a dabc eafd 99be
00000070: 87b7 98bd 01e7 0f3e decf 18bd a13f 11be
00000080: 2c40 3b3e 922e 613e 11b8 a83e 3524 bb3e
00000090: b5d6 693e 16a7 c03e 62f9 4abe 78ee a73e
000000a0: 9a3f be3c be29 a9bd 4219 32bd af6a e9bc
000000b0: 874e d63d e253 87be 3710 503e 6dcf d5be
000000c0: 2465 3abe 648e a3bb 7e1c e5bd 9fe2 a2be
000000d0: 1a96 cdbc 9c7c bcbd e268 12be 5a94 253e
000000e0: 8fc5 76bd 1119 50be cb9e 68be b1ce 783e
000000f0: 4714 a1bd e6dc d8bd b14e 62be ce4b bfbd
00000100: 2e5c 8fbe 7053 463d 625b 61bc 1b13 253e
00000110: 8adb 48bd b976 19be ee9e 2e3e da1b 553d
00000120: 0bee 133e 590f 623e 7379 13be ad10 d63c
00000130: 3310 0bbe f849 3abc 1ef9 12be 37ac 003e
00000140: 21d4 1e3e 31c8 cf3e 14ff a6be c8df a83e
00000150: 08f9 663e be17 5abd 4eaa 6fbe 0169 51be
00000160: 4cf1 81be fdff 9dbe 8034 dcbd 5d12 333e
00000170: cf85 14be 6d83 1bbd 4662 4ebd 88e6 17bd
00000180: 850e 3b3e c9c1 843e 2a48 53be aafe 78bc
00000190: 134f e1bd ff5f 28be 1bbc ef3d e48e 1bbe
000001a0: e336 623d 1485 da3d 9060 acbe 5eb8 9d3e
000001b0: 56cc 333e b1ed a4be c0ac 5ebd cf5f 2ebe
000001c0: aa0a adbd 3f12 d3bd a0c3 6e3e 521a 6a3d
000001d0: bccc dd3e 069f a4be f36d 603e 1d0c 7dbe
000001e0: d0ba 82bd ec7a 1bbe 4d4f 6ebe 5959 6fbe
000001f0: 2ed3 56be ec45 8c3e c4d8 793d 4700 953d
00000200: 7689 3abe 1bab b1be ad93 cb3e be2d c9bd
00000210: de7a 12be ecac 2c3e 0437 213e 08c1 8a3e
00000220: 4f40 9dbe 01e8 82be 4911 9bbe 0dcf a23a
00000230: 2fd5 203e daa2 37be 8c0a 35be 0982 e1bc
00000240: a0fb 4ebe 7b0d 893d 3bbc 07be f79c d13d
00000250: bce0 a5be df05 0dbd 4542 093e 777f 703d
00000260: e45c 12be 5245 03be 48e7 9d3e f674 703b
00000270: 2d14 92be 43d6 bebe e4c8 be3d 5afb 313e
00000280: a6a0 a4be f51b ff3d 4b66 113e 5136 85be
00000290: b657 1fbe c7b0 eb3d 26a6 ab3c c2f8 65be
000002a0: 1131 633e 7c6a a4be a70c ae3b dc06 9ebe
000002b0: 1ec3 3b3e 69a2 c03d 2a91 65be ff6b fa3c
000002c0: 685f 79bb 7327 acbd 53f1 f43c c6d3 cabd
000002d0: 0171 28bd 2e6d 31bd 964a 803e a80f a43e
000002e0: 5b08 243d 7faa 8d3c 97ae bebd dde9 153c
000002f0: 58d6 9abd 38f7 f4bd 552b b93e 617b 9fbe
-0.17711817 0.14934455 0.12807302 0.05913108 0.15327047 -0.21114942 -0.20008446 0.020907337
-0.18763138 -0.10312046 0.0886919 -0.31847808 -0.23942067 -0.2153865 0.124804094 -0.3832087
0.2352688 -0.24638787 0.04244807 0.037504878 -0.20978697 -0.18239488 0.43908706 0.4712446
-0.2766007 0.27159932 -0.026646663 -0.30076534 -0.0745688 0.14052965 -0.037307613 -0.14184429
0.18286198 0.21990421 0.32952932 0.3655106 0.2283581 0.37627476 -0.19821694 0.32799125
0.023223687 -0.08259915 -0.04348112 -0.028493254 0.10464197 -0.26431185 0.20318685 -0.41759816
-0.18202645 -0.0049913395 -0.11187075 -0.31813523 -0.025095988 -0.09203455 -0.14297822 0.16169873
-0.060247 -0.20322062 -0.22716825 0.24297597 -0.07865196 -0.10589008 -0.22100331 -0.093406305
-0.28000015 0.048419416 -0.0137546975 0.1612057 -0.049037494 -0.14986695 0.17052814 0.052028514
0.14446275 0.22076167 -0.14401798 0.026130999 -0.13580398 -0.011370175 -0.14352843 0.12565695
0.15510608 0.4058242 -0.32616484 0.32983232 0.22555935 -0.0532453 -0.2340481 -0.20450212
-0.25379407 -0.30859366 -0.10752201 0.17487474 -0.14504169 -0.037967134 -0.05038669 -0.037085086
0.18267258 0.25929096 -0.20632997 -0.015197435 -0.1100141 -0.1644287 0.117058 -0.15191227
0.055228125 0.10669914 -0.3366742 0.30804724 0.17558417 -0.32212594 -0.054363966 -0.17028736
-0.084493 -0.103062145 0.23316813 0.057154007 0.43320262 -0.32152575 0.21916942 -0.24711652
-0.06383288 -0.1518361 -0.23272438 -0.23373927 -0.20978996 0.27397096 0.06099774 0.072754435
-0.182165 -0.34700856 0.39761105 -0.09823178 -0.14304683 0.1686284 0.15743643 0.27100396
-0.30713126 -0.2556763 -0.30286625 0.0012421325 0.15706323 -0.17933217 -0.17679805 -0.027527826
-0.20213175 0.06692024 -0.13255398 0.10235017 -0.3239802 -0.034429427 0.13404186 0.05871531
-0.14293247 -0.12819412 0.30840516 0.0036690808 -0.28531018 -0.37272844 0.093156606 0.1738104
-0.32153815 0.12456504 0.14199178 -0.26018003 -0.15560803 0.11508327 0.02095325 -0.22458175
0.22186686 -0.3211249 0.005311567 -0.30864608 0.1833615 0.09405977 -0.22418657 0.030569075
-0.0038051251 -0.08405962 0.029900229 -0.09903674 -0.041123394 -0.043317012 0.25056905 0.32043195
0.04004703 0.017293213 -0.09310644 0.009149996 -0.07560414 -0.11961216 0.36165872 -0.31148818

critic_conv1.bias f4 [16]
00000000: a157 1fbe cf56 4d3e 5bc2 653e b0ad a1be
00000010: bdd0 d53b 064e ccbe b005 c6be ce0a 253e
00000020: 0d9f 8b3d faab de3d ef42 0ebe ad08 2bbd
00000030: bc17 ecbd cda2 3f3e d05f 00be b5a1 e8be
-0.15560772 0.20052646 0.22437422 -0.31577826 0.0065251277 -0.39903277 -0.38676214 0.16117403
0.06817446 0.10872646 -0.1389272 -0.04175632 -0.115279645 0.18714447 -0.1253655 -0.45435873
