ppo/PPO_preTrained/SmallDoorRoomUnLocked/PPO_SmallDoorRoomUnLocked_0_0.pth (torch, 378538 bytes, 19 tensors)

actor_conv1.weight f4 [16, 3, 2, 2]
0.035862077 0.14345458 -0.24372317 -0.20101923 -0.13300331 0.07640309 -0.029190067 0.23609258
-0.0256182 0.018625982 -0.0872414 -0.027685585 -0.23763838 -0.13348937 -0.025116516 0.07981793
0.12870574 0.22507845 -0.21304034 -0.038213216 0.096668825 0.27607578 -0.05940939 0.550764
0.00306433 0.0052035283 0.33740664 -0.22953618 -0.13074721 -0.01967714 -0.1714718 0.27188092
-0.18711334 -0.40842983 -0.16521254 -0.3701511 -0.17880541 0.3804532 0.12286318 0.16663192
0.004329031 -0.15523487 0.040567573 -0.1965704 -0.18616551 -0.07023918 0.46806982 0.32621196
-0.14070942 -0.0162059 0.15797703 0.28592354 0.13009965 0.02004108 0.17179336 -0.19580458
0.015548075 -0.12267431 -0.5106757 -0.31711233 0.10509788 0.13568422 -0.19881491 0.094420254
0.12255989 -0.023916628 -0.021348242 0.044703387 0.37822095 0.60596687 -0.2056469 0.06937306
0.12998669 0.33622888 0.2263791 0.31936952 0.059125047 -0.24915585 0.017891575 -0.13966283
-0.38485813 0.1756785 0.113936305 -0.08935607 0.036519717 -0.10829755 -0.07415756 -0.17110403
0.08437095 -0.14033228 0.08380366 0.11314493 0.5998819 0.10793885 -0.34567288 -0.23351648
0.08737473 0.074681 -0.25177926 -0.1935688 0.2759299 0.2133433 -0.14441514 -0.11405421
-0.3063297 0.15485092 -0.20339312 -0.15692239 -0.05640481 0.012200797 -0.16473182 0.18696754
-0.195421 0.19786419 0.15630043 -0.28076488 -0.08222701 -0.1935259 -0.1686322 -0.20866741
0.24459963 0.035226453 -0.088591434 0.12913375 -0.23235022 -0.17471373 -0.020266576 -0.06285984
-0.100988194 -0.39332438 -0.108806625 0.113128565 -0.20054314 -0.021507503 0.24390365 -0.0456168
-0.0054452624 -0.02742719 0.02126643 0.13790055 0.27669108 0.21089138 0.37637082 0.011972812
-0.15986519 -0.07377802 0.2877532 0.0765164 -0.12475975 -0.1768306 -0.18282028 -0.2519044
-0.058553927 0.073954985 0.15606964 -0.39486614 0.27519587 -0.12273418 0.105830155 -0.019996736
0.018211357 0.0051747146 -0.22357216 -0.2708616 -0.40834177 0.021422526 -0.30732444 0.13504094
-0.28807586 -0.031262677 0.2962446 -0.10161649 0.18964797 0.09001435 -0.33251908 0.16681398
-0.029842999 -0.4318443 0.18695506 -0.40264058 -0.019641498 -0.10501208 0.20398222 0.01517217
0.08440982 0.07122844 -0.11827342 -0.07191774 -0.26772907 0.061661776 0.15128176 0.10384156
00000000: 1de4 123d c2e5 123e 9192 79be fcd7 4dbe
00000010: 0532 08be 3979 9c3d 0220 efbc 41c2 713e
00000020: 42dd d1bc 8495 983c 9eab b2bd e1cc e2bc
00000030: 7a57 73be 70b1 08be 27c1 cdbc 9577 a33d
00000040: 70cb 033e f77a 663e 3f27 5abe 7685 1cbd
00000050: 4efa c53d ce59 8d3e 4357 73bd dffe 0c3f
00000060: edd2 483b 5c82 aa3b 90c0 ac3e 880b 6bbe
00000070: 99e2 05be f431 a1bc 4e96 2fbe fa33 8b3e
00000080: a49a 3fbe b71d d1be 7a2d 29be 7284 bdbe
00000090: c418 37be c3ca c23e b19f fb3d 8fa1 2a3e
000000a0: 8bda 8d3b e4f5 1ebe 2f2a 263d c049 49be
000000b0: 2ca2 3ebe 8fd9 8fbd d9a6 ef3e 4105 a73e
000000c0: 2116 10be 3cc2 84bc bbc4 213e 9264 923e
000000d0: d838 053e 312d a43c 99ea 2f3e ff80 48be
000000e0: 5abd 7e3c ab3c fbbd a5bb 02bf 8c5c a2be
000000f0: 8f3d d73d cef0 0a3e 2396 4bbe 685f c13d
00000100: ae00 fb3d ceec c3bc 82e2 aebc e61a 373d
00000110: 2da6 c13e a520 1b3f 1a95 52be 7613 8e3d
00000120: 3b1b 053e 3126 ac3e eccf 673e 6784 a33e
00000130: 1b2d 723d b622 7fbe 5a91 923c c603 0fbe
00000140: 200c c5be 11e5 333e 7057 e93d 5100 b7bd
00000150: b395 153d 1bcb ddbd ebdf 97bd e535 2fbe
00000160: adca ac3d 44b3 0fbe 41a1 ab3d 87b8 e73d
00000170: dc91 193f 0b0f dd3d 09fc b0be f21e 6fbe
00000180: 86f1 b23d 5af2 983d 36e9 80be e636 46be
00000190: af46 8d3e ab76 5a3e 90e1 13be 4195 e9bd
000001a0: 3fd7 9cbe 3d91 1e3e 4946 50be 43b0 20be
000001b0: bb08 67bd dae5 473c 75af 28be 6b74 3f3e
000001c0: 711c 48be e99c 4a3e 380d 203e 6ac0 8fbe
000001d0: a266 a8bd a72b 46be ebad 2cbe e9ac 55be
000001e0: 5378 7a3e 9d49 103d 6d6f b5bd a33b 043e
000001f0: 37ed 6dbe 28e8 32be 1706 a6bc a9bc 80bd
00000200: e6d2 cebd d061 c9be 02d6 debd f3af e73d
00000210: 2e5b 4dbe 8130 b0bc e1c1 793e afd8 3abd
00000220: 2c6e b2bb fdae e0bc f036 ae3c cd35 0d3e
00000230: 74aa 8d3e e9f3 573e adb3 c03e 9d29 443c
00000240: b3b3 23be ee18 97bd 6354 933e a1b4 9c3d
00000250: 0a82 ffbd 1513 35be 3d35 3bbe 9df9 80be
00000260: 3ed6 6fbd b675 973d b8d0 1f3e e52b cabe
00000270: 79e6 8c3e 0f5c fbbd 7bbd d83d 32d0 a3bc
00000280: fc2f 953c a790 a93b 1af0 64be 5fae 8abe
00000290: 2c12 d1be 4b7e af3c a159 9dbe 2c48 0a3e
000002a0: ae7e 93be 4b0d 00bd 5fad 973e 4e1c d0bd
000002b0: 1433 423e 7259 b83d f13f aabe 49d1 2a3e
000002c0: 4e79 f4bc b21a ddbe 2671 3f3e e826 cebe
000002d0: 35e7 a0bc 9310 d7bd b7e0 503e b194 783c
000002e0: 0edf ac3d 37e0 913d 5639 f2bd 9c49 93bd
000002f0: c913 89be 0f91 7c3d 9be9 1a3e e2aa d43d

actor_conv1.bias f4 [16]
-0.19753085 0.06945101 -0.15812771 -0.1685944 -0.19555524 0.073904276 -0.17976792 -0.033541925
-0.0050685345 0.15620628 -0.17421994 -0.21123461 -0.06889298 0.3025455 -0.10244259 0.18060535
00000000: 8745 4abe 553c 8e3d 3bec 21be 03a4 2cbe
00000010: a23f 48be 205b 973d 1515 38be 4263 09bd
00000020: f315 a6bb 8af4 1f3e b666 32be e34d 58be
00000030: c317 8dbd 3ee7 9a3e 6ccd d1bd 9cf0 383e

actor_conv2.weight f4 [32, 16, 2, 2]
0.04350703 0.086438276 -0.036098976 -0.01689472 0.00029249748 -0.032194644 -0.070333876 0.061149146
-0.103013024 -0.010893097 0.105708085 -0.12398973 0.04422442 0.24947646 0.043386713 0.029022533
-0.08327071 0.112133265 -0.07133083 -0.028467003 -0.021337997 0.0321956 0.008217717 0.11904454
0.055471264 0.20681317 0.08018721 -0.08187289 0.06393852 -0.081939615 -0.011143785 0.12774825
0.041988764 0.09451745 -0.023413537 0.031963315 0.09649298 -0.044780325 0.08585035 -0.084759034
0.096662395 0.19084518 -0.13672984 -0.044291783 0.11385698 0.014091349 -0.07576577 0.0021233098
-0.113259144 0.08853373 0.0023691738 -0.064084254 0.010791264 0.13510472 0.02517472 -0.04111376
0.051440526 -0.024996834 -0.05498789 0.013265376 0.12934412 0.09186608 -0.061723497 -0.05618428
-0.1707407 0.07180862 -0.041205864 -0.08006065 0.09335215 -0.0019859863 0.0018439778 0.10318026
-0.027304266 -0.09144112 -0.07025515 0.1341119 0.042410422 0.15283358 -0.0017007851 0.031545974
-0.013645139 -0.02360702 -0.052378446 0.04614706 0.054748002 0.039694153 -0.0017651274 -0.05142489
0.111751094 -0.07962597 0.08993127 -0.029909084 -0.029479492 0.08808694 -0.023232078 0.05800677
0.05425108 -0.105171405 0.052839346 0.028069068 0.065666124 -0.041973963 -0.06610444 -0.05776256
0.034199886 -0.049770255 0.0930388 0.05630506 -0.07836068 0.043794874 0.082833335 0.040193003
0.025260607 0.02345707 -0.070048675 -0.06034799 0.117170975 -0.030801961 0.11047538 -0.068847276
0.04097698 -0.074886605 -0.07553042 -0.08054893 0.12654586 0.10093511 -0.062521376 0.071277894
0.026260171 0.10668975 0.068322666 0.10518985 -0.04796907 -0.02594309 0.07626706 0.0502048
-0.12998007 0.21891297 0.078054115 0.15274844 -0.15676306 -0.02593089 -0.06258267 0.13020466
-0.04753637 0.03896761 -0.0014913621 0.0821316 -0.0536885 0.044180557 -0.09869422 0.024554942
-0.12879044 -0.16025168 -0.11835623 0.12602858 0.030500565 0.05039657 0.062198356 -0.17272808
-0.10184394 -0.018914964 -0.10383631 0.10663911 -0.13187356 -0.06851207 -0.14609279 0.017643811
0.052819073 0.049586464 0.092040196 0.3063768 0.07098206 -0.06419158 0.020760467 0.11339074
0.021348806 0.20064364 0.10260829 0.23924655 -0.0686503 0.118573725 -0.015850311 0.14868654
-0.0990375 -0.049489893 -0.12227827 0.12192422 0.068298586 -0.032082304 -0.08703128 0.10289139
0.056788374 0.021588564 -0.054926943 0.11670892 0.043074984 -0.09067463 0.09290041 0.041403323
-0.06592564 0.0807355 -0.04792704 -0.029788302 0.10854556 0.013272329 -0.087724335 -0.03955976
-0.041524235 -0.031579107 0.004421919 0.081266865 -0.026995456 -0.14161684 -0.0013943354 0.045227595
0.06292846 -0.11188078 -0.024970246 -0.1009265 -0.06912496 0.018483307 -0.094941266 0.06596015
0.09061195 -0.0052144756 -0.10815709 -0.06905213 0.028444098 -0.085855424 0.04316505 -0.13545235
-0.14542961 -0.16577272 0.0018736067 0.091795385 -0.15376377 0.094834775 -0.047701776 0.036358293
-0.01607696 -0.10802078 0.13037929 0.076443695 0.09842599 0.07473286 -0.059686102 0.09901126
-0.00199833 0.07426469 -0.09805866 -0.05463725 -0.15249039 -0.04944695 0.024849871 -0.14158489
00000000: 6d34 323d 8d06 b13d 85dc 13bd cc66 8abc
00000010: 595a 9939 88de 03bd 350b 90bd 8777 7a3d
00000020: 7ef8 d2bd f678 32bc 7b7d d83d 54ee fdbd
00000030: aa24 353d c276 7f3e 44b6 313d aac0 ed3c
00000040: d689 aabd 20a6 e53d e615 92bd a233 e9bc
00000050: 06cd aebc 89df 033d 9aa3 063c a0cd f33d
00000060: d635 633d d5c6 533e 3139 a43d f9ac a7bd
00000070: 33f2 823d f5cf a7bd 6c94 36bc 70d0 023e
00000080: 69fc 2b3d 5d92 c13d bfcd bfbc f7eb 023d
00000090: 1d9e c53d 936b 37bd 4fd2 af3d 2596 adbd
000000a0: eff6 c53d eb6c 433e e802 0cbe 4d6b 35bd
000000b0: d92d e93d 67df 663c 162b 9bbd 3a27 0b3b
000000c0: 69f4 e7bd 2c51 b53d 2444 1b3b 9b3e 83bd
000000d0: d7cd 303c e458 0a3e 373b ce3c e766 28bd
000000e0: 4db3 523d 29c6 ccbc fb3a 61bd 0557 593c
000000f0: c972 043e 4924 bc3d c7d1 7cbd 7d21 66bd
00000100: a6d6 2ebe 6610 933d 7bc7 28bd d7f6 a3bd
00000110: 692f bf3d 5227 02bb a1b1 f13a 2c50 d33d
00000120: 32ad dfbc 7b45 bbbd efe1 8fbd a154 093e
00000130: 8db6 2d3d 6880 1c3e e1ec deba 5a36 013d
00000140: dc8f 5fbc 8263 c1bc c88a 56bd b304 3d3d
00000150: 713f 603d 5696 223d d95b e7ba e8a2 52bd
00000160: c2dd e43d f112 a3bd e32d b83d e503 f5bc
00000170: fa7e f1bc ed66 b43d 3351 bebc 8298 6d3d
00000180: 6136 5e3d 1b64 d7bd 126e 583d 1af1 e53c
00000190: f67b 863d e4ec 2bbd c461 87bd 6f98 6cbd
000001a0: 2e15 0c3d e5db 4bbd 208b be3d 22a0 663d
000001b0: 907b a0bd 4162 333d 86a4 a93d 6ba1 243d
000001c0: 55ef ce3c 0b29 c03c ae75 8fbd 742f 77bd
000001d0: 56f7 ef3d 6554 fcbc eb40 e23d cdff 8cbd
000001e0: 7ad7 273d 265e 99bd b1af 9abd d6f6 a4bd
000001f0: 3d95 013e 11b7 ce3d 350b 80bd 25fa 913d
00000200: 921f d73c 2880 da3d c1ec 8b3d c76d d73d
00000210: 377b 44bd 9a86 d4bc e831 9c3d 8ca3 4d3d
00000220: 7f19 05be b92a 603e d6da 9f3d 166a 1c3e
00000230: 7f86 20be 056d d4bc 582b 80bd 5f54 053e
00000240: 7fb5 42bd 809c 1f3d cf79 c3ba 9d34 a83d
00000250: 79e8 5bbd acf6 343d 3220 cabd 7227 c93c
00000260: a4e1 03be 0419 24be c064 f2bd a30d 013e
00000270: 52dc f93c a26c 4e3d b4c3 7e3d a1df 30be
00000280: 8e93 d0bd 8ef3 9abc 22a8 d4bd 9b65 da3d
00000290: dd09 07be 0e50 8cbd 5999 15be c189 903c
000002a0: d058 583d 2d1b 4b3d 927f bc3d 6cdd 9c3e
000002b0: 0b5f 913d e076 83bd db11 aa3c 6739 e83d
000002c0: b1e3 ae3c 8775 4d3e 4c24 d23d 0cfd 743e
000002d0: 8798 8cbd c8d6 f23d 83d8 81bc 4941 183e
000002e0: 2cd4 cabd eab5 4abd 086d fabd 68b3 f93d
000002f0: 21e0 8b3d bc68 03bd 753d b2bd b9b8 d23d
00000300: ed9a 683d 80da b03c 13fb 60bd 1605 ef3d
00000310: 656f 303d 9fb3 b9bd 9242 be3d 8896 293d
00000320: 0604 87bd a758 a53d 254f 44bd 9906 f4bc
00000330: 224d de3d 2f74 593c d1a8 b3bd 6a09 22bd
00000340: 5115 2abd 1859 01bd bfe5 903b 3e6f a63d
00000350: 9325 ddbc 0104 11be 22c2 b6ba 9240 393d
00000360: a3e0 803d c021 e5bd 678e ccbc 8eb2 cebd
00000370: 6391 8dbd 4e6a 973c 9170 c2bd 1d16 873d
00000380: c292 b93d 31de aabb 7781 ddbd 346b 8dbd
00000390: 9903 e93c f8d4 afbd d6cd 303d 05b4 0abe
000003a0: 80eb 14be 53c0 29be cf93 f53a 38ff bb3d
000003b0: 4074 1dbe bc38 c23d f062 43bd 6fec 143d
000003c0: d4b3 83bc 003a ddbd 2682 053e 838e 9c3d
000003d0: 9193 c93d 8b0d 993d 6a79 74bd 6ac6 ca3d
000003e0: 6af6 02bb 1618 983d fbd2 c8bd 4fcb 5fbd
000003f0: 7126 1cbe e388 4abd f591 cb3c a1fb 10be

actor_conv2.bias f4 [32]
0.0798559 -0.018726777 -0.06286437 0.074201666 0.027339205 -0.09924768 0.09792909 0.020731488
0.07936986 -0.095603526 -0.0042341053 0.09117843 -0.032676112 -0.07315197 0.100007534 0.09367677
0.053931598 0.041832633 -0.0063767405 0.09220336 -0.030780537 -0.07741781 0.031312797 0.024186924
0.044584837 0.0029281708 -0.035869166 -0.025748534 0.030472495 -0.105368644 -0.12650904 0.011262026
00000000: 7d8b a33d e668 99bc 09bf 80bd 0bf7 973d
00000010: 78f6 df3c 5e42 cbbd 0c8f c83d 15d5 a93c
00000020: aa8c a23d c8cb c3bd 40be 8abb c2bb ba3d
00000030: 63d7 05bd b3d0 95bd c0d0 cc3d 9bd9 bf3d
00000040: 61e7 5c3d b258 2b3d faf3 d0bb 1dd5 bc3d
00000050: 7727 fcbc 3b8d 9ebd d941 003d a823 c63c
00000060: 979e 363d 8ee6 3f3b 8ceb 12bd 97ee d2bc
00000070: 74a1 f93c 84cb d7bd 968b 01be 5c84 383c

actor_conv3.weight f4 [64, 32, 2, 2]
0.030198244 0.042814292 0.06070074 -0.016906105 0.046782173 0.03254612 0.01736567 0.02896218
0.014487151 -0.033550933 0.05995161 -0.11458354 -0.0015196033 -0.057857174 -0.017707173 0.049014136
-0.008647835 -0.0086240545 0.04736802 -0.15615231 0.05608708 -0.012139149 0.001429854 0.052268818
-0.08852829 0.13757117 0.034843374 -0.046125934 0.034592245 -0.04704625 -0.019946741 0.025736166
-0.025690923 0.13565047 0.11105859 0.0014104227 -0.0809307 0.02699957 0.0033940992 0.07024075
0.06754413 0.078911014 0.038949914 -0.05345456 -0.068670824 -0.030931566 0.013831354 0.040623043
-0.09615964 0.055691443 0.0051383395 -0.05767578 -0.013488537 0.1001445 -0.00725517 0.17375444
-0.0025360812 0.07721091 0.011803867 -0.032882392 0.09600425 -0.0944676 0.05350144 0.010434968
0.07008085 -0.2609264 0.019099215 -0.051422015 0.053709425 0.0007258289 0.034506347 0.072436094
-0.0039225356 0.05218411 0.100972146 -0.009102481 -0.016491344 0.036433306 -0.014567401 -0.04495063
0.08442978 -0.009063513 -0.07536296 -0.03917971 0.08117292 -0.01941798 -0.038756333 0.05132717
0.010942143 -0.03506043 0.07360864 0.026597502 0.09137691 0.071763605 -0.02187211 -0.049336035
0.055252787 0.14589114 -2.186618e-05 -0.110528626 -0.0026243466 0.018167611 -0.00057593285 -0.01615017
-0.09149768 0.0781703 -0.009549804 -0.07843074 0.06624473 0.13925476 -0.016501514 -0.07802165
0.097037435 0.06448904 -0.062148005 0.0462122 -0.020911645 0.006054869 -0.04854488 -0.07486447
-0.0552004 0.0051447884 -0.022203587 0.07371761 -0.018740049 -0.018784177 0.010514835 -0.10779567
-0.07428618 0.016355392 -0.09707359 0.032779586 -0.014162039 -0.08966405 -0.109310985 0.045772433
0.038045246 -0.020725446 -0.08878261 -0.04055242 0.009394216 0.003215657 0.022625376 0.01562884
-0.0022662624 0.04220515 0.08881767 0.078025624 0.08881035 -0.023560291 -0.020734707 -0.0060344134
0.021145942 0.036404338 -0.018844683 -0.055881597 -0.07055646 0.08096838 -0.02800907 -0.015862303
-0.05958749 -0.0468683 0.0131556 0.029585995 -0.03801851 -0.0358546 0.066966385 -0.048819464
-0.07927214 -0.026448077 0.07340605 0.014665655 -0.00086223235 -0.012305227 0.04205674 -0.053590108
0.059928264 0.020881224 0.009827296 0.0121681 -0.056596626 0.062737584 0.04346446 -0.068016365
-0.08229677 -0.022753734 0.05872099 -0.04351638 0.07997045 -0.051967617 -0.08341747 0.036517892
-0.054575898 -0.013774327 -0.028885845 -0.0031614276 -0.08942661 -0.08903911 0.021204067 -0.023943977
-0.05675546 -0.008652985 -0.08017269 0.021761574 0.02858362 0.09120957 -0.08702079 -0.023597362
0.0540914 0.07147498 -0.0565949 0.036705166 0.036492374 0.053286754 -0.060936354 0.06307538
-0.038013488 -0.05201469 0.015654635 0.07336856 -0.067812346 0.041239027 -0.014481608 0.02878179
0.056723848 0.024448412 -0.08398884 -0.03273293 0.0064795534 -0.0774883 -0.009451345 -0.04406556
-0.017569588 0.031620134 -0.07113668 -0.05674659 0.008134239 -0.11106421 0.034744147 -0.075117804
-0.015218157 0.012489783 0.030147994 -0.052238993 0.010253874 0.043589458 0.070391186 -0.0665166
-0.04848387 0.031264413 -0.013353695 -0.065517165 -0.07292375 -0.07354208 -0.06289737 -0.0407109
00000000: 4f62 f73c 0a5e 2f3d 57a1 783d ac7e 8abc
00000010: aa9e 3f3d 154f 053d 7342 8e3c 1842 ed3c
00000020: 845b 6d3c b46c 09bd d28f 753d c6aa eabd
00000030: 6d2d c7ba a5fb 6cbd a20e 91bc 0cc3 483d
00000040: a6af 0dbc e84b 0dbc f804 423d 64e6 1fbe
00000050: 91bb 653d 48e3 46bc f069 bb3a d417 563d
00000060: 524e b5bd 75df 0c3e edb7 0e3d 8cee 3cbd
00000070: 99b0 0d3d 92b3 40bd 5967 a3bc a7d4 d23c
00000080: c575 d2bc f5e7 0a3e b072 e33d efdd b83a
00000090: ffbe a5bd 342e dd3c 896f 5e3b 62da 8f3d
000000a0: 9454 8a3d 199c a13d f289 1f3d 2bf3 5abd
000000b0: 4aa3 8cbd 3264 fdbc e79c 623c 5964 263d
000000c0: 58ef c4bd b61c 643d 845f a83b 703d 6cbd
000000d0: 06ff 5cbc 8f18 cd3d c7bc edbb afec 313e
000000e0: 6234 26bb c120 9e3d 0265 413c b0af 06bd
000000f0: e09d c43d 3b78 c1bd 5324 5b3d 6ef7 2a3c
00000100: 8c86 8f3d 2598 85be f575 9c3c e49f 52bd
00000110: 6afe 5b3d 8e45 3e3a 8756 0d3d 6059 943d
00000120: 9d88 80bb 01bf 553d 7cca ce3d 9322 15bc
00000130: db18 87bc 173b 153d 1cac 6ebc 271e 38bd
00000140: 85e9 ac3d 217f 14bc e557 9abd e77a 20bd
00000150: fd3d a63d 7512 9fbc f6be 1ebd 703c 523d
00000160: ad46 333c 879b 0fbd 20c0 963d 01e3 d93c
00000170: d123 bb3d ccf8 923d 242d b3bc 9514 4abd
00000180: bf50 623d 7d64 153e 446d b7b7 d55c e2bd
00000190: 3bfd 2bbb 3ed4 943c 33fa 16ba 5c4d 84bc
000001a0: 2363 bbbd c017 a03d c876 1cbc 4ca0 a0bd
000001b0: 51ab 873d cd98 0e3e 2f2e 87bc d1c9 9fbd
000001c0: 90bb c63d d412 843d e88e 7ebd 0149 3d3d
000001d0: e64e abbc ec67 c63b ffd6 46bd 8b52 99bd
000001e0: d119 62bd 9d95 a83b 4ce4 b5bc 42f9 963d
000001f0: bb84 99bc 46e1 99bc 6a46 2c3c fac3 dcbd
00000200: 5a23 98bd befb 853c 85ce c6bd e343 063d
00000210: e607 68bc c9a1 b7bd 70de dfbd e07b 3b3d
00000220: 55d5 1b3d 69c8 a9bc a8d3 b5bd 4b1a 26bd
00000230: 33ea 193c c6bd 523b da58 b93c 0e08 803c
00000240: 9385 14bb 4fdf 2c3d 0ae6 b53d e6cb 9f3d
00000250: 33e2 b53d 8301 c1bc d5db a9bc 54bc c5bb
00000260: 413a ad3c b71c 153d 2a60 9abc 1ae4 64bd
00000270: e87f 90bd c0d2 a53d 4773 e5bc a9f1 81bc
00000280: 0312 74bd f9f8 3fbd 968a 573c 545e f23c
00000290: 4cb9 1bbd 46dc 12bd ac25 893d ebf6 47bd
000002a0: 6f59 a2bd a3a9 d8bc e955 963d 3748 703c
000002b0: 6f07 62ba dd9b 49bc b043 2c3d 4d81 5bbd
000002c0: 5777 753d 1a0f ab3c ab02 213c b65c 473c
000002d0: ddd1 67bd 907c 803d ca07 323d 2a4c 8bbd
000002e0: 358b a8bd 0a66 babc 6c85 703d 3b3e 32bd
000002f0: 8cc7 a33d ffdb 54bd c7d6 aabd c993 153d
00000300: fa8a 5fbd b7ad 61bc 02a2 ecbc f42f 4fbb
00000310: 4c25 b7bd 235a b6bd 27b4 ad3c 2926 c4bc
00000320: 6a78 68bd 40c5 0dbc 9431 a4bd 5445 b23c
00000330: 3228 ea3c 15cc ba3d f537 b2bd 414f c1bc
00000340: f28e 5d3d 7961 923d 0ed0 67bd 2858 163d
00000350: 0779 153d 3643 5a3d 6698 79bd aa2d 813d
00000360: 08b4 1bbd 5b0d 55bd 263e 803c 4142 963d
00000370: 33e1 8abd 41ea 283d 4444 6dbc cac7 eb3c
00000380: 4457 683d 0948 c83c 5702 acbd f712 06bd
00000390: 6f52 d43b 30b2 9ebd d0d9 1abc 177e 34bd
000003a0: 19ee 8fbc 1d84 013d 1cb0 91bd 1d6f 68bd
000003b0: 7945 053c a275 e3bd e14f 0e3d 5dd7 99bd
000003c0: 9455 79bc f2a1 4c3c edf8 f63c 8ef8 55bd
000003d0: ddff 273c dc8a 323d 4129 903d db39 88bd
000003e0: 0697 46bd 1d0f 003d 75c9 5abc dd2d 86bd
000003f0: 0c59 95bd 3b9d 96bd 56d0 80bd 79c0 26bd

actor_conv3.bias f4 [64]
-0.019772204 -0.02176627 -0.07436907 0.07080048 0.05617284 0.06566173 0.094363466 -0.048200775
0.090426594 -0.011885569 0.077048756 0.0014567237 0.080216795 -0.053467225 0.042297747 -0.022213077
-0.08911659 0.074681416 -0.027884569 -0.034508698 0.09664778 -0.021223435 0.07022893 0.107051894
0.017234817 -0.016077708 -0.07402346 0.010543659 -0.023578757 0.04180216 0.06152694 -0.07113828
-0.029274315 -0.0916883 0.000249214 0.062175993 -0.026662959 0.023905948 0.015262391 -0.08201128
0.07467625 0.05148755 0.07464072 -0.025390496 0.015386527 0.0064161993 0.013825705 -0.012077771
-0.06859214 0.07294418 0.10204117 0.10047372 0.076236136 0.07497498 -0.04995188 -0.018664716
-0.044056788 0.00932895 -0.00094421505 0.012723853 -0.05180694 0.02175544 -0.051752333 -0.018151471
00000000: 51f9 a1bc 2d4f b2bc d04e 98bd d8ff 903d
00000010: 7e15 663d a879 863d a241 c13d 2d6e 45bd
00000020: 9431 b93d b1bb 42bc bdcb 9d3d 89ef be3a
00000030: b448 a43d 7300 5bbd 6740 2d3d 33f8 b5bc
00000040: c282 b6bd 92f2 983d 2e6e e4bc fe58 0dbd
00000050: 45ef c53d c5dc adbc 2fd4 8f3d 063e db3d
00000060: 0830 8d3c 66b5 83bc 9d99 97bd 50bf 2c3c
00000070: 3d28 c1bc be38 2b3d ac03 7c3d f2b0 91bd
00000080: b0d0 efbc 13c7 bbbd f0a8 8239 41ac 7e3d
00000090: 476c dabc 68d6 c33c 1c0f 7a3c 88f5 a7bd
000000a0: ddef 983d 9ce4 523d 3cdd 983d bbff cfbc
000000b0: c617 7c3c fb3e d23b 3685 623c d8e1 45bc
000000c0: 097a 8cbd c263 953d f6fa d03d 2ac5 cd3d
000000d0: b121 9c3d 7b8c 993d 589a 4cbd bfe6 98bc
000000e0: e474 34bd 74d8 183c 3385 77ba b577 503c
000000f0: 8433 54bd 7738 b23c 41fa 53bd 65b2 94bc

actor_fc1.weight f4 [512, 65]
-0.103151366 -0.07928976 -0.12132893 -0.09220478 -0.025578959 -0.11519735 -0.14684103 0.082414314
-0.11108261 0.08683593 -0.0015350673 -0.07943239 0.08426463 -0.11035664 0.03820777 0.077539265
0.09893853 -0.122461036 -0.0046853335 0.00378833 -0.07722619 0.077955864 -0.028497048 0.08828348
-0.09736174 -0.08753645 0.01586203 -0.015237743 0.07108637 0.03314942 0.08843348 -0.102516994
0.028026579 0.07896693 -0.07134141 -0.08953233 0.08212613 -0.14324638 -0.11479081 -0.10812451
0.028344747 0.012401471 -0.10886928 0.05373071 0.020846387 -0.0023343917 -0.12046935 -0.12197604
-0.11401044 -0.06538452 -0.11605657 0.069337 -0.055613242 -0.058097403 0.088575035 -0.0014019512
-0.0066640256 -0.06035223 -0.036514774 -0.11894939 -0.06832354 0.07932055 -0.08140855 0.041553095
0.07655309 0.051994305 0.10283468 0.14830983 0.043179628 0.0103186425 -0.047148135 -0.11237252
0.11957536 0.015646406 0.019440621 -0.02458821 0.13809179 0.015651304 0.07407161 0.10855767
0.02675146 -0.022630427 0.07583617 -0.06600027 0.08034169 0.08469564 -0.08796954 -0.052884072
-0.022470258 0.18673375 0.034974147 -0.016494544 0.051798817 -0.13058244 0.018629968 -0.11913985
0.03858791 0.015331283 0.1304345 0.024049778 -0.011239132 0.06678543 0.04089929 0.020896515
-0.051238827 -0.056595046 0.006331494 0.040374983 0.009738157 0.10522558 0.045517847 0.043293554
-0.009182412 0.07752883 0.13474385 0.009609035 -0.036265794 0.092092074 -0.09453603 -0.07564803
0.12544993 0.0485269 0.14825097 0.08001936 -0.022635784 0.07666455 -0.07472171 -0.09780513
0.03886136 -0.109386764 0.103456885 -0.105139665 0.16693762 -0.034637127 0.02691011 0.10077208
-0.03445495 0.020706955 0.104131855 -0.031424496 0.01589451 0.14536284 0.0509454 0.07736646
-0.025955288 0.041681904 -0.0044582183 -0.06822371 0.0023852699 0.049913857 -0.0668262 0.08733709
-0.09655195 0.019675212 0.11178052 -0.06294814 0.1376841 0.0956961 -0.016355 -0.006904562
-0.12038293 0.0811232 -0.056222264 0.07719221 0.11630651 0.06902742 0.13184722 0.1614645
-0.03506684 -0.009425081 -0.05154002 0.09625676 0.05549435 0.017464485 -0.09430617 -0.0112222
-0.09575121 0.18095051 0.06868888 -0.071434036 -0.11479442 0.15990591 0.17058037 -0.06072006
0.04570432 0.11283796 0.06608787 0.10377529 -0.051591292 -0.037155062 -0.03653237 -0.074602924
-0.07758952 0.16347702 0.00943833 0.003222436 -0.07679225 0.060385652 0.094893515 0.07263048
-0.0035163923 -0.080604956 0.19775231 -0.012029813 -0.03517836 -0.010521438 0.048628166 0.057465468
-0.027227635 -0.07112707 -0.021577122 0.03803049 -0.08249263 0.031174852 0.032519195 -0.0909412
0.045471583 0.061274324 0.028625438 0.059067618 0.046587523 0.11031918 0.068632096 -0.046174813
0.04349215 -0.1029538 0.08925488 0.012137242 -0.009125725 0.08035456 -0.05294224 0.058059163
0.03859219 0.11012453 0.060143102 -0.038282692 0.063793756 0.08797135 -0.09497637 -0.072161436
0.06201394 -0.055219397 0.20705667 0.09301131 0.0007360978 0.016226288 0.12581475 0.2391164
-0.062458016 0.093531996 -0.022970887 -0.09933962 0.22997515 0.07274729 -0.11846907 0.07416253
00000000: 0641 d3bd ab62 a2bd 4d7b f8bd dcd5 bcbd
00000010: f78a d1bc 97ec ebbd 7f5d 16be d6c8 a83d
00000020: 487f e3bd 09d7 b13d 5034 c9ba 73ad a2bd
00000030: ef92 ac3d a902 e2bd c07f 1c3d e8cc 9e3d
00000040: 49a0 ca3d dacc fabd 6d87 99bb a145 783b
00000050: c428 9ebd 53a7 9f3d a472 e9bc f8cd b43d
00000060: 9865 c7bd 4f46 b3bd 17f1 813c baa7 79bc
00000070: bb95 913d b0c7 073d 9d1c b53d 6ef4 d1bd
00000080: ff97 e53c 6ab9 a13d 721b 92bd ba5c b7bd
00000090: bf31 a83d 2eaf 12be 7217 ebbd 6270 ddbd
000000a0: 3e33 e83c 8a2f 4b3c dbf6 debd bc14 5c3d
000000b0: 0bc6 aa3c 98fc 18bb a2b8 f6bd 93ce f9bd
000000c0: 4e7e e9bd 52e8 85bd 11af edbd 8f00 8e3d
000000d0: b6ca 63bd 8bf7 6dbd d466 b53d adc1 b7ba
000000e0: e65d dabb e633 77bd 8490 15bd bd9b f3bd
000000f0: 36ed 8bbd d072 a23d 87b9 a6bd 9433 2a3d
00000100: dec7 9c3d fbf7 543d fd9a d23d 88de 173e
00000110: 1fdd 303d 860f 293c 671e 41bd 9023 e6bd
00000120: ede3 f43d e42c 803c f041 9f3c 376d c9bc
00000130: ef67 0d3e 2a37 803c dbb2 973d 7c53 de3d
00000140: e125 db3c 7263 b9bc fe4f 9b3d 262b 87bd
00000150: 2f8a a43d e874 ad3d 6029 b4bd f89c 58bd
00000160: 8c13 b8bc 2237 3f3e 0d41 0f3d 911f 87bc
00000170: ff2a 543d 67b7 05be e09d 983c 98ff f3bd
00000180: 5b0e 1e3d 1030 7b3c 9f90 053e 0a04 c53c
00000190: 5624 38bc cdc6 883d 0486 273d 2b2f ab3c
000001a0: cedf 51bd 35d0 67bd 6c78 cf3b 3d60 253d
000001b0: ca8c 1f3c 8280 d73d ec70 3a3d 9554 313d
000001c0: d471 16bc 6fc7 9e3d 4bfa 093e 376f 1d3c
000001d0: 718b 14bd c59a bc3d 1b9c c1bd 5bed 9abd
000001e0: f275 003e 25c4 463d 1acf 173e 31e1 a33d
000001f0: ae6e b9bc 4e02 9d3d b207 99bd 0e4e c8bd
00000200: 172d 1f3d 2b06 e0bd 34e1 d33d 7753 d7bd
00000210: b2f1 2a3e a9df 0dbd 9772 dc3c 9861 ce3d
00000220: a220 0dbd a2a1 a93c 1543 d53d f9b6 00bd
00000230: 3435 823c ffd9 143e 20ac 503d 4e72 9e3d
00000240: 2fa0 d4bc a5ba 2a3d 3f16 92bb dfb8 8bbd
00000250: 3052 1c3b 7972 4c3d 2ddc 88bd cadd b23d
00000260: 07bd c5bd e92d a13c 2fed e43d f4ea 80bd
00000270: 10fd 0c3e 51fc c33d ecfa 85bc aa3f e2bb
00000280: 538b f6bd ec23 a63d 5149 66bd f316 9e3d
00000290: 1c32 ee3d 3f5e 8d3d f502 073e f356 253e
000002a0: 3fa2 0fbd a86b 1abc a11b 53bd 4422 c53d
000002b0: 0b4e 633d ae11 8f3c 9823 c1bd 51dd 37bc
000002c0: 3619 c4bd 174b 393e c1ac 8c3d 024c 92bd
000002d0: 5619 ebbd 60be 233e 9fac 2e3e 99b5 78bd
000002e0: 7434 3b3d 9717 e73d 1459 873d 2488 d43d
000002f0: 6451 53bd e82f 18bd f7a2 15bd 6bc9 98bd
00000300: 41e7 9ebd 8566 273e 3aa3 1a3c 812f 533b
00000310: 4145 9dbd f256 773d 8857 c23d 4abf 943d
00000320: 4673 66bb 3614 a5bd 957f 4a3e b118 45bc
00000330: 2f17 10bd 1c62 2cbc 542e 473d e960 6b3d
00000340: 7d0c dfbc 12ab 91bd 81c2 b0bc dcc5 1b3d
00000350: e5f1 a8bd 6762 ff3c d932 053d 613f babd
00000360: 6940 3a3d c9fa 7a3d e57f ea3c e3f0 713d
00000370: 8fd2 3e3d 06ef e13d fc8e 8c3d cd21 3dbd
00000380: d324 323d 71d9 d2bd 43cb b63d 48db 463c
00000390: 1184 15bc ee90 a43d f6d9 58bd 72cf 6d3d
000003a0: d812 1e3d f888 e13d 9d58 763d 50ce 1cbd
000003b0: 4da6 823d 532a b43d f982 c2bd 60c9 93bd
000003c0: 5402 7e3d bc2d 62bd aa06 543e b77c be3d
000003d0: b0f6 403a feec 843c 95d5 003e eeda 743e
000003e0: fad3 7fbd b48d bf3d 712d bcbc 9272 cbbd
000003f0: 9b7e 6b3e 88fc 943d e99f f2bd 86e2 973d

actor_fc1.bias f4 [512]
-0.05347077 0.052092183 0.06651632 0.020774588 -0.0076791677 0.07687383 0.08710892 -0.050846044
-0.01414203 0.006447875 -0.054249488 -0.066553615 0.036185607 -0.104804315 -0.0120290695 0.008885221
0.015656292 -0.063864306 0.05317611 0.054977886 0.0012668333 0.0155199915 0.08501728 0.012945719
0.057030324 -0.019910682 0.08489145 0.00050512154 0.118481405 0.01884673 0.05195207 -0.052442323
-0.0026737272 -0.057492066 0.13439758 -0.014387624 0.019989459 0.03943874 0.001720032 -0.013483888
0.021697847 -0.014213856 0.04808994 0.050752345 0.058719862 0.13103186 0.0548359 -0.03027732
0.009406629 -0.008139924 0.11380832 0.027576337 -0.1253036 -0.025039222 -0.055356115 -0.0620469
0.054872785 0.051241703 0.114970595 -0.11070786 0.08231143 0.016518136 0.115264356 -0.08896241
0.07717788 0.01563963 -0.081915945 0.08445742 0.046843983 0.10283742 -0.008850927 0.029063148
0.13263704 0.075701706 -0.05660226 0.10210463 0.05756163 -0.036447633 0.027037883 0.073235154
-0.012032206 0.095037796 -0.020654881 -0.040551327 0.030801468 0.010298874 0.12292599 -0.009125443
-0.03313898 0.0075750314 -0.03209951 0.008427146 0.07928632 0.064568706 0.061449762 -0.0616165
0.09042106 0.10965005 0.059730664 -0.01252939 0.0047845864 0.076436505 0.021933975 -0.0035856937
0.024426755 -0.043791875 0.004712963 -0.027326766 -0.060366735 0.037619445 0.033669718 -0.013950169
-0.08002512 -0.11114333 -0.0040943543 -0.16054629 0.02058091 -0.057485994 0.0007963483 -0.060679108
0.06851023 0.024926951 0.050273597 0.12357161 0.1792048 0.068150036 -0.03976645 0.12102185
-0.0023072422 0.08619207 -0.05244963 -0.10675309 0.012384804 0.05370146 -0.0022898102 -0.006805546
0.104948066 0.07406531 0.005427497 -0.028675172 0.011990908 0.025572851 0.09571424 -0.12631652
0.105597556 0.07784572 -0.107931316 0.09258265 0.08379158 0.054085158 0.039395537 -0.06794873
-0.05251749 0.11789991 -0.018098308 -0.013433359 -0.079248436 -0.03324942 0.028277999 0.05245801
-0.05232688 0.0593888 -0.12770292 -0.059596274 -0.09986042 0.04772322 -0.09496533 0.0089008
0.017832302 -0.013731989 0.09562804 0.09925785 -0.07515343 -0.06362491 0.06638979 0.08218141
-0.038663056 0.036487397 0.043778088 0.042652555 0.0019805331 0.09558913 0.12660286 0.040131494
0.13044246 0.060083695 -0.04541608 0.006723623 0.06273603 -0.019486332 -0.0639325 -0.0038792486
0.058346067 -0.00097407325 -0.10795351 0.083001964 0.022227725 0.08139738 0.007579992 0.015474469
0.11215299 0.14217396 -0.11982663 0.09995998 -0.075728126 -0.049673505 0.054822646 -0.056844644
0.0117179435 -0.0013716017 0.04334141 -0.06417896 -0.024028957 0.121044956 -0.06826966 -0.1257203
0.051964555 0.027272291 -0.10234609 0.11383729 -0.14125307 0.082560495 0.09722201 -0.06866344
0.06010031 0.026750818 -0.13893698 0.041471116 0.09781698 0.06605569 0.024909554 0.012461002
0.10157289 0.03918878 0.037309814 -0.005252622 0.0102807395 0.10965114 -0.09279654 0.13521692
0.0628973 -0.097979225 0.0060387673 -0.0896341 -0.03743343 0.08322504 -0.03384811 0.032956675
0.109673776 -0.06447834 0.04582655 -0.1280906 -0.06684476 0.11991781 -0.08465058 0.019293182
00000000: 2b04 5bbd 9d5e 553d b539 883d 782f aa3c
00000010: 87a1 fbbb 0770 9d3d 2966 b23d f143 50bd
00000020: f9b3 67bc b248 d33b b634 5ebd 434d 88bd
00000030: 5c37 143d a5a3 d6bd 9315 45bc 5193 113c
00000040: a041 803c 4acb 82bd 31cf 593d 7e30 613d
00000050: df0b a63a 9047 7e3c 8a1d ae3d 481a 543c
00000060: a198 693d ba1b a3bc 92db ad3d 226a 043a
00000070: 61a6 f23d 7564 9a3c b2cb 543d c3cd 56bd
00000080: b339 2fbb cd7c 6bbd 859f 093e 12ba 6bbc
00000090: efc0 a33c 848a 213d b272 e13a 86eb 5cbc
000000a0: afbf b13c 3ce1 68bc f5f9 443d b1e1 4f3d
000000b0: 3d84 703d 372d 063e 9c9b 603d 2408 f8bc
000000c0: 431e 1a3c 515d 05bc 5614 e93d c5e7 e13c
000000d0: 964f 00be 0e1f cdbc 18bd 62bd e424 7ebd
000000e0: 49c2 603d d2e2 513d b475 eb3d cdba e2bd
000000f0: e592 a83d 0b51 873c b80f ec3d ed31 b6bd
00000100: 700f 9e3d ae1e 803c 8cc3 a7bd 03f8 ac3d
00000110: 7adf 3f3d 6d9c d23d 7b03 11bc d715 ee3c
00000120: 01d2 073e 7f09 9b3d c5d7 67bd 3b1c d13d
00000130: bec5 6b3d 1d4a 15bd 8d7e dd3c 50fc 953d
00000140: bb22 45bc 2da3 c23d 6d34 a9bc 2619 26bd
00000150: 5c53 fc3c 9cbc 283c 9fc0 fb3d e282 15bc
00000160: bdbc 07bd f837 f83b c77a 03bd 0312 0a3c
00000170: de60 a23d 993c 843d bfb2 7b3d 9561 7cbd
00000180: ad2e b93d 3590 e03d 24a8 743d 1248 4dbc
00000190: 05c8 9c3b be8a 9c3d e1ae b33c f5fd 6abb
000001a0: 9e1a c83c 1c5f 33bd 336f 9a3b 62dc dfbc
000001b0: 1c43 77bd d916 1a3d 42e9 093d 408f 64bc
000001c0: 36e4 a3bd 1d9f e3bd ef29 86bb 3f66 24be
000001d0: 4c99 a83c 6f76 6bbd 08c2 503a a88a 78bd
000001e0: 174f 8c3d 9b33 cc3c b0eb 4d3d 1d13 fd3d
000001f0: 7781 373e 3f92 8b3d 25e2 22bd 4eda f73d
00000200: 1a35 17bb 7885 b03d 6cd5 56bd 5da1 dabd
00000210: a2e9 4a3c 10f6 5b3d a410 16bb 0f01 dfbb
00000220: 03ef d63d 8eaf 973d 25d9 b13b 32e8 eabc
00000230: 8375 443c 287e d13c d405 c43d 1e59 01be
00000240: 8843 d83d 946d 9f3d 180b ddbd f99b bd3d
00000250: eb9a ab3d 6688 5d3d 375d 213d b428 8bbd
00000260: 941c 57bd 8275 f13d e742 94bc 9717 5cbc
00000270: 014d a2bd 8b30 08bd 43a7 e73c 36de 563d
00000280: b654 56bd ac41 733d 8ec4 02be 391b 74bd
00000290: 9f83 ccbd 6c79 433d 2f7d c2bd a9d4 113c
000002a0: 0c15 923c 23fc 60bc a2d8 c33d b347 cb3d
000002b0: 0bea 99bd c74d 82bd 5ff7 873d ba4e a83d
000002c0: 275d 1ebd cf73 153d a750 333d 72b4 2e3d
000002d0: d5cb 013b 3cc4 c33d 2ea4 013e ec60 243d
000002e0: b592 053e 521a 763d 3606 3abd d651 dc3b
000002f0: bf7b 803d cda1 9fbc 0bef 82bd fe3a 7ebb
00000300: 49fc 6e3d f358 7fba bb16 ddbd effc a93d
00000310: eb16 b63c abb3 a63d 9561 f83b a188 7d3c
00000320: 78b0 e53d 0d96 113e aa67 f5bd d1b7 cc3d
00000330: 5917 9bbd 7276 4bbd b68d 603d eed5 68bd
00000340: 9efc 3f3c 51c7 b3ba c386 313d 4270 83bd
00000350: 60d8 c4bc 6be6 f73d f7d0 8bbd d3bc 00be
00000360: c9d8 543d 246a df3c d49a d1bd 8623 e93d
00000370: a5a4 10be 7a15 a93d 551c c73d 6b9f 8cbd
00000380: be2b 763d 8824 db3c 7f45 0ebe 9edd 293d
00000390: 4554 c83d 3548 873d 1f0f cc3c 3b29 4c3c
000003a0: 7305 d03d 6a84 203d 2dd2 183d 301e acbb
000003b0: 8c70 283c c790 e03d 1d0c bebd 4e76 0a3e
000003c0: 4dd0 803d 55a9 c8bd dae0 c53b 1592 b7bd
000003d0: cc53 19bd e471 aa3d 51a4 0abd 94fd 063d
000003e0: a59c e03d 380d 84bd 9fb4 3b3d 2f2a 03be
000003f0: e8e5 88bd 7897 f53d 495d adbd bc0c 9e3c

actor_fc2.weight f4 [7, 512]
-0.011417352 -0.105219185 -0.14198604 -0.11866755 0.091976784 0.056570895 0.087705776 0.0069342228
0.04088422 0.092319876 0.015349734 0.1138112 -0.13665795 -0.0747641 0.09802468 -0.17743647
0.030842992 0.019313794 -0.00013847975 0.009959141 0.008793358 0.010204074 -0.092003696 0.09389646
0.0035439276 -0.09803698 -0.010454396 0.036252383 -0.015194313 -0.00851214 0.11186263 -0.105592094
0.09655554 -0.022777008 0.070160605 0.016438294 -0.07915012 -0.044036057 -0.098676994 -0.13998282
-0.09702311 0.07434779 0.03452727 0.03474593 0.028918449 0.024216376 0.009371508 -0.0021928675
-0.0021167623 -0.1081925 0.009089243 0.05646232 -0.010623057 -0.009991661 -0.052169655 9.527373e-05
-0.11533919 -0.13232332 0.041537073 0.015042713 -0.10351864 -0.028468568 -0.10643064 0.005318536
0.12301167 -0.03811909 -0.038091525 -0.058735494 0.009431275 -0.10267836 -0.13757016 -0.0648694
0.054597657 -0.0081624035 -0.096310146 -0.067804694 -0.018933069 0.011760134 0.017346103 -0.005621629
-0.045178685 0.02340035 0.10542743 0.046835814 0.031118933 -0.040458165 -0.09839788 0.056143656
-0.016675206 -0.111201465 -0.033654474 0.05373241 -0.112441525 0.09833957 0.10949181 -0.018493257
0.0091996575 0.14047486 0.030289913 -0.07625916 0.0004586497 0.03961459 0.08402377 0.07054104
0.10899663 0.089170955 0.018007744 0.08772118 -0.034317285 0.045394994 0.0114890095 -0.13876925
0.023897257 0.032423176 0.06499169 0.021758478 -0.010101409 0.016341021 0.0753575 0.0012354391
-0.034723107 0.03868803 -0.092989445 -0.13514714 0.10425297 -0.022161309 -0.009060616 0.0119175585
-0.0075594243 0.047609854 -0.034315206 -0.018197058 -0.048289943 -0.09577497 -0.07678691 0.009877542
0.043360714 -0.013336886 -0.0066011446 -0.0036918425 0.004519971 -0.054538257 0.09790432 -0.020478796
-0.020979699 -0.026562838 0.01733485 -0.047391832 -0.030942226 -0.030034114 -0.03309067 0.0068300795
-0.019892756 -0.07684376 0.096751496 0.030657908 -0.043180604 0.0069115227 -2.2881763e-05 0.09395489
-0.0100288065 0.073337555 0.011259772 0.10063419 0.046027645 -0.084938094 0.010237111 0.005727704
0.07280911 0.039270654 -0.026187038 0.033730723 -0.0777 0.08797734 -0.12009444 -0.06711653
0.12673813 -0.08352633 0.111450635 -0.12182566 -0.026099142 -0.028128974 -0.09285362 0.019258607
-0.10142432 0.023927731 -0.009143132 -0.08226233 -0.035231393 0.115500025 0.00755337 -0.117995635
0.12619558 0.0010956479 -0.019524937 0.092505574 -0.02449769 -0.068537034 -0.0721573 -0.071122125
0.044383254 -0.02218984 -0.010938155 0.10462776 -0.06833729 0.085162185 -0.11558703 0.024156518
0.049297184 -0.017222825 0.0476198 -0.0050899363 -0.12755692 0.03300199 -0.06188878 0.02182124
-0.052226473 -0.091146566 0.027603986 0.03207766 -0.0061385767 -0.107283264 0.078825615 -0.045390762
0.11187036 -0.037814446 0.003971542 -0.04765745 0.07636085 0.064409666 0.041104857 -0.015078224
-0.016095582 0.030443847 0.045086373 0.1301408 -0.042726472 0.038347367 0.018908583 0.12730502
0.009320996 0.019218467 0.07198042 0.040502965 0.11222676 0.041334305 0.07045299 -0.035173375
-0.08269981 -0.094893344 -0.07305913 0.027244754 0.09173367 0.10997244 -0.13166663 0.013822735
00000000: d80f 3bbc 287d d7bd ca64 11be f907 f3bd
00000010: 535e bc3d e2b6 673d 169f b33d 7a38 e33b
00000020: 3676 273d 3412 bd3d 737d 7b3c d915 e93d
00000030: 10f0 0bbe ec1d 99bd 2ac1 c83d e8b1 35be
00000040: 71aa fc3c f637 9e3c e034 11b9 aa2b 233c
00000050: 0412 103c fd2e 273c 6f6c bcbd ca4c c03d
00000060: 3d41 683b 9dc7 c8bd ea48 2bbc 617d 143d
00000070: 91f1 78bc 8176 0bbc 3c18 e53d ab40 d8bd
00000080: e9be c53d d996 babc 5db0 8f3d 9aa9 863c
00000090: 7519 a2bd 275f 34bd 2a17 cabd a857 0fbe
000000a0: 0db4 c6bd a743 983d 776c 0d3d c051 0e3d
000000b0: 62e6 ec3c 6c61 c63c f48a 193c 36b6 0fbb
000000c0: 61b9 0abb 0894 ddbd 0ceb 143c 0945 673d
000000d0: 550c 2ebc 10b4 23bc d9af 55bd b2cd c738
000000e0: f436 ecbd c47f 07be c722 2a3d b675 763c
000000f0: 9501 d4bd ea36 e9bc 4ff8 d9bd 1d47 ae3b
00000100: 8bed fb3d c322 1cbd dc05 1cbd a194 70bd
00000110: a285 1a3c 0849 d2bd 31df 0cbe 3fda 84bd
00000120: cba1 5f3d 9abb 05bc 413e c5bd 30dd 8abd
00000130: 8619 9bbc 94ad 403c 6a19 8e3c a435 b8bb
00000140: 490d 39bd 17b2 bf3c 56ea d73d e9d6 3f3d
00000150: 22ed fe3c 76b7 25bd d484 c9bd e4f6 653d
00000160: 719a 88bc 98bd e3bd 46d9 09bd 8416 5c3d
00000170: be47 e6bd 4266 c93d 3e3d e03d 2c7f 97bc
00000180: 29ba 163c a4d8 0f3e 8d22 f83c c32d 9cbd
00000190: ec76 f039 e942 223d a814 ac3d d277 903d
000001a0: a039 df3d 439f b63d fa84 933c 29a7 b33d
000001b0: 4890 0cbd 1af0 393d 663c 3c3c 8719 0ebe
000001c0: 2ec4 c33c 2ace 043d 5d1a 853d d63e b23c
000001d0: 6180 25bc 9bdd 853c 0855 9a3d 75ee a13a
000001e0: d139 0ebd 5777 1e3d 4071 bebd 0364 0abe
000001f0: 9582 d53d a28b b5bc fa72 14bc dd41 433c
00000200: 0cb5 f7bb 8d02 433d 1a8e 0cbd ff11 95bc
00000210: adcb 45bd ab25 c4bd 7542 9dbd 6ad5 213c
00000220: 019b 313d f482 5abc 6a4e d8bb d7f2 71bb
00000230: 441c 943b 8263 5fbd 0f82 c83d 26c3 a7bc
00000240: 9edd abbc 4f9a d9bc d101 8e3c f01d 42bd
00000250: 8d7a fdbc 1a0a f6bc 158a 07bd dcce df3b
00000260: 22f6 a2bc 4360 9dbd a625 c63d 4b26 fb3c
00000270: 25de 30bd 0e7a e23b 36f2 bfb7 6c6b c03d
00000280: dd4f 24bc 0032 963d e87a 383c 4c19 ce3d
00000290: 7c87 3c3d 06f4 adbd 8eb9 273c 77af bb3b
000002a0: f11c 953d 44da 203d 3386 d6bc 3a29 0a3d
000002b0: 2d21 9fbd 772d b43d 13f4 f5bd 6474 89bd
000002c0: a4c7 013e da0f abbd 3b40 e43d bb7f f9bd
000002d0: decd d5bc bc6e e6bc 0a2a bebd 3ac4 9d3c
000002e0: 8eb7 cfbd 1704 c43c 13cd 15bc 2779 a8bd
000002f0: cb4e 10bd 478b ec3d 4382 f73b b2a7 f1bd
00000300: 6a39 013e d89b 8f3a c3f2 9fbc 9073 bd3d
00000310: 61af c8bc 255d 8cbd 35c7 93bd 7aa8 91bd
00000320: 37cb 353d 78c7 b5bc f335 33bc 1447 d63d
00000330: 6cf4 8bbd 8369 ae3d e5b8 ecbd e4e3 c53c
00000340: d8eb 493d e216 8dbc fb0c 433d 7bc9 a6bb
00000350: 489e 02be 182d 073d 177f 7dbd 75c2 b23c
00000360: 6deb 55bd 0dab babd c121 e23c dd63 033d
00000370: 1d26 c9bb 54b7 dbbd 536f a13d aaeb 39bd
00000380: 4a1c e53d 52e3 1abd b623 823b 7534 43bd
00000390: 1463 9c3d 37e9 833d 915d 283d a80a 77bc
000003a0: e2da 83bc 6065 f93c 7dac 383d a143 053e
000003b0: f401 2fbd 2112 1d3d 2ce6 9a3c 3f5c 023e
000003c0: 17b7 183c 0c70 9d3c 786a 933d 70e6 253d
000003d0: 25d7 e53d 294e 293d a849 903d f511 10bd
000003e0: 855e a9bd 7157 c2bd 06a0 95bd 6430 df3c
000003f0: ddde bb3d 3b39 e13d 9ed3 06be c178 623c

actor_fc2.bias f4 [7]
-0.0043010702 0.007559435 -0.011208757 -0.013622201 -0.011242669 0.020335825 -0.029831383
00000000: feef 8cbb 23b5 f73b efa4 37bc a72f 5fbc
00000010: 2c33 38bc 5197 a63c f260 f4bc

critic_conv1.weight f4 [16, 3, 2, 2]
0.098596804 -0.3603394 -0.23755284 0.15232942 0.15126693 0.038334426 0.044955887 -0.012584987
-0.013645125 -0.40193284 -0.07242626 -0.24993835 0.24932672 -0.33098114 -0.32809743 -0.113499574
0.11922724 -0.017406788 -0.21317616 -0.25029206 0.21779758 0.06832452 -0.07391737 0.046543803
-0.008561193 -0.25198317 -0.08384649 -0.17218289 0.2610942 -0.008572016 0.109608166 -0.15351526
0.16802885 0.094035454 0.1576511 -0.2591069 0.3554287 -0.19390881 0.25042292 -0.2156653
-0.13185179 -0.22189772 0.14968611 -0.26092285 -0.022299526 0.27933043 -0.109344766 0.1282119
-0.10912958 -0.30924183 0.09192076 0.29130888 -0.2548487 0.2622751 -0.0034207057 -0.10541239
0.006769383 0.23009835 -0.122752495 -0.025621876 -0.1754646 -0.020950295 0.15664065 -0.1529539
0.10683622 0.2407611 -0.0873292 -0.09605445 -0.2787536 0.3909507 -0.087286934 0.039411787
0.33677003 -0.18216047 0.0013210076 -0.0955422 -0.071169466 0.0014647627 0.12649322 0.11132558
-0.3181989 0.03478587 0.0048702615 0.10645172 -0.228551 -0.04713988 -0.10679322 0.1138076
-0.17666408 0.03664897 -0.014062195 0.22257255 -0.28383875 -0.037407536 0.18600745 0.006846428
-0.0057196105 -0.15931883 0.18329993 0.3187223 -0.020086795 -0.06876926 0.013939308 -0.1434836
-0.3479436 0.0030654755 -0.19209035 -0.020087807 0.09273688 -0.2854704 0.14388652 0.0074341567
0.19648966 -0.32114318 0.18505923 0.12663613 0.39121208 0.03590634 0.37596503 -0.22171094
0.09097944 0.33990437 -0.27617958 0.1834409 -0.082478985 0.18567006 0.120751955 -0.2954404
0.068499856 -0.12172757 -0.2734511 -0.28563076 -0.10122691 -0.2201989 -0.2875262 -0.05252525
0.21311475 0.27441844 0.108039334 -0.21287143 -0.28383952 -0.31633198 -0.0012727877 -0.16993085
-0.10001043 0.33154407 0.14528516 0.20457079 -0.21338312 -0.21270493 0.069083706 0.026147751
-0.08139304 -0.43532452 -0.2674051 -0.3100263 0.10944093 -0.020473173 0.14323103 -0.11589955
-0.25228253 -0.08777077 -0.058951445 0.23134875 0.23735414 -0.052869685 -0.16267866 -0.10828502
-0.22542599 -0.19676739 -0.34936383 0.23251607 0.14257589 -0.11179668 -0.041198313 -0.0885104
-0.06588656 0.41969007 0.09608788 -0.13989057 0.16742392 -0.054723043 -0.061490368 -0.27563336
0.0034413117 0.24510106 -0.341564 0.0056178374 0.09563547 0.47778767 -0.052981514 0.22535865
00000000: 1fed c93d 687e b8be 0d41 73be 3efc 1b3e
00000010: b8e5 1a3e 8f04 1d3d aa23 383d 4331 4ebc
00000020: cd8f 5fbc 24ca cdbe 3854 94bd d7ef 7fbe
00000030: 814f 7f3e 5c76 a9be 63fc a7be 7772 e8bd
00000040: 692d f43d ae98 8ebc da4a 5abe 4826 80be
00000050: 5406 5f3e baed 8b3d fd61 97bd b7a4 3e3d
00000060: 3f44 0cbc f003 81be b5b7 abbd b650 30be
00000070: 24ae 853e a471 0cbc 3f7a e03d 1b33 1dbe
00000080: c10f 2c3e a995 c03d 4a6f 213e a9a9 84be
00000090: c0fa b53e 0890 46be 6f37 803e 5dd7 5cbe
000000a0: 2804 07be 2839 63be 5147 193e ae97 85be
000000b0: 7fad b6bc 6604 8f3e 26f0 dfbd fb49 033e
000000c0: 547f dfbd f254 9ebe f440 bc3d 7026 953e
000000d0: 877b 82be ec48 863e eb2d 60bb 73e2 d7bd
000000e0: b3d1 dd3b e79e 6b3e a965 fbbd f8e4 d1bc
000000f0: feac 33be f49f abbc 6866 203e f29f 1cbe
00000100: f3cc da3d 148a 763e a7d9 b2bd 32b8 c4bd
00000110: cbb8 8ebe b12a c83e 7ec3 b2bd 416e 213d
00000120: 1f6d ac3e 4688 3abe a925 ad3a a1ab c3bd
00000130: 4cc1 91bd 48fd bf3a 7087 013e aafe e33d
00000140: f7ea a2be a17b 0e3d b796 9f3b 5c03 da3d
00000150: 4609 6abe bf15 41bd 67b6 dabd f613 e93d
00000160: 6ee7 34be 3b1d 163d 1f65 66bc 0fea 633e
00000170: 5053 91be a538 19bd bd78 3e3e 0058 e03b
00000180: 926b bbbb 7a24 23be fab2 3b3e 922f a33e
00000190: 108d a4bc e6d6 8cbd b261 643c 5ded 12be
000001a0: aa25 b2be 25e6 483b 55b3 44be 2f8f a4bc
000001b0: d5ec bd3d 2d29 92be fd56 133e 3a9a f33b
000001c0: 9634 493e e16c a4be 2b80 3d3e e7ac 013e
000001d0: f34c c83e 8712 133d 7d7e c03e 3108 63be
000001e0: 6e53 ba3d f207 ae3e 6967 8dbe eed7 3b3e
000001f0: beea a8bd 4b20 3e3e cd4c f73d f743 97be
00000200: a749 8c3d 4e4c f9bd c801 8cbe 323e 92be
00000210: 0e50 cfbd d27b 61be a236 93be b724 57bd
00000220: c13a 5a3e 9380 8c3e ba43 dd3d f8fa 59be
00000230: 6a53 91be 44f6 a1be abd3 a6ba 5a02 2ebe
00000240: 45d2 ccbd 25c0 a93e a2c5 143e 017b 513e
00000250: 1b81 5abe 52cf 59be c27b 8d3d cf33 d63c
00000260: 65b1 a6bd dbe2 debe 52e9 88be c4bb 9ebe
00000270: 9122 e03d 5bb7 a7bc 28ab 123e be5c edbd
00000280: 2d2b 81be 29c1 b3bd 1277 71bd b0e6 6c3e
00000290: f70c 733e e28d 58bd 3c95 26be 89c4 ddbd
000002a0: 12d6 66be 647d 49be d1df b2be b118 6e3e
000002b0: 6aff 113e a8f5 e4bd 90bf 28bd f144 b5bd
000002c0: 88ef 86bd 9ee1 d63e b9c9 c43d 793f 0fbe
000002d0: 2d71 2b3e 4525 60bd 53dd 7bbd d11f 8dbe
000002e0: a187 613b c6fb 7a3e 7ae1 aebe d615 b83b
000002f0: 87dc c33d 96a0 f43e 2503 59bd 6bc4 663e

critic_conv1.bias f4 [16]
-0.14165178 -0.27367556 -0.19874752 0.20597646 -0.036527652 -0.022464152 -0.028399477 -0.12030305
-0.17892574 -0.12036502 -0.34188828 -0.23614435 -0.014116246 0.10083326 0.035506207 0.14909661
00000000: 2a0d 11be 341f 8cbe 7884 4bbe 7eeb 523e
00000010: 059e 15bd be06 b8bc 05a6 e8bc 7261 f6bd
00000020: 4f38 37be f081 f6bd fb0b afbe d3cf 71be
00000030: d447 67bc ab81 ce3d f56e 113d c8ac 183e
